{"format": "graph-model", "generatedBy": "2.19.0", "convertedBy": "TensorFlow.js Converter v4.22.0", "signature": {"outputs": {"Identity:0": {"name": "Identity:0"}}}, "modelTopology": {"node": [{"name": "ConstantFolding/model_213/tf.math.divide/truediv_recip", "op": "Const", "attr": {"value": {"tensor": {"dtype": "DT_FLOAT", "tensorShape": {}}}, "dtype": {"type": "DT_FLOAT"}}}, {"name": "model_213/tf.strided_slice_25/ones_like/tensor", "op": "Const", "attr": {"value": {"tensor": {"dtype": "DT_INT64", "tensorShape": {"dim": [{"size": "3"}]}}}, "dtype": {"type": "DT_INT64"}}}, {"name": "model_213/tf.strided_slice_25/StridedSlice/end", "op": "Const", "attr": {"value": {"tensor": {"dtype": "DT_INT64", "tensorShape": {"dim": [{"size": "3"}]}}}, "dtype": {"type": "DT_INT64"}}}, {"name": "model_213/tf.strided_slice_25/ones_like", "op": "Const", "attr": {"value": {"tensor": {"dtype": "DT_INT64", "tensorShape": {"dim": [{"size": "3"}]}}}, "dtype": {"type": "DT_INT64"}}}, {"name": "model_213/tf.math.add_142/Add/y", "op": "Const", "attr": {"value": {"tensor": {"dtype": "DT_FLOAT", "tensorShape": {"dim": [{"size": "1"}, {"size": "2"}, {"size": "8400"}]}}}, "dtype": {"type": "DT_FLOAT"}}}, {"name": "model_213/69217", "op": "Const", "attr": {"value": {"tensor": {"dtype": "DT_FLOAT", "tensorShape": {"dim": [{"size": "1"}, {"size": "2"}, {"size": "8400"}]}}}, "dtype": {"type": "DT_FLOAT"}}}, {"name": "model_213/tf.nn.convolution_122/convolution/filter", "op": "Const", "attr": {"value": {"tensor": {"dtype": "DT_FLOAT", "tensorShape": {"dim": [{"size": "3"}, {"size": "3"}, {"size": "64"}, {"size": "64"}]}}}, "dtype": {"type": "DT_FLOAT"}}}, {"name": "model_213/tf.math.add_87/Add/y", "op": "Const", "attr": {"value": {"tensor": {"dtype": "DT_FLOAT", "tensorShape": {"dim": [{"size": "64"}]}}}, "dtype": {"type": "DT_FLOAT"}}}, {"name": "model_213/tf.nn.convolution_123/convolution/filter", "op": "Const", "attr": {"value": {"tensor": {"dtype": "DT_FLOAT", "tensorShape": {"dim": [{"size": "3"}, {"size": "3"}, {"size": "64"}, {"size": "64"}]}}}, "dtype": {"type": "DT_FLOAT"}}}, {"name": "model_213/tf.math.add_89/Add/y", "op": "Const", "attr": {"value": {"tensor": {"dtype": "DT_FLOAT", "tensorShape": {"dim": [{"size": "64"}]}}}, "dtype": {"type": "DT_FLOAT"}}}, {"name": "model_213/tf.nn.convolution_126/convolution/filter", "op": "Const", "attr": {"value": {"tensor": {"dtype": "DT_FLOAT", "tensorShape": {"dim": [{"size": "1"}, {"size": "1"}, {"size": "64"}, {"size": "64"}]}}}, "dtype": {"type": "DT_FLOAT"}}}, {"name": "model_213/tf.math.add_92/Add/y", "op": "Const", "attr": {"value": {"tensor": {"dtype": "DT_FLOAT", "tensorShape": {"dim": [{"size": "64"}]}}}, "dtype": {"type": "DT_FLOAT"}}}, {"name": "model_213/tf.compat.v1.transpose_254/transpose/perm", "op": "Const", "attr": {"value": {"tensor": {"dtype": "DT_INT32", "tensorShape": {"dim": [{"size": "4"}]}}}, "dtype": {"type": "DT_INT32"}}}, {"name": "model_213/tf.reshape_34/Reshape/shape", "op": "Const", "attr": {"value": {"tensor": {"dtype": "DT_INT32", "tensorShape": {"dim": [{"size": "3"}]}}}, "dtype": {"type": "DT_INT32"}}}, {"name": "model_213/tf.nn.convolution_138/convolution/filter", "op": "Const", "attr": {"value": {"tensor": {"dtype": "DT_FLOAT", "tensorShape": {"dim": [{"size": "3"}, {"size": "3"}, {"size": "128"}, {"size": "64"}]}}}, "dtype": {"type": "DT_FLOAT"}}}, {"name": "model_213/tf.math.add_109/Add/y", "op": "Const", "attr": {"value": {"tensor": {"dtype": "DT_FLOAT", "tensorShape": {"dim": [{"size": "64"}]}}}, "dtype": {"type": "DT_FLOAT"}}}, {"name": "model_213/tf.nn.convolution_139/convolution/filter", "op": "Const", "attr": {"value": {"tensor": {"dtype": "DT_FLOAT", "tensorShape": {"dim": [{"size": "3"}, {"size": "3"}, {"size": "64"}, {"size": "64"}]}}}, "dtype": {"type": "DT_FLOAT"}}}, {"name": "model_213/tf.math.add_111/Add/y", "op": "Const", "attr": {"value": {"tensor": {"dtype": "DT_FLOAT", "tensorShape": {"dim": [{"size": "64"}]}}}, "dtype": {"type": "DT_FLOAT"}}}, {"name": "model_213/tf.nn.convolution_142/convolution/filter", "op": "Const", "attr": {"value": {"tensor": {"dtype": "DT_FLOAT", "tensorShape": {"dim": [{"size": "1"}, {"size": "1"}, {"size": "64"}, {"size": "64"}]}}}, "dtype": {"type": "DT_FLOAT"}}}, {"name": "model_213/tf.math.add_114/Add/y", "op": "Const", "attr": {"value": {"tensor": {"dtype": "DT_FLOAT", "tensorShape": {"dim": [{"size": "64"}]}}}, "dtype": {"type": "DT_FLOAT"}}}, {"name": "model_213/tf.compat.v1.transpose_282/transpose/perm", "op": "Const", "attr": {"value": {"tensor": {"dtype": "DT_INT32", "tensorShape": {"dim": [{"size": "4"}]}}}, "dtype": {"type": "DT_INT32"}}}, {"name": "model_213/tf.reshape_40/Reshape/shape", "op": "Const", "attr": {"value": {"tensor": {"dtype": "DT_INT32", "tensorShape": {"dim": [{"size": "3"}]}}}, "dtype": {"type": "DT_INT32"}}}, {"name": "model_213/tf.nn.convolution_280/convolution/filter", "op": "Const", "attr": {"value": {"tensor": {"dtype": "DT_FLOAT", "tensorShape": {"dim": [{"size": "3"}, {"size": "3"}, {"size": "256"}, {"size": "64"}]}}}, "dtype": {"type": "DT_FLOAT"}}}, {"name": "model_213/tf.math.add_134/Add/y", "op": "Const", "attr": {"value": {"tensor": {"dtype": "DT_FLOAT", "tensorShape": {"dim": [{"size": "64"}]}}}, "dtype": {"type": "DT_FLOAT"}}}, {"name": "model_213/tf.nn.convolution_281/convolution/filter", "op": "Const", "attr": {"value": {"tensor": {"dtype": "DT_FLOAT", "tensorShape": {"dim": [{"size": "3"}, {"size": "3"}, {"size": "64"}, {"size": "64"}]}}}, "dtype": {"type": "DT_FLOAT"}}}, {"name": "model_213/tf.math.add_136/Add/y", "op": "Const", "attr": {"value": {"tensor": {"dtype": "DT_FLOAT", "tensorShape": {"dim": [{"size": "64"}]}}}, "dtype": {"type": "DT_FLOAT"}}}, {"name": "model_213/tf.nn.convolution_283/convolution/filter", "op": "Const", "attr": {"value": {"tensor": {"dtype": "DT_FLOAT", "tensorShape": {"dim": [{"size": "1"}, {"size": "1"}, {"size": "64"}, {"size": "64"}]}}}, "dtype": {"type": "DT_FLOAT"}}}, {"name": "model_213/tf.math.add_138/Add/y", "op": "Const", "attr": {"value": {"tensor": {"dtype": "DT_FLOAT", "tensorShape": {"dim": [{"size": "64"}]}}}, "dtype": {"type": "DT_FLOAT"}}}, {"name": "model_213/tf.compat.v1.transpose_373/transpose/perm", "op": "Const", "attr": {"value": {"tensor": {"dtype": "DT_INT32", "tensorShape": {"dim": [{"size": "4"}]}}}, "dtype": {"type": "DT_INT32"}}}, {"name": "model_213/tf.reshape_78/Reshape/shape", "op": "Const", "attr": {"value": {"tensor": {"dtype": "DT_INT32", "tensorShape": {"dim": [{"size": "3"}]}}}, "dtype": {"type": "DT_INT32"}}}, {"name": "model_213/tf.concat_21/concat/axis", "op": "Const", "attr": {"value": {"tensor": {"dtype": "DT_INT32", "tensorShape": {}}}, "dtype": {"type": "DT_INT32"}}}, {"name": "model_213/tf.reshape_81/Reshape/shape", "op": "Const", "attr": {"value": {"tensor": {"dtype": "DT_INT32", "tensorShape": {"dim": [{"size": "4"}]}}}, "dtype": {"type": "DT_INT32"}}}, {"name": "model_213/tf.compat.v1.transpose_381/transpose/perm", "op": "Const", "attr": {"value": {"tensor": {"dtype": "DT_INT32", "tensorShape": {"dim": [{"size": "4"}]}}}, "dtype": {"type": "DT_INT32"}}}, {"name": "model_213/tf.compat.v1.transpose_382/transpose/perm", "op": "Const", "attr": {"value": {"tensor": {"dtype": "DT_INT32", "tensorShape": {"dim": [{"size": "4"}]}}}, "dtype": {"type": "DT_INT32"}}}, {"name": "model_213/tf.nn.convolution_285/convolution/filter", "op": "Const", "attr": {"value": {"tensor": {"dtype": "DT_FLOAT", "tensorShape": {"dim": [{"size": "1"}, {"size": "1"}, {"size": "16"}, {"size": "1"}]}}}, "dtype": {"type": "DT_FLOAT"}}}, {"name": "model_213/tf.compat.v1.transpose_388/transpose/perm", "op": "Const", "attr": {"value": {"tensor": {"dtype": "DT_INT32", "tensorShape": {"dim": [{"size": "4"}]}}}, "dtype": {"type": "DT_INT32"}}}, {"name": "model_213/tf.reshape_107/Reshape/shape", "op": "Const", "attr": {"value": {"tensor": {"dtype": "DT_INT32", "tensorShape": {"dim": [{"size": "3"}]}}}, "dtype": {"type": "DT_INT32"}}}, {"name": "model_213/tf.strided_slice_24/ones_like/tensor", "op": "Const", "attr": {"value": {"tensor": {"dtype": "DT_INT64", "tensorShape": {"dim": [{"size": "3"}]}}}, "dtype": {"type": "DT_INT64"}}}, {"name": "model_213/tf.strided_slice_24/StridedSlice/end", "op": "Const", "attr": {"value": {"tensor": {"dtype": "DT_INT64", "tensorShape": {"dim": [{"size": "3"}]}}}, "dtype": {"type": "DT_INT64"}}}, {"name": "model_213/tf.strided_slice_24/ones_like", "op": "Const", "attr": {"value": {"tensor": {"dtype": "DT_INT64", "tensorShape": {"dim": [{"size": "3"}]}}}, "dtype": {"type": "DT_INT64"}}}, {"name": "model_213/tf.concat_27/concat/axis", "op": "Const", "attr": {"value": {"tensor": {"dtype": "DT_INT32", "tensorShape": {}}}, "dtype": {"type": "DT_INT32"}}}, {"name": "model_213/tf.math.multiply_406/Mul/y", "op": "Const", "attr": {"value": {"tensor": {"dtype": "DT_FLOAT", "tensorShape": {"dim": [{"size": "1"}, {"size": "1"}, {"size": "8400"}]}}}, "dtype": {"type": "DT_FLOAT"}}}, {"name": "model_213/tf.compat.v1.nn.depthwise_conv2d/depthwise/filter_in", "op": "Const", "attr": {"value": {"tensor": {"dtype": "DT_FLOAT", "tensorShape": {"dim": [{"size": "3"}, {"size": "3"}, {"size": "64"}, {"size": "1"}]}}}, "dtype": {"type": "DT_FLOAT"}}}, {"name": "model_213/tf.math.add_88/Add/y", "op": "Const", "attr": {"value": {"tensor": {"dtype": "DT_FLOAT", "tensorShape": {"dim": [{"size": "64"}]}}}, "dtype": {"type": "DT_FLOAT"}}}, {"name": "model_213/tf.nn.convolution_124/convolution/filter", "op": "Const", "attr": {"value": {"tensor": {"dtype": "DT_FLOAT", "tensorShape": {"dim": [{"size": "1"}, {"size": "1"}, {"size": "64"}, {"size": "64"}]}}}, "dtype": {"type": "DT_FLOAT"}}}, {"name": "model_213/tf.math.add_90/Add/y", "op": "Const", "attr": {"value": {"tensor": {"dtype": "DT_FLOAT", "tensorShape": {"dim": [{"size": "64"}]}}}, "dtype": {"type": "DT_FLOAT"}}}, {"name": "model_213/tf.compat.v1.nn.depthwise_conv2d_1/depthwise/filter_in", "op": "Const", "attr": {"value": {"tensor": {"dtype": "DT_FLOAT", "tensorShape": {"dim": [{"size": "3"}, {"size": "3"}, {"size": "64"}, {"size": "1"}]}}}, "dtype": {"type": "DT_FLOAT"}}}, {"name": "model_213/tf.math.add_93/Add/y", "op": "Const", "attr": {"value": {"tensor": {"dtype": "DT_FLOAT", "tensorShape": {"dim": [{"size": "64"}]}}}, "dtype": {"type": "DT_FLOAT"}}}, {"name": "model_213/tf.nn.convolution_129/convolution/filter", "op": "Const", "attr": {"value": {"tensor": {"dtype": "DT_FLOAT", "tensorShape": {"dim": [{"size": "1"}, {"size": "1"}, {"size": "64"}, {"size": "64"}]}}}, "dtype": {"type": "DT_FLOAT"}}}, {"name": "model_213/tf.math.add_96/Add/y", "op": "Const", "attr": {"value": {"tensor": {"dtype": "DT_FLOAT", "tensorShape": {"dim": [{"size": "64"}]}}}, "dtype": {"type": "DT_FLOAT"}}}, {"name": "model_213/tf.nn.convolution_131/convolution/filter", "op": "Const", "attr": {"value": {"tensor": {"dtype": "DT_FLOAT", "tensorShape": {"dim": [{"size": "1"}, {"size": "1"}, {"size": "64"}, {"size": "59"}]}}}, "dtype": {"type": "DT_FLOAT"}}}, {"name": "model_213/tf.math.add_98/Add/y", "op": "Const", "attr": {"value": {"tensor": {"dtype": "DT_FLOAT", "tensorShape": {"dim": [{"size": "59"}]}}}, "dtype": {"type": "DT_FLOAT"}}}, {"name": "model_213/tf.compat.v1.transpose_264/transpose/perm", "op": "Const", "attr": {"value": {"tensor": {"dtype": "DT_INT32", "tensorShape": {"dim": [{"size": "4"}]}}}, "dtype": {"type": "DT_INT32"}}}, {"name": "model_213/tf.reshape_37/Reshape/shape", "op": "Const", "attr": {"value": {"tensor": {"dtype": "DT_INT32", "tensorShape": {"dim": [{"size": "3"}]}}}, "dtype": {"type": "DT_INT32"}}}, {"name": "model_213/tf.compat.v1.nn.depthwise_conv2d_2/depthwise/filter_in", "op": "Const", "attr": {"value": {"tensor": {"dtype": "DT_FLOAT", "tensorShape": {"dim": [{"size": "3"}, {"size": "3"}, {"size": "128"}, {"size": "1"}]}}}, "dtype": {"type": "DT_FLOAT"}}}, {"name": "model_213/tf.math.add_110/Add/y", "op": "Const", "attr": {"value": {"tensor": {"dtype": "DT_FLOAT", "tensorShape": {"dim": [{"size": "128"}]}}}, "dtype": {"type": "DT_FLOAT"}}}, {"name": "model_213/tf.nn.convolution_140/convolution/filter", "op": "Const", "attr": {"value": {"tensor": {"dtype": "DT_FLOAT", "tensorShape": {"dim": [{"size": "1"}, {"size": "1"}, {"size": "128"}, {"size": "64"}]}}}, "dtype": {"type": "DT_FLOAT"}}}, {"name": "model_213/tf.math.add_112/Add/y", "op": "Const", "attr": {"value": {"tensor": {"dtype": "DT_FLOAT", "tensorShape": {"dim": [{"size": "64"}]}}}, "dtype": {"type": "DT_FLOAT"}}}, {"name": "model_213/tf.compat.v1.nn.depthwise_conv2d_3/depthwise/filter_in", "op": "Const", "attr": {"value": {"tensor": {"dtype": "DT_FLOAT", "tensorShape": {"dim": [{"size": "3"}, {"size": "3"}, {"size": "64"}, {"size": "1"}]}}}, "dtype": {"type": "DT_FLOAT"}}}, {"name": "model_213/tf.math.add_115/Add/y", "op": "Const", "attr": {"value": {"tensor": {"dtype": "DT_FLOAT", "tensorShape": {"dim": [{"size": "64"}]}}}, "dtype": {"type": "DT_FLOAT"}}}, {"name": "model_213/tf.nn.convolution_144/convolution/filter", "op": "Const", "attr": {"value": {"tensor": {"dtype": "DT_FLOAT", "tensorShape": {"dim": [{"size": "1"}, {"size": "1"}, {"size": "64"}, {"size": "64"}]}}}, "dtype": {"type": "DT_FLOAT"}}}, {"name": "model_213/tf.math.add_117/Add/y", "op": "Const", "attr": {"value": {"tensor": {"dtype": "DT_FLOAT", "tensorShape": {"dim": [{"size": "64"}]}}}, "dtype": {"type": "DT_FLOAT"}}}, {"name": "model_213/tf.nn.convolution_146/convolution/filter", "op": "Const", "attr": {"value": {"tensor": {"dtype": "DT_FLOAT", "tensorShape": {"dim": [{"size": "1"}, {"size": "1"}, {"size": "64"}, {"size": "59"}]}}}, "dtype": {"type": "DT_FLOAT"}}}, {"name": "model_213/tf.math.add_119/Add/y", "op": "Const", "attr": {"value": {"tensor": {"dtype": "DT_FLOAT", "tensorShape": {"dim": [{"size": "59"}]}}}, "dtype": {"type": "DT_FLOAT"}}}, {"name": "model_213/tf.compat.v1.transpose_291/transpose/perm", "op": "Const", "attr": {"value": {"tensor": {"dtype": "DT_INT32", "tensorShape": {"dim": [{"size": "4"}]}}}, "dtype": {"type": "DT_INT32"}}}, {"name": "model_213/tf.reshape_43/Reshape/shape", "op": "Const", "attr": {"value": {"tensor": {"dtype": "DT_INT32", "tensorShape": {"dim": [{"size": "3"}]}}}, "dtype": {"type": "DT_INT32"}}}, {"name": "model_213/tf.strided_slice_19/ones_like/tensor", "op": "Const", "attr": {"value": {"tensor": {"dtype": "DT_INT64", "tensorShape": {"dim": [{"size": "4"}]}}}, "dtype": {"type": "DT_INT64"}}}, {"name": "model_213/tf.strided_slice_19/StridedSlice/end", "op": "Const", "attr": {"value": {"tensor": {"dtype": "DT_INT64", "tensorShape": {"dim": [{"size": "4"}]}}}, "dtype": {"type": "DT_INT64"}}}, {"name": "model_213/tf.strided_slice_19/ones_like", "op": "Const", "attr": {"value": {"tensor": {"dtype": "DT_INT64", "tensorShape": {"dim": [{"size": "4"}]}}}, "dtype": {"type": "DT_INT64"}}}, {"name": "model_213/tf.math.add_130/Add/y", "op": "Const", "attr": {"value": {"tensor": {"dtype": "DT_FLOAT", "tensorShape": {"dim": [{"size": "128"}]}}}, "dtype": {"type": "DT_FLOAT"}}}, {"name": "model_213/tf.math.add_126/Add/y", "op": "Const", "attr": {"value": {"tensor": {"dtype": "DT_FLOAT", "tensorShape": {"dim": [{"size": "128"}]}}}, "dtype": {"type": "DT_FLOAT"}}}, {"name": "model_213/tf.math.add_123/Add/y", "op": "Const", "attr": {"value": {"tensor": {"dtype": "DT_FLOAT", "tensorShape": {"dim": [{"size": "128"}]}}}, "dtype": {"type": "DT_FLOAT"}}}, {"name": "model_213/tf.strided_slice_21/StridedSlice/begin", "op": "Const", "attr": {"value": {"tensor": {"dtype": "DT_INT32", "tensorShape": {"dim": [{"size": "4"}]}}}, "dtype": {"type": "DT_INT32"}}}, {"name": "model_213/tf.strided_slice_21/StridedSlice/end", "op": "Const", "attr": {"value": {"tensor": {"dtype": "DT_INT32", "tensorShape": {"dim": [{"size": "4"}]}}}, "dtype": {"type": "DT_INT32"}}}, {"name": "model_213/tf.strided_slice_21/ones_like", "op": "Const", "attr": {"value": {"tensor": {"dtype": "DT_INT32", "tensorShape": {"dim": [{"size": "4"}]}}}, "dtype": {"type": "DT_INT32"}}}, {"name": "model_213/tf.strided_slice_22/StridedSlice/begin", "op": "Const", "attr": {"value": {"tensor": {"dtype": "DT_INT32", "tensorShape": {"dim": [{"size": "4"}]}}}, "dtype": {"type": "DT_INT32"}}}, {"name": "model_213/tf.strided_slice_22/StridedSlice/end", "op": "Const", "attr": {"value": {"tensor": {"dtype": "DT_INT32", "tensorShape": {"dim": [{"size": "4"}]}}}, "dtype": {"type": "DT_INT32"}}}, {"name": "model_213/tf.strided_slice_22/ones_like", "op": "Const", "attr": {"value": {"tensor": {"dtype": "DT_INT32", "tensorShape": {"dim": [{"size": "4"}]}}}, "dtype": {"type": "DT_INT32"}}}, {"name": "model_213/tf.math.multiply_355/Mul/y", "op": "Const", "attr": {"value": {"tensor": {"dtype": "DT_FLOAT", "tensorShape": {}}}, "dtype": {"type": "DT_FLOAT"}}}, {"name": "model_213/tf.reshape_75/Reshape/shape", "op": "Const", "attr": {"value": {"tensor": {"dtype": "DT_INT32", "tensorShape": {"dim": [{"size": "4"}]}}}, "dtype": {"type": "DT_INT32"}}}, {"name": "model_213/tf.compat.v1.transpose_361/transpose/perm", "op": "Const", "attr": {"value": {"tensor": {"dtype": "DT_INT32", "tensorShape": {"dim": [{"size": "4"}]}}}, "dtype": {"type": "DT_INT32"}}}, {"name": "model_213/tf.nn.convolution_148/convolution/filter", "op": "Const", "attr": {"value": {"tensor": {"dtype": "DT_FLOAT", "tensorShape": {"dim": [{"size": "3"}, {"size": "3"}, {"size": "1"}, {"size": "1"}]}}}, "dtype": {"type": "DT_FLOAT"}}}, {"name": "model_213/tf.nn.convolution_149/convolution/filter", "op": "Const", "attr": {"value": {"tensor": {"dtype": "DT_FLOAT", "tensorShape": {"dim": [{"size": "3"}, {"size": "3"}, {"size": "1"}, {"size": "1"}]}}}, "dtype": {"type": "DT_FLOAT"}}}, {"name": "model_213/tf.nn.convolution_150/convolution/filter", "op": "Const", "attr": {"value": {"tensor": {"dtype": "DT_FLOAT", "tensorShape": {"dim": [{"size": "3"}, {"size": "3"}, {"size": "1"}, {"size": "1"}]}}}, "dtype": {"type": "DT_FLOAT"}}}, {"name": "model_213/tf.nn.convolution_151/convolution/filter", "op": "Const", "attr": {"value": {"tensor": {"dtype": "DT_FLOAT", "tensorShape": {"dim": [{"size": "3"}, {"size": "3"}, {"size": "1"}, {"size": "1"}]}}}, "dtype": {"type": "DT_FLOAT"}}}, {"name": "model_213/tf.nn.convolution_152/convolution/filter", "op": "Const", "attr": {"value": {"tensor": {"dtype": "DT_FLOAT", "tensorShape": {"dim": [{"size": "3"}, {"size": "3"}, {"size": "1"}, {"size": "1"}]}}}, "dtype": {"type": "DT_FLOAT"}}}, {"name": "model_213/tf.nn.convolution_153/convolution/filter", "op": "Const", "attr": {"value": {"tensor": {"dtype": "DT_FLOAT", "tensorShape": {"dim": [{"size": "3"}, {"size": "3"}, {"size": "1"}, {"size": "1"}]}}}, "dtype": {"type": "DT_FLOAT"}}}, {"name": "model_213/tf.nn.convolution_154/convolution/filter", "op": "Const", "attr": {"value": {"tensor": {"dtype": "DT_FLOAT", "tensorShape": {"dim": [{"size": "3"}, {"size": "3"}, {"size": "1"}, {"size": "1"}]}}}, "dtype": {"type": "DT_FLOAT"}}}, {"name": "model_213/tf.nn.convolution_155/convolution/filter", "op": "Const", "attr": {"value": {"tensor": {"dtype": "DT_FLOAT", "tensorShape": {"dim": [{"size": "3"}, {"size": "3"}, {"size": "1"}, {"size": "1"}]}}}, "dtype": {"type": "DT_FLOAT"}}}, {"name": "model_213/tf.nn.convolution_156/convolution/filter", "op": "Const", "attr": {"value": {"tensor": {"dtype": "DT_FLOAT", "tensorShape": {"dim": [{"size": "3"}, {"size": "3"}, {"size": "1"}, {"size": "1"}]}}}, "dtype": {"type": "DT_FLOAT"}}}, {"name": "model_213/tf.nn.convolution_157/convolution/filter", "op": "Const", "attr": {"value": {"tensor": {"dtype": "DT_FLOAT", "tensorShape": {"dim": [{"size": "3"}, {"size": "3"}, {"size": "1"}, {"size": "1"}]}}}, "dtype": {"type": "DT_FLOAT"}}}, {"name": "model_213/tf.nn.convolution_158/convolution/filter", "op": "Const", "attr": {"value": {"tensor": {"dtype": "DT_FLOAT", "tensorShape": {"dim": [{"size": "3"}, {"size": "3"}, {"size": "1"}, {"size": "1"}]}}}, "dtype": {"type": "DT_FLOAT"}}}, {"name": "model_213/tf.nn.convolution_159/convolution/filter", "op": "Const", "attr": {"value": {"tensor": {"dtype": "DT_FLOAT", "tensorShape": {"dim": [{"size": "3"}, {"size": "3"}, {"size": "1"}, {"size": "1"}]}}}, "dtype": {"type": "DT_FLOAT"}}}, {"name": "model_213/tf.nn.convolution_160/convolution/filter", "op": "Const", "attr": {"value": {"tensor": {"dtype": "DT_FLOAT", "tensorShape": {"dim": [{"size": "3"}, {"size": "3"}, {"size": "1"}, {"size": "1"}]}}}, "dtype": {"type": "DT_FLOAT"}}}, {"name": "model_213/tf.nn.convolution_161/convolution/filter", "op": "Const", "attr": {"value": {"tensor": {"dtype": "DT_FLOAT", "tensorShape": {"dim": [{"size": "3"}, {"size": "3"}, {"size": "1"}, {"size": "1"}]}}}, "dtype": {"type": "DT_FLOAT"}}}, {"name": "model_213/tf.nn.convolution_162/convolution/filter", "op": "Const", "attr": {"value": {"tensor": {"dtype": "DT_FLOAT", "tensorShape": {"dim": [{"size": "3"}, {"size": "3"}, {"size": "1"}, {"size": "1"}]}}}, "dtype": {"type": "DT_FLOAT"}}}, {"name": "model_213/tf.nn.convolution_163/convolution/filter", "op": "Const", "attr": {"value": {"tensor": {"dtype": "DT_FLOAT", "tensorShape": {"dim": [{"size": "3"}, {"size": "3"}, {"size": "1"}, {"size": "1"}]}}}, "dtype": {"type": "DT_FLOAT"}}}, {"name": "model_213/tf.nn.convolution_164/convolution/filter", "op": "Const", "attr": {"value": {"tensor": {"dtype": "DT_FLOAT", "tensorShape": {"dim": [{"size": "3"}, {"size": "3"}, {"size": "1"}, {"size": "1"}]}}}, "dtype": {"type": "DT_FLOAT"}}}, {"name": "model_213/tf.nn.convolution_165/convolution/filter", "op": "Const", "attr": {"value": {"tensor": {"dtype": "DT_FLOAT", "tensorShape": {"dim": [{"size": "3"}, {"size": "3"}, {"size": "1"}, {"size": "1"}]}}}, "dtype": {"type": "DT_FLOAT"}}}, {"name": "model_213/tf.nn.convolution_166/convolution/filter", "op": "Const", "attr": {"value": {"tensor": {"dtype": "DT_FLOAT", "tensorShape": {"dim": [{"size": "3"}, {"size": "3"}, {"size": "1"}, {"size": "1"}]}}}, "dtype": {"type": "DT_FLOAT"}}}, {"name": "model_213/tf.nn.convolution_167/convolution/filter", "op": "Const", "attr": {"value": {"tensor": {"dtype": "DT_FLOAT", "tensorShape": {"dim": [{"size": "3"}, {"size": "3"}, {"size": "1"}, {"size": "1"}]}}}, "dtype": {"type": "DT_FLOAT"}}}, {"name": "model_213/tf.nn.convolution_168/convolution/filter", "op": "Const", "attr": {"value": {"tensor": {"dtype": "DT_FLOAT", "tensorShape": {"dim": [{"size": "3"}, {"size": "3"}, {"size": "1"}, {"size": "1"}]}}}, "dtype": {"type": "DT_FLOAT"}}}, {"name": "model_213/tf.nn.convolution_169/convolution/filter", "op": "Const", "attr": {"value": {"tensor": {"dtype": "DT_FLOAT", "tensorShape": {"dim": [{"size": "3"}, {"size": "3"}, {"size": "1"}, {"size": "1"}]}}}, "dtype": {"type": "DT_FLOAT"}}}, {"name": "model_213/tf.nn.convolution_170/convolution/filter", "op": "Const", "attr": {"value": {"tensor": {"dtype": "DT_FLOAT", "tensorShape": {"dim": [{"size": "3"}, {"size": "3"}, {"size": "1"}, {"size": "1"}]}}}, "dtype": {"type": "DT_FLOAT"}}}, {"name": "model_213/tf.nn.convolution_171/convolution/filter", "op": "Const", "attr": {"value": {"tensor": {"dtype": "DT_FLOAT", "tensorShape": {"dim": [{"size": "3"}, {"size": "3"}, {"size": "1"}, {"size": "1"}]}}}, "dtype": {"type": "DT_FLOAT"}}}, {"name": "model_213/tf.nn.convolution_172/convolution/filter", "op": "Const", "attr": {"value": {"tensor": {"dtype": "DT_FLOAT", "tensorShape": {"dim": [{"size": "3"}, {"size": "3"}, {"size": "1"}, {"size": "1"}]}}}, "dtype": {"type": "DT_FLOAT"}}}, {"name": "model_213/tf.nn.convolution_173/convolution/filter", "op": "Const", "attr": {"value": {"tensor": {"dtype": "DT_FLOAT", "tensorShape": {"dim": [{"size": "3"}, {"size": "3"}, {"size": "1"}, {"size": "1"}]}}}, "dtype": {"type": "DT_FLOAT"}}}, {"name": "model_213/tf.nn.convolution_174/convolution/filter", "op": "Const", "attr": {"value": {"tensor": {"dtype": "DT_FLOAT", "tensorShape": {"dim": [{"size": "3"}, {"size": "3"}, {"size": "1"}, {"size": "1"}]}}}, "dtype": {"type": "DT_FLOAT"}}}, {"name": "model_213/tf.nn.convolution_175/convolution/filter", "op": "Const", "attr": {"value": {"tensor": {"dtype": "DT_FLOAT", "tensorShape": {"dim": [{"size": "3"}, {"size": "3"}, {"size": "1"}, {"size": "1"}]}}}, "dtype": {"type": "DT_FLOAT"}}}, {"name": "model_213/tf.nn.convolution_176/convolution/filter", "op": "Const", "attr": {"value": {"tensor": {"dtype": "DT_FLOAT", "tensorShape": {"dim": [{"size": "3"}, {"size": "3"}, {"size": "1"}, {"size": "1"}]}}}, "dtype": {"type": "DT_FLOAT"}}}, {"name": "model_213/tf.nn.convolution_177/convolution/filter", "op": "Const", "attr": {"value": {"tensor": {"dtype": "DT_FLOAT", "tensorShape": {"dim": [{"size": "3"}, {"size": "3"}, {"size": "1"}, {"size": "1"}]}}}, "dtype": {"type": "DT_FLOAT"}}}, {"name": "model_213/tf.nn.convolution_178/convolution/filter", "op": "Const", "attr": {"value": {"tensor": {"dtype": "DT_FLOAT", "tensorShape": {"dim": [{"size": "3"}, {"size": "3"}, {"size": "1"}, {"size": "1"}]}}}, "dtype": {"type": "DT_FLOAT"}}}, {"name": "model_213/tf.nn.convolution_179/convolution/filter", "op": "Const", "attr": {"value": {"tensor": {"dtype": "DT_FLOAT", "tensorShape": {"dim": [{"size": "3"}, {"size": "3"}, {"size": "1"}, {"size": "1"}]}}}, "dtype": {"type": "DT_FLOAT"}}}, {"name": "model_213/tf.nn.convolution_180/convolution/filter", "op": "Const", "attr": {"value": {"tensor": {"dtype": "DT_FLOAT", "tensorShape": {"dim": [{"size": "3"}, {"size": "3"}, {"size": "1"}, {"size": "1"}]}}}, "dtype": {"type": "DT_FLOAT"}}}, {"name": "model_213/tf.nn.convolution_181/convolution/filter", "op": "Const", "attr": {"value": {"tensor": {"dtype": "DT_FLOAT", "tensorShape": {"dim": [{"size": "3"}, {"size": "3"}, {"size": "1"}, {"size": "1"}]}}}, "dtype": {"type": "DT_FLOAT"}}}, {"name": "model_213/tf.nn.convolution_182/convolution/filter", "op": "Const", "attr": {"value": {"tensor": {"dtype": "DT_FLOAT", "tensorShape": {"dim": [{"size": "3"}, {"size": "3"}, {"size": "1"}, {"size": "1"}]}}}, "dtype": {"type": "DT_FLOAT"}}}, {"name": "model_213/tf.nn.convolution_183/convolution/filter", "op": "Const", "attr": {"value": {"tensor": {"dtype": "DT_FLOAT", "tensorShape": {"dim": [{"size": "3"}, {"size": "3"}, {"size": "1"}, {"size": "1"}]}}}, "dtype": {"type": "DT_FLOAT"}}}, {"name": "model_213/tf.nn.convolution_184/convolution/filter", "op": "Const", "attr": {"value": {"tensor": {"dtype": "DT_FLOAT", "tensorShape": {"dim": [{"size": "3"}, {"size": "3"}, {"size": "1"}, {"size": "1"}]}}}, "dtype": {"type": "DT_FLOAT"}}}, {"name": "model_213/tf.nn.convolution_185/convolution/filter", "op": "Const", "attr": {"value": {"tensor": {"dtype": "DT_FLOAT", "tensorShape": {"dim": [{"size": "3"}, {"size": "3"}, {"size": "1"}, {"size": "1"}]}}}, "dtype": {"type": "DT_FLOAT"}}}, {"name": "model_213/tf.nn.convolution_186/convolution/filter", "op": "Const", "attr": {"value": {"tensor": {"dtype": "DT_FLOAT", "tensorShape": {"dim": [{"size": "3"}, {"size": "3"}, {"size": "1"}, {"size": "1"}]}}}, "dtype": {"type": "DT_FLOAT"}}}, {"name": "model_213/tf.nn.convolution_187/convolution/filter", "op": "Const", "attr": {"value": {"tensor": {"dtype": "DT_FLOAT", "tensorShape": {"dim": [{"size": "3"}, {"size": "3"}, {"size": "1"}, {"size": "1"}]}}}, "dtype": {"type": "DT_FLOAT"}}}, {"name": "model_213/tf.nn.convolution_188/convolution/filter", "op": "Const", "attr": {"value": {"tensor": {"dtype": "DT_FLOAT", "tensorShape": {"dim": [{"size": "3"}, {"size": "3"}, {"size": "1"}, {"size": "1"}]}}}, "dtype": {"type": "DT_FLOAT"}}}, {"name": "model_213/tf.nn.convolution_189/convolution/filter", "op": "Const", "attr": {"value": {"tensor": {"dtype": "DT_FLOAT", "tensorShape": {"dim": [{"size": "3"}, {"size": "3"}, {"size": "1"}, {"size": "1"}]}}}, "dtype": {"type": "DT_FLOAT"}}}, {"name": "model_213/tf.nn.convolution_190/convolution/filter", "op": "Const", "attr": {"value": {"tensor": {"dtype": "DT_FLOAT", "tensorShape": {"dim": [{"size": "3"}, {"size": "3"}, {"size": "1"}, {"size": "1"}]}}}, "dtype": {"type": "DT_FLOAT"}}}, {"name": "model_213/tf.nn.convolution_191/convolution/filter", "op": "Const", "attr": {"value": {"tensor": {"dtype": "DT_FLOAT", "tensorShape": {"dim": [{"size": "3"}, {"size": "3"}, {"size": "1"}, {"size": "1"}]}}}, "dtype": {"type": "DT_FLOAT"}}}, {"name": "model_213/tf.nn.convolution_192/convolution/filter", "op": "Const", "attr": {"value": {"tensor": {"dtype": "DT_FLOAT", "tensorShape": {"dim": [{"size": "3"}, {"size": "3"}, {"size": "1"}, {"size": "1"}]}}}, "dtype": {"type": "DT_FLOAT"}}}, {"name": "model_213/tf.nn.convolution_193/convolution/filter", "op": "Const", "attr": {"value": {"tensor": {"dtype": "DT_FLOAT", "tensorShape": {"dim": [{"size": "3"}, {"size": "3"}, {"size": "1"}, {"size": "1"}]}}}, "dtype": {"type": "DT_FLOAT"}}}, {"name": "model_213/tf.nn.convolution_194/convolution/filter", "op": "Const", "attr": {"value": {"tensor": {"dtype": "DT_FLOAT", "tensorShape": {"dim": [{"size": "3"}, {"size": "3"}, {"size": "1"}, {"size": "1"}]}}}, "dtype": {"type": "DT_FLOAT"}}}, {"name": "model_213/tf.nn.convolution_195/convolution/filter", "op": "Const", "attr": {"value": {"tensor": {"dtype": "DT_FLOAT", "tensorShape": {"dim": [{"size": "3"}, {"size": "3"}, {"size": "1"}, {"size": "1"}]}}}, "dtype": {"type": "DT_FLOAT"}}}, {"name": "model_213/tf.nn.convolution_196/convolution/filter", "op": "Const", "attr": {"value": {"tensor": {"dtype": "DT_FLOAT", "tensorShape": {"dim": [{"size": "3"}, {"size": "3"}, {"size": "1"}, {"size": "1"}]}}}, "dtype": {"type": "DT_FLOAT"}}}, {"name": "model_213/tf.nn.convolution_197/convolution/filter", "op": "Const", "attr": {"value": {"tensor": {"dtype": "DT_FLOAT", "tensorShape": {"dim": [{"size": "3"}, {"size": "3"}, {"size": "1"}, {"size": "1"}]}}}, "dtype": {"type": "DT_FLOAT"}}}, {"name": "model_213/tf.nn.convolution_198/convolution/filter", "op": "Const", "attr": {"value": {"tensor": {"dtype": "DT_FLOAT", "tensorShape": {"dim": [{"size": "3"}, {"size": "3"}, {"size": "1"}, {"size": "1"}]}}}, "dtype": {"type": "DT_FLOAT"}}}, {"name": "model_213/tf.nn.convolution_199/convolution/filter", "op": "Const", "attr": {"value": {"tensor": {"dtype": "DT_FLOAT", "tensorShape": {"dim": [{"size": "3"}, {"size": "3"}, {"size": "1"}, {"size": "1"}]}}}, "dtype": {"type": "DT_FLOAT"}}}, {"name": "model_213/tf.nn.convolution_200/convolution/filter", "op": "Const", "attr": {"value": {"tensor": {"dtype": "DT_FLOAT", "tensorShape": {"dim": [{"size": "3"}, {"size": "3"}, {"size": "1"}, {"size": "1"}]}}}, "dtype": {"type": "DT_FLOAT"}}}, {"name": "model_213/tf.nn.convolution_201/convolution/filter", "op": "Const", "attr": {"value": {"tensor": {"dtype": "DT_FLOAT", "tensorShape": {"dim": [{"size": "3"}, {"size": "3"}, {"size": "1"}, {"size": "1"}]}}}, "dtype": {"type": "DT_FLOAT"}}}, {"name": "model_213/tf.nn.convolution_202/convolution/filter", "op": "Const", "attr": {"value": {"tensor": {"dtype": "DT_FLOAT", "tensorShape": {"dim": [{"size": "3"}, {"size": "3"}, {"size": "1"}, {"size": "1"}]}}}, "dtype": {"type": "DT_FLOAT"}}}, {"name": "model_213/tf.nn.convolution_203/convolution/filter", "op": "Const", "attr": {"value": {"tensor": {"dtype": "DT_FLOAT", "tensorShape": {"dim": [{"size": "3"}, {"size": "3"}, {"size": "1"}, {"size": "1"}]}}}, "dtype": {"type": "DT_FLOAT"}}}, {"name": "model_213/tf.nn.convolution_204/convolution/filter", "op": "Const", "attr": {"value": {"tensor": {"dtype": "DT_FLOAT", "tensorShape": {"dim": [{"size": "3"}, {"size": "3"}, {"size": "1"}, {"size": "1"}]}}}, "dtype": {"type": "DT_FLOAT"}}}, {"name": "model_213/tf.nn.convolution_205/convolution/filter", "op": "Const", "attr": {"value": {"tensor": {"dtype": "DT_FLOAT", "tensorShape": {"dim": [{"size": "3"}, {"size": "3"}, {"size": "1"}, {"size": "1"}]}}}, "dtype": {"type": "DT_FLOAT"}}}, {"name": "model_213/tf.nn.convolution_206/convolution/filter", "op": "Const", "attr": {"value": {"tensor": {"dtype": "DT_FLOAT", "tensorShape": {"dim": [{"size": "3"}, {"size": "3"}, {"size": "1"}, {"size": "1"}]}}}, "dtype": {"type": "DT_FLOAT"}}}, {"name": "model_213/tf.nn.convolution_207/convolution/filter", "op": "Const", "attr": {"value": {"tensor": {"dtype": "DT_FLOAT", "tensorShape": {"dim": [{"size": "3"}, {"size": "3"}, {"size": "1"}, {"size": "1"}]}}}, "dtype": {"type": "DT_FLOAT"}}}, {"name": "model_213/tf.nn.convolution_208/convolution/filter", "op": "Const", "attr": {"value": {"tensor": {"dtype": "DT_FLOAT", "tensorShape": {"dim": [{"size": "3"}, {"size": "3"}, {"size": "1"}, {"size": "1"}]}}}, "dtype": {"type": "DT_FLOAT"}}}, {"name": "model_213/tf.nn.convolution_209/convolution/filter", "op": "Const", "attr": {"value": {"tensor": {"dtype": "DT_FLOAT", "tensorShape": {"dim": [{"size": "3"}, {"size": "3"}, {"size": "1"}, {"size": "1"}]}}}, "dtype": {"type": "DT_FLOAT"}}}, {"name": "model_213/tf.nn.convolution_210/convolution/filter", "op": "Const", "attr": {"value": {"tensor": {"dtype": "DT_FLOAT", "tensorShape": {"dim": [{"size": "3"}, {"size": "3"}, {"size": "1"}, {"size": "1"}]}}}, "dtype": {"type": "DT_FLOAT"}}}, {"name": "model_213/tf.nn.convolution_211/convolution/filter", "op": "Const", "attr": {"value": {"tensor": {"dtype": "DT_FLOAT", "tensorShape": {"dim": [{"size": "3"}, {"size": "3"}, {"size": "1"}, {"size": "1"}]}}}, "dtype": {"type": "DT_FLOAT"}}}, {"name": "model_213/tf.nn.convolution_212/convolution/filter", "op": "Const", "attr": {"value": {"tensor": {"dtype": "DT_FLOAT", "tensorShape": {"dim": [{"size": "3"}, {"size": "3"}, {"size": "1"}, {"size": "1"}]}}}, "dtype": {"type": "DT_FLOAT"}}}, {"name": "model_213/tf.nn.convolution_213/convolution/filter", "op": "Const", "attr": {"value": {"tensor": {"dtype": "DT_FLOAT", "tensorShape": {"dim": [{"size": "3"}, {"size": "3"}, {"size": "1"}, {"size": "1"}]}}}, "dtype": {"type": "DT_FLOAT"}}}, {"name": "model_213/tf.nn.convolution_214/convolution/filter", "op": "Const", "attr": {"value": {"tensor": {"dtype": "DT_FLOAT", "tensorShape": {"dim": [{"size": "3"}, {"size": "3"}, {"size": "1"}, {"size": "1"}]}}}, "dtype": {"type": "DT_FLOAT"}}}, {"name": "model_213/tf.nn.convolution_215/convolution/filter", "op": "Const", "attr": {"value": {"tensor": {"dtype": "DT_FLOAT", "tensorShape": {"dim": [{"size": "3"}, {"size": "3"}, {"size": "1"}, {"size": "1"}]}}}, "dtype": {"type": "DT_FLOAT"}}}, {"name": "model_213/tf.nn.convolution_216/convolution/filter", "op": "Const", "attr": {"value": {"tensor": {"dtype": "DT_FLOAT", "tensorShape": {"dim": [{"size": "3"}, {"size": "3"}, {"size": "1"}, {"size": "1"}]}}}, "dtype": {"type": "DT_FLOAT"}}}, {"name": "model_213/tf.nn.convolution_217/convolution/filter", "op": "Const", "attr": {"value": {"tensor": {"dtype": "DT_FLOAT", "tensorShape": {"dim": [{"size": "3"}, {"size": "3"}, {"size": "1"}, {"size": "1"}]}}}, "dtype": {"type": "DT_FLOAT"}}}, {"name": "model_213/tf.nn.convolution_218/convolution/filter", "op": "Const", "attr": {"value": {"tensor": {"dtype": "DT_FLOAT", "tensorShape": {"dim": [{"size": "3"}, {"size": "3"}, {"size": "1"}, {"size": "1"}]}}}, "dtype": {"type": "DT_FLOAT"}}}, {"name": "model_213/tf.nn.convolution_219/convolution/filter", "op": "Const", "attr": {"value": {"tensor": {"dtype": "DT_FLOAT", "tensorShape": {"dim": [{"size": "3"}, {"size": "3"}, {"size": "1"}, {"size": "1"}]}}}, "dtype": {"type": "DT_FLOAT"}}}, {"name": "model_213/tf.nn.convolution_220/convolution/filter", "op": "Const", "attr": {"value": {"tensor": {"dtype": "DT_FLOAT", "tensorShape": {"dim": [{"size": "3"}, {"size": "3"}, {"size": "1"}, {"size": "1"}]}}}, "dtype": {"type": "DT_FLOAT"}}}, {"name": "model_213/tf.nn.convolution_221/convolution/filter", "op": "Const", "attr": {"value": {"tensor": {"dtype": "DT_FLOAT", "tensorShape": {"dim": [{"size": "3"}, {"size": "3"}, {"size": "1"}, {"size": "1"}]}}}, "dtype": {"type": "DT_FLOAT"}}}, {"name": "model_213/tf.nn.convolution_222/convolution/filter", "op": "Const", "attr": {"value": {"tensor": {"dtype": "DT_FLOAT", "tensorShape": {"dim": [{"size": "3"}, {"size": "3"}, {"size": "1"}, {"size": "1"}]}}}, "dtype": {"type": "DT_FLOAT"}}}, {"name": "model_213/tf.nn.convolution_223/convolution/filter", "op": "Const", "attr": {"value": {"tensor": {"dtype": "DT_FLOAT", "tensorShape": {"dim": [{"size": "3"}, {"size": "3"}, {"size": "1"}, {"size": "1"}]}}}, "dtype": {"type": "DT_FLOAT"}}}, {"name": "model_213/tf.nn.convolution_224/convolution/filter", "op": "Const", "attr": {"value": {"tensor": {"dtype": "DT_FLOAT", "tensorShape": {"dim": [{"size": "3"}, {"size": "3"}, {"size": "1"}, {"size": "1"}]}}}, "dtype": {"type": "DT_FLOAT"}}}, {"name": "model_213/tf.nn.convolution_225/convolution/filter", "op": "Const", "attr": {"value": {"tensor": {"dtype": "DT_FLOAT", "tensorShape": {"dim": [{"size": "3"}, {"size": "3"}, {"size": "1"}, {"size": "1"}]}}}, "dtype": {"type": "DT_FLOAT"}}}, {"name": "model_213/tf.nn.convolution_226/convolution/filter", "op": "Const", "attr": {"value": {"tensor": {"dtype": "DT_FLOAT", "tensorShape": {"dim": [{"size": "3"}, {"size": "3"}, {"size": "1"}, {"size": "1"}]}}}, "dtype": {"type": "DT_FLOAT"}}}, {"name": "model_213/tf.nn.convolution_227/convolution/filter", "op": "Const", "attr": {"value": {"tensor": {"dtype": "DT_FLOAT", "tensorShape": {"dim": [{"size": "3"}, {"size": "3"}, {"size": "1"}, {"size": "1"}]}}}, "dtype": {"type": "DT_FLOAT"}}}, {"name": "model_213/tf.nn.convolution_228/convolution/filter", "op": "Const", "attr": {"value": {"tensor": {"dtype": "DT_FLOAT", "tensorShape": {"dim": [{"size": "3"}, {"size": "3"}, {"size": "1"}, {"size": "1"}]}}}, "dtype": {"type": "DT_FLOAT"}}}, {"name": "model_213/tf.nn.convolution_229/convolution/filter", "op": "Const", "attr": {"value": {"tensor": {"dtype": "DT_FLOAT", "tensorShape": {"dim": [{"size": "3"}, {"size": "3"}, {"size": "1"}, {"size": "1"}]}}}, "dtype": {"type": "DT_FLOAT"}}}, {"name": "model_213/tf.nn.convolution_230/convolution/filter", "op": "Const", "attr": {"value": {"tensor": {"dtype": "DT_FLOAT", "tensorShape": {"dim": [{"size": "3"}, {"size": "3"}, {"size": "1"}, {"size": "1"}]}}}, "dtype": {"type": "DT_FLOAT"}}}, {"name": "model_213/tf.nn.convolution_231/convolution/filter", "op": "Const", "attr": {"value": {"tensor": {"dtype": "DT_FLOAT", "tensorShape": {"dim": [{"size": "3"}, {"size": "3"}, {"size": "1"}, {"size": "1"}]}}}, "dtype": {"type": "DT_FLOAT"}}}, {"name": "model_213/tf.nn.convolution_232/convolution/filter", "op": "Const", "attr": {"value": {"tensor": {"dtype": "DT_FLOAT", "tensorShape": {"dim": [{"size": "3"}, {"size": "3"}, {"size": "1"}, {"size": "1"}]}}}, "dtype": {"type": "DT_FLOAT"}}}, {"name": "model_213/tf.nn.convolution_233/convolution/filter", "op": "Const", "attr": {"value": {"tensor": {"dtype": "DT_FLOAT", "tensorShape": {"dim": [{"size": "3"}, {"size": "3"}, {"size": "1"}, {"size": "1"}]}}}, "dtype": {"type": "DT_FLOAT"}}}, {"name": "model_213/tf.nn.convolution_234/convolution/filter", "op": "Const", "attr": {"value": {"tensor": {"dtype": "DT_FLOAT", "tensorShape": {"dim": [{"size": "3"}, {"size": "3"}, {"size": "1"}, {"size": "1"}]}}}, "dtype": {"type": "DT_FLOAT"}}}, {"name": "model_213/tf.nn.convolution_235/convolution/filter", "op": "Const", "attr": {"value": {"tensor": {"dtype": "DT_FLOAT", "tensorShape": {"dim": [{"size": "3"}, {"size": "3"}, {"size": "1"}, {"size": "1"}]}}}, "dtype": {"type": "DT_FLOAT"}}}, {"name": "model_213/tf.nn.convolution_236/convolution/filter", "op": "Const", "attr": {"value": {"tensor": {"dtype": "DT_FLOAT", "tensorShape": {"dim": [{"size": "3"}, {"size": "3"}, {"size": "1"}, {"size": "1"}]}}}, "dtype": {"type": "DT_FLOAT"}}}, {"name": "model_213/tf.nn.convolution_237/convolution/filter", "op": "Const", "attr": {"value": {"tensor": {"dtype": "DT_FLOAT", "tensorShape": {"dim": [{"size": "3"}, {"size": "3"}, {"size": "1"}, {"size": "1"}]}}}, "dtype": {"type": "DT_FLOAT"}}}, {"name": "model_213/tf.nn.convolution_238/convolution/filter", "op": "Const", "attr": {"value": {"tensor": {"dtype": "DT_FLOAT", "tensorShape": {"dim": [{"size": "3"}, {"size": "3"}, {"size": "1"}, {"size": "1"}]}}}, "dtype": {"type": "DT_FLOAT"}}}, {"name": "model_213/tf.nn.convolution_239/convolution/filter", "op": "Const", "attr": {"value": {"tensor": {"dtype": "DT_FLOAT", "tensorShape": {"dim": [{"size": "3"}, {"size": "3"}, {"size": "1"}, {"size": "1"}]}}}, "dtype": {"type": "DT_FLOAT"}}}, {"name": "model_213/tf.nn.convolution_240/convolution/filter", "op": "Const", "attr": {"value": {"tensor": {"dtype": "DT_FLOAT", "tensorShape": {"dim": [{"size": "3"}, {"size": "3"}, {"size": "1"}, {"size": "1"}]}}}, "dtype": {"type": "DT_FLOAT"}}}, {"name": "model_213/tf.nn.convolution_241/convolution/filter", "op": "Const", "attr": {"value": {"tensor": {"dtype": "DT_FLOAT", "tensorShape": {"dim": [{"size": "3"}, {"size": "3"}, {"size": "1"}, {"size": "1"}]}}}, "dtype": {"type": "DT_FLOAT"}}}, {"name": "model_213/tf.nn.convolution_242/convolution/filter", "op": "Const", "attr": {"value": {"tensor": {"dtype": "DT_FLOAT", "tensorShape": {"dim": [{"size": "3"}, {"size": "3"}, {"size": "1"}, {"size": "1"}]}}}, "dtype": {"type": "DT_FLOAT"}}}, {"name": "model_213/tf.nn.convolution_243/convolution/filter", "op": "Const", "attr": {"value": {"tensor": {"dtype": "DT_FLOAT", "tensorShape": {"dim": [{"size": "3"}, {"size": "3"}, {"size": "1"}, {"size": "1"}]}}}, "dtype": {"type": "DT_FLOAT"}}}, {"name": "model_213/tf.nn.convolution_244/convolution/filter", "op": "Const", "attr": {"value": {"tensor": {"dtype": "DT_FLOAT", "tensorShape": {"dim": [{"size": "3"}, {"size": "3"}, {"size": "1"}, {"size": "1"}]}}}, "dtype": {"type": "DT_FLOAT"}}}, {"name": "model_213/tf.nn.convolution_245/convolution/filter", "op": "Const", "attr": {"value": {"tensor": {"dtype": "DT_FLOAT", "tensorShape": {"dim": [{"size": "3"}, {"size": "3"}, {"size": "1"}, {"size": "1"}]}}}, "dtype": {"type": "DT_FLOAT"}}}, {"name": "model_213/tf.nn.convolution_246/convolution/filter", "op": "Const", "attr": {"value": {"tensor": {"dtype": "DT_FLOAT", "tensorShape": {"dim": [{"size": "3"}, {"size": "3"}, {"size": "1"}, {"size": "1"}]}}}, "dtype": {"type": "DT_FLOAT"}}}, {"name": "model_213/tf.nn.convolution_247/convolution/filter", "op": "Const", "attr": {"value": {"tensor": {"dtype": "DT_FLOAT", "tensorShape": {"dim": [{"size": "3"}, {"size": "3"}, {"size": "1"}, {"size": "1"}]}}}, "dtype": {"type": "DT_FLOAT"}}}, {"name": "model_213/tf.nn.convolution_248/convolution/filter", "op": "Const", "attr": {"value": {"tensor": {"dtype": "DT_FLOAT", "tensorShape": {"dim": [{"size": "3"}, {"size": "3"}, {"size": "1"}, {"size": "1"}]}}}, "dtype": {"type": "DT_FLOAT"}}}, {"name": "model_213/tf.nn.convolution_249/convolution/filter", "op": "Const", "attr": {"value": {"tensor": {"dtype": "DT_FLOAT", "tensorShape": {"dim": [{"size": "3"}, {"size": "3"}, {"size": "1"}, {"size": "1"}]}}}, "dtype": {"type": "DT_FLOAT"}}}, {"name": "model_213/tf.nn.convolution_250/convolution/filter", "op": "Const", "attr": {"value": {"tensor": {"dtype": "DT_FLOAT", "tensorShape": {"dim": [{"size": "3"}, {"size": "3"}, {"size": "1"}, {"size": "1"}]}}}, "dtype": {"type": "DT_FLOAT"}}}, {"name": "model_213/tf.nn.convolution_251/convolution/filter", "op": "Const", "attr": {"value": {"tensor": {"dtype": "DT_FLOAT", "tensorShape": {"dim": [{"size": "3"}, {"size": "3"}, {"size": "1"}, {"size": "1"}]}}}, "dtype": {"type": "DT_FLOAT"}}}, {"name": "model_213/tf.nn.convolution_252/convolution/filter", "op": "Const", "attr": {"value": {"tensor": {"dtype": "DT_FLOAT", "tensorShape": {"dim": [{"size": "3"}, {"size": "3"}, {"size": "1"}, {"size": "1"}]}}}, "dtype": {"type": "DT_FLOAT"}}}, {"name": "model_213/tf.nn.convolution_253/convolution/filter", "op": "Const", "attr": {"value": {"tensor": {"dtype": "DT_FLOAT", "tensorShape": {"dim": [{"size": "3"}, {"size": "3"}, {"size": "1"}, {"size": "1"}]}}}, "dtype": {"type": "DT_FLOAT"}}}, {"name": "model_213/tf.nn.convolution_254/convolution/filter", "op": "Const", "attr": {"value": {"tensor": {"dtype": "DT_FLOAT", "tensorShape": {"dim": [{"size": "3"}, {"size": "3"}, {"size": "1"}, {"size": "1"}]}}}, "dtype": {"type": "DT_FLOAT"}}}, {"name": "model_213/tf.nn.convolution_255/convolution/filter", "op": "Const", "attr": {"value": {"tensor": {"dtype": "DT_FLOAT", "tensorShape": {"dim": [{"size": "3"}, {"size": "3"}, {"size": "1"}, {"size": "1"}]}}}, "dtype": {"type": "DT_FLOAT"}}}, {"name": "model_213/tf.nn.convolution_256/convolution/filter", "op": "Const", "attr": {"value": {"tensor": {"dtype": "DT_FLOAT", "tensorShape": {"dim": [{"size": "3"}, {"size": "3"}, {"size": "1"}, {"size": "1"}]}}}, "dtype": {"type": "DT_FLOAT"}}}, {"name": "model_213/tf.nn.convolution_257/convolution/filter", "op": "Const", "attr": {"value": {"tensor": {"dtype": "DT_FLOAT", "tensorShape": {"dim": [{"size": "3"}, {"size": "3"}, {"size": "1"}, {"size": "1"}]}}}, "dtype": {"type": "DT_FLOAT"}}}, {"name": "model_213/tf.nn.convolution_258/convolution/filter", "op": "Const", "attr": {"value": {"tensor": {"dtype": "DT_FLOAT", "tensorShape": {"dim": [{"size": "3"}, {"size": "3"}, {"size": "1"}, {"size": "1"}]}}}, "dtype": {"type": "DT_FLOAT"}}}, {"name": "model_213/tf.nn.convolution_259/convolution/filter", "op": "Const", "attr": {"value": {"tensor": {"dtype": "DT_FLOAT", "tensorShape": {"dim": [{"size": "3"}, {"size": "3"}, {"size": "1"}, {"size": "1"}]}}}, "dtype": {"type": "DT_FLOAT"}}}, {"name": "model_213/tf.nn.convolution_260/convolution/filter", "op": "Const", "attr": {"value": {"tensor": {"dtype": "DT_FLOAT", "tensorShape": {"dim": [{"size": "3"}, {"size": "3"}, {"size": "1"}, {"size": "1"}]}}}, "dtype": {"type": "DT_FLOAT"}}}, {"name": "model_213/tf.nn.convolution_261/convolution/filter", "op": "Const", "attr": {"value": {"tensor": {"dtype": "DT_FLOAT", "tensorShape": {"dim": [{"size": "3"}, {"size": "3"}, {"size": "1"}, {"size": "1"}]}}}, "dtype": {"type": "DT_FLOAT"}}}, {"name": "model_213/tf.nn.convolution_262/convolution/filter", "op": "Const", "attr": {"value": {"tensor": {"dtype": "DT_FLOAT", "tensorShape": {"dim": [{"size": "3"}, {"size": "3"}, {"size": "1"}, {"size": "1"}]}}}, "dtype": {"type": "DT_FLOAT"}}}, {"name": "model_213/tf.nn.convolution_263/convolution/filter", "op": "Const", "attr": {"value": {"tensor": {"dtype": "DT_FLOAT", "tensorShape": {"dim": [{"size": "3"}, {"size": "3"}, {"size": "1"}, {"size": "1"}]}}}, "dtype": {"type": "DT_FLOAT"}}}, {"name": "model_213/tf.nn.convolution_264/convolution/filter", "op": "Const", "attr": {"value": {"tensor": {"dtype": "DT_FLOAT", "tensorShape": {"dim": [{"size": "3"}, {"size": "3"}, {"size": "1"}, {"size": "1"}]}}}, "dtype": {"type": "DT_FLOAT"}}}, {"name": "model_213/tf.nn.convolution_265/convolution/filter", "op": "Const", "attr": {"value": {"tensor": {"dtype": "DT_FLOAT", "tensorShape": {"dim": [{"size": "3"}, {"size": "3"}, {"size": "1"}, {"size": "1"}]}}}, "dtype": {"type": "DT_FLOAT"}}}, {"name": "model_213/tf.nn.convolution_266/convolution/filter", "op": "Const", "attr": {"value": {"tensor": {"dtype": "DT_FLOAT", "tensorShape": {"dim": [{"size": "3"}, {"size": "3"}, {"size": "1"}, {"size": "1"}]}}}, "dtype": {"type": "DT_FLOAT"}}}, {"name": "model_213/tf.nn.convolution_267/convolution/filter", "op": "Const", "attr": {"value": {"tensor": {"dtype": "DT_FLOAT", "tensorShape": {"dim": [{"size": "3"}, {"size": "3"}, {"size": "1"}, {"size": "1"}]}}}, "dtype": {"type": "DT_FLOAT"}}}, {"name": "model_213/tf.nn.convolution_268/convolution/filter", "op": "Const", "attr": {"value": {"tensor": {"dtype": "DT_FLOAT", "tensorShape": {"dim": [{"size": "3"}, {"size": "3"}, {"size": "1"}, {"size": "1"}]}}}, "dtype": {"type": "DT_FLOAT"}}}, {"name": "model_213/tf.nn.convolution_269/convolution/filter", "op": "Const", "attr": {"value": {"tensor": {"dtype": "DT_FLOAT", "tensorShape": {"dim": [{"size": "3"}, {"size": "3"}, {"size": "1"}, {"size": "1"}]}}}, "dtype": {"type": "DT_FLOAT"}}}, {"name": "model_213/tf.nn.convolution_270/convolution/filter", "op": "Const", "attr": {"value": {"tensor": {"dtype": "DT_FLOAT", "tensorShape": {"dim": [{"size": "3"}, {"size": "3"}, {"size": "1"}, {"size": "1"}]}}}, "dtype": {"type": "DT_FLOAT"}}}, {"name": "model_213/tf.nn.convolution_271/convolution/filter", "op": "Const", "attr": {"value": {"tensor": {"dtype": "DT_FLOAT", "tensorShape": {"dim": [{"size": "3"}, {"size": "3"}, {"size": "1"}, {"size": "1"}]}}}, "dtype": {"type": "DT_FLOAT"}}}, {"name": "model_213/tf.nn.convolution_272/convolution/filter", "op": "Const", "attr": {"value": {"tensor": {"dtype": "DT_FLOAT", "tensorShape": {"dim": [{"size": "3"}, {"size": "3"}, {"size": "1"}, {"size": "1"}]}}}, "dtype": {"type": "DT_FLOAT"}}}, {"name": "model_213/tf.nn.convolution_273/convolution/filter", "op": "Const", "attr": {"value": {"tensor": {"dtype": "DT_FLOAT", "tensorShape": {"dim": [{"size": "3"}, {"size": "3"}, {"size": "1"}, {"size": "1"}]}}}, "dtype": {"type": "DT_FLOAT"}}}, {"name": "model_213/tf.nn.convolution_274/convolution/filter", "op": "Const", "attr": {"value": {"tensor": {"dtype": "DT_FLOAT", "tensorShape": {"dim": [{"size": "3"}, {"size": "3"}, {"size": "1"}, {"size": "1"}]}}}, "dtype": {"type": "DT_FLOAT"}}}, {"name": "model_213/tf.split_1/split/split_dim", "op": "Const", "attr": {"value": {"tensor": {"dtype": "DT_INT32", "tensorShape": {}}}, "dtype": {"type": "DT_INT32"}}}, {"name": "model_213/tf.strided_slice_17/ones_like/tensor", "op": "Const", "attr": {"value": {"tensor": {"dtype": "DT_INT64", "tensorShape": {"dim": [{"size": "4"}]}}}, "dtype": {"type": "DT_INT64"}}}, {"name": "model_213/tf.strided_slice_17/StridedSlice/end", "op": "Const", "attr": {"value": {"tensor": {"dtype": "DT_INT64", "tensorShape": {"dim": [{"size": "4"}]}}}, "dtype": {"type": "DT_INT64"}}}, {"name": "model_213/tf.strided_slice_17/ones_like", "op": "Const", "attr": {"value": {"tensor": {"dtype": "DT_INT64", "tensorShape": {"dim": [{"size": "4"}]}}}, "dtype": {"type": "DT_INT64"}}}, {"name": "model_213/tf.nn.convolution_127/convolution/filter", "op": "Const", "attr": {"value": {"tensor": {"dtype": "DT_FLOAT", "tensorShape": {"dim": [{"size": "1"}, {"size": "1"}, {"size": "64"}, {"size": "32"}]}}}, "dtype": {"type": "DT_FLOAT"}}}, {"name": "model_213/tf.math.add_94/Add/y", "op": "Const", "attr": {"value": {"tensor": {"dtype": "DT_FLOAT", "tensorShape": {"dim": [{"size": "32"}]}}}, "dtype": {"type": "DT_FLOAT"}}}, {"name": "model_213/tf.nn.convolution_130/convolution/filter", "op": "Const", "attr": {"value": {"tensor": {"dtype": "DT_FLOAT", "tensorShape": {"dim": [{"size": "3"}, {"size": "3"}, {"size": "32"}, {"size": "32"}]}}}, "dtype": {"type": "DT_FLOAT"}}}, {"name": "model_213/tf.math.add_97/Add/y", "op": "Const", "attr": {"value": {"tensor": {"dtype": "DT_FLOAT", "tensorShape": {"dim": [{"size": "32"}]}}}, "dtype": {"type": "DT_FLOAT"}}}, {"name": "model_213/tf.nn.convolution_132/convolution/filter", "op": "Const", "attr": {"value": {"tensor": {"dtype": "DT_FLOAT", "tensorShape": {"dim": [{"size": "3"}, {"size": "3"}, {"size": "32"}, {"size": "32"}]}}}, "dtype": {"type": "DT_FLOAT"}}}, {"name": "model_213/tf.math.add_99/Add/y", "op": "Const", "attr": {"value": {"tensor": {"dtype": "DT_FLOAT", "tensorShape": {"dim": [{"size": "32"}]}}}, "dtype": {"type": "DT_FLOAT"}}}, {"name": "model_213/tf.nn.convolution_133/convolution/filter", "op": "Const", "attr": {"value": {"tensor": {"dtype": "DT_FLOAT", "tensorShape": {"dim": [{"size": "3"}, {"size": "3"}, {"size": "32"}, {"size": "32"}]}}}, "dtype": {"type": "DT_FLOAT"}}}, {"name": "model_213/tf.math.add_102/Add/y", "op": "Const", "attr": {"value": {"tensor": {"dtype": "DT_FLOAT", "tensorShape": {"dim": [{"size": "32"}]}}}, "dtype": {"type": "DT_FLOAT"}}}, {"name": "model_213/tf.nn.convolution_134/convolution/filter", "op": "Const", "attr": {"value": {"tensor": {"dtype": "DT_FLOAT", "tensorShape": {"dim": [{"size": "3"}, {"size": "3"}, {"size": "32"}, {"size": "32"}]}}}, "dtype": {"type": "DT_FLOAT"}}}, {"name": "model_213/tf.math.add_103/Add/y", "op": "Const", "attr": {"value": {"tensor": {"dtype": "DT_FLOAT", "tensorShape": {"dim": [{"size": "32"}]}}}, "dtype": {"type": "DT_FLOAT"}}}, {"name": "model_213/tf.strided_slice_15/ones_like/tensor", "op": "Const", "attr": {"value": {"tensor": {"dtype": "DT_INT64", "tensorShape": {"dim": [{"size": "4"}]}}}, "dtype": {"type": "DT_INT64"}}}, {"name": "model_213/tf.strided_slice_15/StridedSlice/end", "op": "Const", "attr": {"value": {"tensor": {"dtype": "DT_INT64", "tensorShape": {"dim": [{"size": "4"}]}}}, "dtype": {"type": "DT_INT64"}}}, {"name": "model_213/tf.strided_slice_15/ones_like", "op": "Const", "attr": {"value": {"tensor": {"dtype": "DT_INT64", "tensorShape": {"dim": [{"size": "4"}]}}}, "dtype": {"type": "DT_INT64"}}}, {"name": "model_213/tf.nn.convolution_113/convolution/filter", "op": "Const", "attr": {"value": {"tensor": {"dtype": "DT_FLOAT", "tensorShape": {"dim": [{"size": "1"}, {"size": "1"}, {"size": "32"}, {"size": "16"}]}}}, "dtype": {"type": "DT_FLOAT"}}}, {"name": "model_213/tf.math.add_74/Add/y", "op": "Const", "attr": {"value": {"tensor": {"dtype": "DT_FLOAT", "tensorShape": {"dim": [{"size": "16"}]}}}, "dtype": {"type": "DT_FLOAT"}}}, {"name": "model_213/tf.nn.convolution_115/convolution/filter", "op": "Const", "attr": {"value": {"tensor": {"dtype": "DT_FLOAT", "tensorShape": {"dim": [{"size": "3"}, {"size": "3"}, {"size": "16"}, {"size": "16"}]}}}, "dtype": {"type": "DT_FLOAT"}}}, {"name": "model_213/tf.math.add_76/Add/y", "op": "Const", "attr": {"value": {"tensor": {"dtype": "DT_FLOAT", "tensorShape": {"dim": [{"size": "16"}]}}}, "dtype": {"type": "DT_FLOAT"}}}, {"name": "model_213/tf.nn.convolution_116/convolution/filter", "op": "Const", "attr": {"value": {"tensor": {"dtype": "DT_FLOAT", "tensorShape": {"dim": [{"size": "3"}, {"size": "3"}, {"size": "16"}, {"size": "16"}]}}}, "dtype": {"type": "DT_FLOAT"}}}, {"name": "model_213/tf.math.add_77/Add/y", "op": "Const", "attr": {"value": {"tensor": {"dtype": "DT_FLOAT", "tensorShape": {"dim": [{"size": "16"}]}}}, "dtype": {"type": "DT_FLOAT"}}}, {"name": "model_213/tf.nn.convolution_117/convolution/filter", "op": "Const", "attr": {"value": {"tensor": {"dtype": "DT_FLOAT", "tensorShape": {"dim": [{"size": "3"}, {"size": "3"}, {"size": "16"}, {"size": "16"}]}}}, "dtype": {"type": "DT_FLOAT"}}}, {"name": "model_213/tf.math.add_80/Add/y", "op": "Const", "attr": {"value": {"tensor": {"dtype": "DT_FLOAT", "tensorShape": {"dim": [{"size": "16"}]}}}, "dtype": {"type": "DT_FLOAT"}}}, {"name": "model_213/tf.nn.convolution_118/convolution/filter", "op": "Const", "attr": {"value": {"tensor": {"dtype": "DT_FLOAT", "tensorShape": {"dim": [{"size": "3"}, {"size": "3"}, {"size": "16"}, {"size": "16"}]}}}, "dtype": {"type": "DT_FLOAT"}}}, {"name": "model_213/tf.math.add_81/Add/y", "op": "Const", "attr": {"value": {"tensor": {"dtype": "DT_FLOAT", "tensorShape": {"dim": [{"size": "16"}]}}}, "dtype": {"type": "DT_FLOAT"}}}, {"name": "model_213/tf.image.resize_1/resize/size", "op": "Const", "attr": {"value": {"tensor": {"dtype": "DT_INT32", "tensorShape": {"dim": [{"size": "2"}]}}}, "dtype": {"type": "DT_INT32"}}}, {"name": "model_213/tf.concat_12/concat/axis", "op": "Const", "attr": {"value": {"tensor": {"dtype": "DT_INT32", "tensorShape": {}}}, "dtype": {"type": "DT_INT32"}}}, {"name": "model_213/tf.nn.convolution_112/convolution/filter", "op": "Const", "attr": {"value": {"tensor": {"dtype": "DT_FLOAT", "tensorShape": {"dim": [{"size": "1"}, {"size": "1"}, {"size": "160"}, {"size": "64"}]}}}, "dtype": {"type": "DT_FLOAT"}}}, {"name": "model_213/tf.math.add_73/Add/y", "op": "Const", "attr": {"value": {"tensor": {"dtype": "DT_FLOAT", "tensorShape": {"dim": [{"size": "64"}]}}}, "dtype": {"type": "DT_FLOAT"}}}, {"name": "model_213/tf.strided_slice_16/ones_like/tensor", "op": "Const", "attr": {"value": {"tensor": {"dtype": "DT_INT64", "tensorShape": {"dim": [{"size": "4"}]}}}, "dtype": {"type": "DT_INT64"}}}, {"name": "model_213/tf.strided_slice_16/StridedSlice/end", "op": "Const", "attr": {"value": {"tensor": {"dtype": "DT_INT64", "tensorShape": {"dim": [{"size": "4"}]}}}, "dtype": {"type": "DT_INT64"}}}, {"name": "model_213/tf.strided_slice_16/ones_like", "op": "Const", "attr": {"value": {"tensor": {"dtype": "DT_INT64", "tensorShape": {"dim": [{"size": "4"}]}}}, "dtype": {"type": "DT_INT64"}}}, {"name": "model_213/tf.nn.convolution_114/convolution/filter", "op": "Const", "attr": {"value": {"tensor": {"dtype": "DT_FLOAT", "tensorShape": {"dim": [{"size": "1"}, {"size": "1"}, {"size": "32"}, {"size": "16"}]}}}, "dtype": {"type": "DT_FLOAT"}}}, {"name": "model_213/tf.math.add_75/Add/y", "op": "Const", "attr": {"value": {"tensor": {"dtype": "DT_FLOAT", "tensorShape": {"dim": [{"size": "16"}]}}}, "dtype": {"type": "DT_FLOAT"}}}, {"name": "model_213/tf.concat_13/concat/axis", "op": "Const", "attr": {"value": {"tensor": {"dtype": "DT_INT32", "tensorShape": {}}}, "dtype": {"type": "DT_INT32"}}}, {"name": "model_213/tf.nn.convolution_119/convolution/filter", "op": "Const", "attr": {"value": {"tensor": {"dtype": "DT_FLOAT", "tensorShape": {"dim": [{"size": "1"}, {"size": "1"}, {"size": "32"}, {"size": "32"}]}}}, "dtype": {"type": "DT_FLOAT"}}}, {"name": "model_213/tf.math.add_84/Add/y", "op": "Const", "attr": {"value": {"tensor": {"dtype": "DT_FLOAT", "tensorShape": {"dim": [{"size": "32"}]}}}, "dtype": {"type": "DT_FLOAT"}}}, {"name": "model_213/tf.concat_14/concat/axis", "op": "Const", "attr": {"value": {"tensor": {"dtype": "DT_INT32", "tensorShape": {}}}, "dtype": {"type": "DT_INT32"}}}, {"name": "model_213/tf.nn.convolution_120/convolution/filter", "op": "Const", "attr": {"value": {"tensor": {"dtype": "DT_FLOAT", "tensorShape": {"dim": [{"size": "1"}, {"size": "1"}, {"size": "96"}, {"size": "64"}]}}}, "dtype": {"type": "DT_FLOAT"}}}, {"name": "model_213/tf.math.add_85/Add/y", "op": "Const", "attr": {"value": {"tensor": {"dtype": "DT_FLOAT", "tensorShape": {"dim": [{"size": "64"}]}}}, "dtype": {"type": "DT_FLOAT"}}}, {"name": "model_213/tf.compat.v1.pad_5/Pad/paddings", "op": "Const", "attr": {"value": {"tensor": {"dtype": "DT_INT32", "tensorShape": {"dim": [{"size": "4"}, {"size": "2"}]}}}, "dtype": {"type": "DT_INT32"}}}, {"name": "model_213/tf.nn.convolution_121/convolution/filter", "op": "Const", "attr": {"value": {"tensor": {"dtype": "DT_FLOAT", "tensorShape": {"dim": [{"size": "3"}, {"size": "3"}, {"size": "64"}, {"size": "64"}]}}}, "dtype": {"type": "DT_FLOAT"}}}, {"name": "model_213/tf.math.add_86/Add/y", "op": "Const", "attr": {"value": {"tensor": {"dtype": "DT_FLOAT", "tensorShape": {"dim": [{"size": "64"}]}}}, "dtype": {"type": "DT_FLOAT"}}}, {"name": "model_213/tf.strided_slice_13/ones_like/tensor", "op": "Const", "attr": {"value": {"tensor": {"dtype": "DT_INT64", "tensorShape": {"dim": [{"size": "4"}]}}}, "dtype": {"type": "DT_INT64"}}}, {"name": "model_213/tf.strided_slice_13/StridedSlice/end", "op": "Const", "attr": {"value": {"tensor": {"dtype": "DT_INT64", "tensorShape": {"dim": [{"size": "4"}]}}}, "dtype": {"type": "DT_INT64"}}}, {"name": "model_213/tf.strided_slice_13/ones_like", "op": "Const", "attr": {"value": {"tensor": {"dtype": "DT_INT64", "tensorShape": {"dim": [{"size": "4"}]}}}, "dtype": {"type": "DT_INT64"}}}, {"name": "model_213/tf.nn.convolution_104/convolution/filter", "op": "Const", "attr": {"value": {"tensor": {"dtype": "DT_FLOAT", "tensorShape": {"dim": [{"size": "1"}, {"size": "1"}, {"size": "64"}, {"size": "32"}]}}}, "dtype": {"type": "DT_FLOAT"}}}, {"name": "model_213/tf.math.add_61/Add/y", "op": "Const", "attr": {"value": {"tensor": {"dtype": "DT_FLOAT", "tensorShape": {"dim": [{"size": "32"}]}}}, "dtype": {"type": "DT_FLOAT"}}}, {"name": "model_213/tf.nn.convolution_106/convolution/filter", "op": "Const", "attr": {"value": {"tensor": {"dtype": "DT_FLOAT", "tensorShape": {"dim": [{"size": "3"}, {"size": "3"}, {"size": "32"}, {"size": "32"}]}}}, "dtype": {"type": "DT_FLOAT"}}}, {"name": "model_213/tf.math.add_63/Add/y", "op": "Const", "attr": {"value": {"tensor": {"dtype": "DT_FLOAT", "tensorShape": {"dim": [{"size": "32"}]}}}, "dtype": {"type": "DT_FLOAT"}}}, {"name": "model_213/tf.nn.convolution_107/convolution/filter", "op": "Const", "attr": {"value": {"tensor": {"dtype": "DT_FLOAT", "tensorShape": {"dim": [{"size": "3"}, {"size": "3"}, {"size": "32"}, {"size": "32"}]}}}, "dtype": {"type": "DT_FLOAT"}}}, {"name": "model_213/tf.math.add_64/Add/y", "op": "Const", "attr": {"value": {"tensor": {"dtype": "DT_FLOAT", "tensorShape": {"dim": [{"size": "32"}]}}}, "dtype": {"type": "DT_FLOAT"}}}, {"name": "model_213/tf.nn.convolution_108/convolution/filter", "op": "Const", "attr": {"value": {"tensor": {"dtype": "DT_FLOAT", "tensorShape": {"dim": [{"size": "3"}, {"size": "3"}, {"size": "32"}, {"size": "32"}]}}}, "dtype": {"type": "DT_FLOAT"}}}, {"name": "model_213/tf.math.add_67/Add/y", "op": "Const", "attr": {"value": {"tensor": {"dtype": "DT_FLOAT", "tensorShape": {"dim": [{"size": "32"}]}}}, "dtype": {"type": "DT_FLOAT"}}}, {"name": "model_213/tf.nn.convolution_109/convolution/filter", "op": "Const", "attr": {"value": {"tensor": {"dtype": "DT_FLOAT", "tensorShape": {"dim": [{"size": "3"}, {"size": "3"}, {"size": "32"}, {"size": "32"}]}}}, "dtype": {"type": "DT_FLOAT"}}}, {"name": "model_213/tf.math.add_68/Add/y", "op": "Const", "attr": {"value": {"tensor": {"dtype": "DT_FLOAT", "tensorShape": {"dim": [{"size": "32"}]}}}, "dtype": {"type": "DT_FLOAT"}}}, {"name": "model_213/tf.image.resize/resize/size", "op": "Const", "attr": {"value": {"tensor": {"dtype": "DT_INT32", "tensorShape": {"dim": [{"size": "2"}]}}}, "dtype": {"type": "DT_INT32"}}}, {"name": "model_213/tf.concat_9/concat/axis", "op": "Const", "attr": {"value": {"tensor": {"dtype": "DT_INT32", "tensorShape": {}}}, "dtype": {"type": "DT_INT32"}}}, {"name": "model_213/tf.nn.convolution_103/convolution/filter", "op": "Const", "attr": {"value": {"tensor": {"dtype": "DT_FLOAT", "tensorShape": {"dim": [{"size": "1"}, {"size": "1"}, {"size": "96"}, {"size": "128"}]}}}, "dtype": {"type": "DT_FLOAT"}}}, {"name": "model_213/tf.math.add_60/Add/y", "op": "Const", "attr": {"value": {"tensor": {"dtype": "DT_FLOAT", "tensorShape": {"dim": [{"size": "128"}]}}}, "dtype": {"type": "DT_FLOAT"}}}, {"name": "model_213/tf.strided_slice_14/ones_like/tensor", "op": "Const", "attr": {"value": {"tensor": {"dtype": "DT_INT64", "tensorShape": {"dim": [{"size": "4"}]}}}, "dtype": {"type": "DT_INT64"}}}, {"name": "model_213/tf.strided_slice_14/StridedSlice/end", "op": "Const", "attr": {"value": {"tensor": {"dtype": "DT_INT64", "tensorShape": {"dim": [{"size": "4"}]}}}, "dtype": {"type": "DT_INT64"}}}, {"name": "model_213/tf.strided_slice_14/ones_like", "op": "Const", "attr": {"value": {"tensor": {"dtype": "DT_INT64", "tensorShape": {"dim": [{"size": "4"}]}}}, "dtype": {"type": "DT_INT64"}}}, {"name": "model_213/tf.nn.convolution_105/convolution/filter", "op": "Const", "attr": {"value": {"tensor": {"dtype": "DT_FLOAT", "tensorShape": {"dim": [{"size": "1"}, {"size": "1"}, {"size": "64"}, {"size": "32"}]}}}, "dtype": {"type": "DT_FLOAT"}}}, {"name": "model_213/tf.math.add_62/Add/y", "op": "Const", "attr": {"value": {"tensor": {"dtype": "DT_FLOAT", "tensorShape": {"dim": [{"size": "32"}]}}}, "dtype": {"type": "DT_FLOAT"}}}, {"name": "model_213/tf.concat_10/concat/axis", "op": "Const", "attr": {"value": {"tensor": {"dtype": "DT_INT32", "tensorShape": {}}}, "dtype": {"type": "DT_INT32"}}}, {"name": "model_213/tf.nn.convolution_110/convolution/filter", "op": "Const", "attr": {"value": {"tensor": {"dtype": "DT_FLOAT", "tensorShape": {"dim": [{"size": "1"}, {"size": "1"}, {"size": "64"}, {"size": "64"}]}}}, "dtype": {"type": "DT_FLOAT"}}}, {"name": "model_213/tf.math.add_71/Add/y", "op": "Const", "attr": {"value": {"tensor": {"dtype": "DT_FLOAT", "tensorShape": {"dim": [{"size": "64"}]}}}, "dtype": {"type": "DT_FLOAT"}}}, {"name": "model_213/tf.concat_11/concat/axis", "op": "Const", "attr": {"value": {"tensor": {"dtype": "DT_INT32", "tensorShape": {}}}, "dtype": {"type": "DT_INT32"}}}, {"name": "model_213/tf.nn.convolution_111/convolution/filter", "op": "Const", "attr": {"value": {"tensor": {"dtype": "DT_FLOAT", "tensorShape": {"dim": [{"size": "1"}, {"size": "1"}, {"size": "192"}, {"size": "128"}]}}}, "dtype": {"type": "DT_FLOAT"}}}, {"name": "model_213/tf.math.add_72/Add/y", "op": "Const", "attr": {"value": {"tensor": {"dtype": "DT_FLOAT", "tensorShape": {"dim": [{"size": "128"}]}}}, "dtype": {"type": "DT_FLOAT"}}}, {"name": "model_213/tf.concat_15/concat/axis", "op": "Const", "attr": {"value": {"tensor": {"dtype": "DT_INT32", "tensorShape": {}}}, "dtype": {"type": "DT_INT32"}}}, {"name": "model_213/tf.nn.convolution_125/convolution/filter", "op": "Const", "attr": {"value": {"tensor": {"dtype": "DT_FLOAT", "tensorShape": {"dim": [{"size": "1"}, {"size": "1"}, {"size": "192"}, {"size": "128"}]}}}, "dtype": {"type": "DT_FLOAT"}}}, {"name": "model_213/tf.math.add_91/Add/y", "op": "Const", "attr": {"value": {"tensor": {"dtype": "DT_FLOAT", "tensorShape": {"dim": [{"size": "128"}]}}}, "dtype": {"type": "DT_FLOAT"}}}, {"name": "model_213/tf.strided_slice_18/ones_like/tensor", "op": "Const", "attr": {"value": {"tensor": {"dtype": "DT_INT64", "tensorShape": {"dim": [{"size": "4"}]}}}, "dtype": {"type": "DT_INT64"}}}, {"name": "model_213/tf.strided_slice_18/StridedSlice/end", "op": "Const", "attr": {"value": {"tensor": {"dtype": "DT_INT64", "tensorShape": {"dim": [{"size": "4"}]}}}, "dtype": {"type": "DT_INT64"}}}, {"name": "model_213/tf.strided_slice_18/ones_like", "op": "Const", "attr": {"value": {"tensor": {"dtype": "DT_INT64", "tensorShape": {"dim": [{"size": "4"}]}}}, "dtype": {"type": "DT_INT64"}}}, {"name": "model_213/tf.nn.convolution_128/convolution/filter", "op": "Const", "attr": {"value": {"tensor": {"dtype": "DT_FLOAT", "tensorShape": {"dim": [{"size": "1"}, {"size": "1"}, {"size": "64"}, {"size": "32"}]}}}, "dtype": {"type": "DT_FLOAT"}}}, {"name": "model_213/tf.math.add_95/Add/y", "op": "Const", "attr": {"value": {"tensor": {"dtype": "DT_FLOAT", "tensorShape": {"dim": [{"size": "32"}]}}}, "dtype": {"type": "DT_FLOAT"}}}, {"name": "model_213/tf.concat_16/concat/axis", "op": "Const", "attr": {"value": {"tensor": {"dtype": "DT_INT32", "tensorShape": {}}}, "dtype": {"type": "DT_INT32"}}}, {"name": "model_213/tf.nn.convolution_135/convolution/filter", "op": "Const", "attr": {"value": {"tensor": {"dtype": "DT_FLOAT", "tensorShape": {"dim": [{"size": "1"}, {"size": "1"}, {"size": "64"}, {"size": "64"}]}}}, "dtype": {"type": "DT_FLOAT"}}}, {"name": "model_213/tf.math.add_106/Add/y", "op": "Const", "attr": {"value": {"tensor": {"dtype": "DT_FLOAT", "tensorShape": {"dim": [{"size": "64"}]}}}, "dtype": {"type": "DT_FLOAT"}}}, {"name": "model_213/tf.concat_17/concat/axis", "op": "Const", "attr": {"value": {"tensor": {"dtype": "DT_INT32", "tensorShape": {}}}, "dtype": {"type": "DT_INT32"}}}, {"name": "model_213/tf.nn.convolution_136/convolution/filter", "op": "Const", "attr": {"value": {"tensor": {"dtype": "DT_FLOAT", "tensorShape": {"dim": [{"size": "1"}, {"size": "1"}, {"size": "192"}, {"size": "128"}]}}}, "dtype": {"type": "DT_FLOAT"}}}, {"name": "model_213/tf.math.add_107/Add/y", "op": "Const", "attr": {"value": {"tensor": {"dtype": "DT_FLOAT", "tensorShape": {"dim": [{"size": "128"}]}}}, "dtype": {"type": "DT_FLOAT"}}}, {"name": "model_213/tf.compat.v1.pad_6/Pad/paddings", "op": "Const", "attr": {"value": {"tensor": {"dtype": "DT_INT32", "tensorShape": {"dim": [{"size": "4"}, {"size": "2"}]}}}, "dtype": {"type": "DT_INT32"}}}, {"name": "model_213/tf.nn.convolution_137/convolution/filter", "op": "Const", "attr": {"value": {"tensor": {"dtype": "DT_FLOAT", "tensorShape": {"dim": [{"size": "3"}, {"size": "3"}, {"size": "128"}, {"size": "128"}]}}}, "dtype": {"type": "DT_FLOAT"}}}, {"name": "model_213/tf.math.add_108/Add/y", "op": "Const", "attr": {"value": {"tensor": {"dtype": "DT_FLOAT", "tensorShape": {"dim": [{"size": "128"}]}}}, "dtype": {"type": "DT_FLOAT"}}}, {"name": "model_213/tf.strided_slice_8/StridedSlice/begin", "op": "Const", "attr": {"value": {"tensor": {"dtype": "DT_INT32", "tensorShape": {"dim": [{"size": "4"}]}}}, "dtype": {"type": "DT_INT32"}}}, {"name": "model_213/tf.strided_slice_8/StridedSlice/end", "op": "Const", "attr": {"value": {"tensor": {"dtype": "DT_INT32", "tensorShape": {"dim": [{"size": "4"}]}}}, "dtype": {"type": "DT_INT32"}}}, {"name": "model_213/tf.strided_slice_8/ones_like", "op": "Const", "attr": {"value": {"tensor": {"dtype": "DT_INT32", "tensorShape": {"dim": [{"size": "4"}]}}}, "dtype": {"type": "DT_INT32"}}}, {"name": "model_213/tf.math.add_56/Add/y", "op": "Const", "attr": {"value": {"tensor": {"dtype": "DT_FLOAT", "tensorShape": {"dim": [{"size": "64"}]}}}, "dtype": {"type": "DT_FLOAT"}}}, {"name": "model_213/tf.math.add_49/Add/y", "op": "Const", "attr": {"value": {"tensor": {"dtype": "DT_FLOAT", "tensorShape": {"dim": [{"size": "64"}]}}}, "dtype": {"type": "DT_FLOAT"}}}, {"name": "model_213/tf.strided_slice_10/StridedSlice/begin", "op": "Const", "attr": {"value": {"tensor": {"dtype": "DT_INT32", "tensorShape": {"dim": [{"size": "4"}]}}}, "dtype": {"type": "DT_INT32"}}}, {"name": "model_213/tf.strided_slice_10/StridedSlice/end", "op": "Const", "attr": {"value": {"tensor": {"dtype": "DT_INT32", "tensorShape": {"dim": [{"size": "4"}]}}}, "dtype": {"type": "DT_INT32"}}}, {"name": "model_213/tf.strided_slice_10/ones_like", "op": "Const", "attr": {"value": {"tensor": {"dtype": "DT_INT32", "tensorShape": {"dim": [{"size": "4"}]}}}, "dtype": {"type": "DT_INT32"}}}, {"name": "model_213/tf.strided_slice_11/StridedSlice/begin", "op": "Const", "attr": {"value": {"tensor": {"dtype": "DT_INT32", "tensorShape": {"dim": [{"size": "4"}]}}}, "dtype": {"type": "DT_INT32"}}}, {"name": "model_213/tf.strided_slice_11/StridedSlice/end", "op": "Const", "attr": {"value": {"tensor": {"dtype": "DT_INT32", "tensorShape": {"dim": [{"size": "4"}]}}}, "dtype": {"type": "DT_INT32"}}}, {"name": "model_213/tf.strided_slice_11/ones_like", "op": "Const", "attr": {"value": {"tensor": {"dtype": "DT_INT32", "tensorShape": {"dim": [{"size": "4"}]}}}, "dtype": {"type": "DT_INT32"}}}, {"name": "model_213/tf.math.multiply_148/Mul/y", "op": "Const", "attr": {"value": {"tensor": {"dtype": "DT_FLOAT", "tensorShape": {}}}, "dtype": {"type": "DT_FLOAT"}}}, {"name": "model_213/tf.reshape_31/Reshape/shape", "op": "Const", "attr": {"value": {"tensor": {"dtype": "DT_INT32", "tensorShape": {"dim": [{"size": "4"}]}}}, "dtype": {"type": "DT_INT32"}}}, {"name": "model_213/tf.compat.v1.transpose_218/transpose/perm", "op": "Const", "attr": {"value": {"tensor": {"dtype": "DT_INT32", "tensorShape": {"dim": [{"size": "4"}]}}}, "dtype": {"type": "DT_INT32"}}}, {"name": "model_213/tf.nn.convolution_35/convolution/filter", "op": "Const", "attr": {"value": {"tensor": {"dtype": "DT_FLOAT", "tensorShape": {"dim": [{"size": "3"}, {"size": "3"}, {"size": "1"}, {"size": "1"}]}}}, "dtype": {"type": "DT_FLOAT"}}}, {"name": "model_213/tf.nn.convolution_36/convolution/filter", "op": "Const", "attr": {"value": {"tensor": {"dtype": "DT_FLOAT", "tensorShape": {"dim": [{"size": "3"}, {"size": "3"}, {"size": "1"}, {"size": "1"}]}}}, "dtype": {"type": "DT_FLOAT"}}}, {"name": "model_213/tf.nn.convolution_37/convolution/filter", "op": "Const", "attr": {"value": {"tensor": {"dtype": "DT_FLOAT", "tensorShape": {"dim": [{"size": "3"}, {"size": "3"}, {"size": "1"}, {"size": "1"}]}}}, "dtype": {"type": "DT_FLOAT"}}}, {"name": "model_213/tf.nn.convolution_38/convolution/filter", "op": "Const", "attr": {"value": {"tensor": {"dtype": "DT_FLOAT", "tensorShape": {"dim": [{"size": "3"}, {"size": "3"}, {"size": "1"}, {"size": "1"}]}}}, "dtype": {"type": "DT_FLOAT"}}}, {"name": "model_213/tf.nn.convolution_39/convolution/filter", "op": "Const", "attr": {"value": {"tensor": {"dtype": "DT_FLOAT", "tensorShape": {"dim": [{"size": "3"}, {"size": "3"}, {"size": "1"}, {"size": "1"}]}}}, "dtype": {"type": "DT_FLOAT"}}}, {"name": "model_213/tf.nn.convolution_40/convolution/filter", "op": "Const", "attr": {"value": {"tensor": {"dtype": "DT_FLOAT", "tensorShape": {"dim": [{"size": "3"}, {"size": "3"}, {"size": "1"}, {"size": "1"}]}}}, "dtype": {"type": "DT_FLOAT"}}}, {"name": "model_213/tf.nn.convolution_41/convolution/filter", "op": "Const", "attr": {"value": {"tensor": {"dtype": "DT_FLOAT", "tensorShape": {"dim": [{"size": "3"}, {"size": "3"}, {"size": "1"}, {"size": "1"}]}}}, "dtype": {"type": "DT_FLOAT"}}}, {"name": "model_213/tf.nn.convolution_42/convolution/filter", "op": "Const", "attr": {"value": {"tensor": {"dtype": "DT_FLOAT", "tensorShape": {"dim": [{"size": "3"}, {"size": "3"}, {"size": "1"}, {"size": "1"}]}}}, "dtype": {"type": "DT_FLOAT"}}}, {"name": "model_213/tf.nn.convolution_43/convolution/filter", "op": "Const", "attr": {"value": {"tensor": {"dtype": "DT_FLOAT", "tensorShape": {"dim": [{"size": "3"}, {"size": "3"}, {"size": "1"}, {"size": "1"}]}}}, "dtype": {"type": "DT_FLOAT"}}}, {"name": "model_213/tf.nn.convolution_44/convolution/filter", "op": "Const", "attr": {"value": {"tensor": {"dtype": "DT_FLOAT", "tensorShape": {"dim": [{"size": "3"}, {"size": "3"}, {"size": "1"}, {"size": "1"}]}}}, "dtype": {"type": "DT_FLOAT"}}}, {"name": "model_213/tf.nn.convolution_45/convolution/filter", "op": "Const", "attr": {"value": {"tensor": {"dtype": "DT_FLOAT", "tensorShape": {"dim": [{"size": "3"}, {"size": "3"}, {"size": "1"}, {"size": "1"}]}}}, "dtype": {"type": "DT_FLOAT"}}}, {"name": "model_213/tf.nn.convolution_46/convolution/filter", "op": "Const", "attr": {"value": {"tensor": {"dtype": "DT_FLOAT", "tensorShape": {"dim": [{"size": "3"}, {"size": "3"}, {"size": "1"}, {"size": "1"}]}}}, "dtype": {"type": "DT_FLOAT"}}}, {"name": "model_213/tf.nn.convolution_47/convolution/filter", "op": "Const", "attr": {"value": {"tensor": {"dtype": "DT_FLOAT", "tensorShape": {"dim": [{"size": "3"}, {"size": "3"}, {"size": "1"}, {"size": "1"}]}}}, "dtype": {"type": "DT_FLOAT"}}}, {"name": "model_213/tf.nn.convolution_48/convolution/filter", "op": "Const", "attr": {"value": {"tensor": {"dtype": "DT_FLOAT", "tensorShape": {"dim": [{"size": "3"}, {"size": "3"}, {"size": "1"}, {"size": "1"}]}}}, "dtype": {"type": "DT_FLOAT"}}}, {"name": "model_213/tf.nn.convolution_49/convolution/filter", "op": "Const", "attr": {"value": {"tensor": {"dtype": "DT_FLOAT", "tensorShape": {"dim": [{"size": "3"}, {"size": "3"}, {"size": "1"}, {"size": "1"}]}}}, "dtype": {"type": "DT_FLOAT"}}}, {"name": "model_213/tf.nn.convolution_50/convolution/filter", "op": "Const", "attr": {"value": {"tensor": {"dtype": "DT_FLOAT", "tensorShape": {"dim": [{"size": "3"}, {"size": "3"}, {"size": "1"}, {"size": "1"}]}}}, "dtype": {"type": "DT_FLOAT"}}}, {"name": "model_213/tf.nn.convolution_51/convolution/filter", "op": "Const", "attr": {"value": {"tensor": {"dtype": "DT_FLOAT", "tensorShape": {"dim": [{"size": "3"}, {"size": "3"}, {"size": "1"}, {"size": "1"}]}}}, "dtype": {"type": "DT_FLOAT"}}}, {"name": "model_213/tf.nn.convolution_52/convolution/filter", "op": "Const", "attr": {"value": {"tensor": {"dtype": "DT_FLOAT", "tensorShape": {"dim": [{"size": "3"}, {"size": "3"}, {"size": "1"}, {"size": "1"}]}}}, "dtype": {"type": "DT_FLOAT"}}}, {"name": "model_213/tf.nn.convolution_53/convolution/filter", "op": "Const", "attr": {"value": {"tensor": {"dtype": "DT_FLOAT", "tensorShape": {"dim": [{"size": "3"}, {"size": "3"}, {"size": "1"}, {"size": "1"}]}}}, "dtype": {"type": "DT_FLOAT"}}}, {"name": "model_213/tf.nn.convolution_54/convolution/filter", "op": "Const", "attr": {"value": {"tensor": {"dtype": "DT_FLOAT", "tensorShape": {"dim": [{"size": "3"}, {"size": "3"}, {"size": "1"}, {"size": "1"}]}}}, "dtype": {"type": "DT_FLOAT"}}}, {"name": "model_213/tf.nn.convolution_55/convolution/filter", "op": "Const", "attr": {"value": {"tensor": {"dtype": "DT_FLOAT", "tensorShape": {"dim": [{"size": "3"}, {"size": "3"}, {"size": "1"}, {"size": "1"}]}}}, "dtype": {"type": "DT_FLOAT"}}}, {"name": "model_213/tf.nn.convolution_56/convolution/filter", "op": "Const", "attr": {"value": {"tensor": {"dtype": "DT_FLOAT", "tensorShape": {"dim": [{"size": "3"}, {"size": "3"}, {"size": "1"}, {"size": "1"}]}}}, "dtype": {"type": "DT_FLOAT"}}}, {"name": "model_213/tf.nn.convolution_57/convolution/filter", "op": "Const", "attr": {"value": {"tensor": {"dtype": "DT_FLOAT", "tensorShape": {"dim": [{"size": "3"}, {"size": "3"}, {"size": "1"}, {"size": "1"}]}}}, "dtype": {"type": "DT_FLOAT"}}}, {"name": "model_213/tf.nn.convolution_58/convolution/filter", "op": "Const", "attr": {"value": {"tensor": {"dtype": "DT_FLOAT", "tensorShape": {"dim": [{"size": "3"}, {"size": "3"}, {"size": "1"}, {"size": "1"}]}}}, "dtype": {"type": "DT_FLOAT"}}}, {"name": "model_213/tf.nn.convolution_59/convolution/filter", "op": "Const", "attr": {"value": {"tensor": {"dtype": "DT_FLOAT", "tensorShape": {"dim": [{"size": "3"}, {"size": "3"}, {"size": "1"}, {"size": "1"}]}}}, "dtype": {"type": "DT_FLOAT"}}}, {"name": "model_213/tf.nn.convolution_60/convolution/filter", "op": "Const", "attr": {"value": {"tensor": {"dtype": "DT_FLOAT", "tensorShape": {"dim": [{"size": "3"}, {"size": "3"}, {"size": "1"}, {"size": "1"}]}}}, "dtype": {"type": "DT_FLOAT"}}}, {"name": "model_213/tf.nn.convolution_61/convolution/filter", "op": "Const", "attr": {"value": {"tensor": {"dtype": "DT_FLOAT", "tensorShape": {"dim": [{"size": "3"}, {"size": "3"}, {"size": "1"}, {"size": "1"}]}}}, "dtype": {"type": "DT_FLOAT"}}}, {"name": "model_213/tf.nn.convolution_62/convolution/filter", "op": "Const", "attr": {"value": {"tensor": {"dtype": "DT_FLOAT", "tensorShape": {"dim": [{"size": "3"}, {"size": "3"}, {"size": "1"}, {"size": "1"}]}}}, "dtype": {"type": "DT_FLOAT"}}}, {"name": "model_213/tf.nn.convolution_63/convolution/filter", "op": "Const", "attr": {"value": {"tensor": {"dtype": "DT_FLOAT", "tensorShape": {"dim": [{"size": "3"}, {"size": "3"}, {"size": "1"}, {"size": "1"}]}}}, "dtype": {"type": "DT_FLOAT"}}}, {"name": "model_213/tf.nn.convolution_64/convolution/filter", "op": "Const", "attr": {"value": {"tensor": {"dtype": "DT_FLOAT", "tensorShape": {"dim": [{"size": "3"}, {"size": "3"}, {"size": "1"}, {"size": "1"}]}}}, "dtype": {"type": "DT_FLOAT"}}}, {"name": "model_213/tf.nn.convolution_65/convolution/filter", "op": "Const", "attr": {"value": {"tensor": {"dtype": "DT_FLOAT", "tensorShape": {"dim": [{"size": "3"}, {"size": "3"}, {"size": "1"}, {"size": "1"}]}}}, "dtype": {"type": "DT_FLOAT"}}}, {"name": "model_213/tf.nn.convolution_66/convolution/filter", "op": "Const", "attr": {"value": {"tensor": {"dtype": "DT_FLOAT", "tensorShape": {"dim": [{"size": "3"}, {"size": "3"}, {"size": "1"}, {"size": "1"}]}}}, "dtype": {"type": "DT_FLOAT"}}}, {"name": "model_213/tf.nn.convolution_67/convolution/filter", "op": "Const", "attr": {"value": {"tensor": {"dtype": "DT_FLOAT", "tensorShape": {"dim": [{"size": "3"}, {"size": "3"}, {"size": "1"}, {"size": "1"}]}}}, "dtype": {"type": "DT_FLOAT"}}}, {"name": "model_213/tf.nn.convolution_68/convolution/filter", "op": "Const", "attr": {"value": {"tensor": {"dtype": "DT_FLOAT", "tensorShape": {"dim": [{"size": "3"}, {"size": "3"}, {"size": "1"}, {"size": "1"}]}}}, "dtype": {"type": "DT_FLOAT"}}}, {"name": "model_213/tf.nn.convolution_69/convolution/filter", "op": "Const", "attr": {"value": {"tensor": {"dtype": "DT_FLOAT", "tensorShape": {"dim": [{"size": "3"}, {"size": "3"}, {"size": "1"}, {"size": "1"}]}}}, "dtype": {"type": "DT_FLOAT"}}}, {"name": "model_213/tf.nn.convolution_70/convolution/filter", "op": "Const", "attr": {"value": {"tensor": {"dtype": "DT_FLOAT", "tensorShape": {"dim": [{"size": "3"}, {"size": "3"}, {"size": "1"}, {"size": "1"}]}}}, "dtype": {"type": "DT_FLOAT"}}}, {"name": "model_213/tf.nn.convolution_71/convolution/filter", "op": "Const", "attr": {"value": {"tensor": {"dtype": "DT_FLOAT", "tensorShape": {"dim": [{"size": "3"}, {"size": "3"}, {"size": "1"}, {"size": "1"}]}}}, "dtype": {"type": "DT_FLOAT"}}}, {"name": "model_213/tf.nn.convolution_72/convolution/filter", "op": "Const", "attr": {"value": {"tensor": {"dtype": "DT_FLOAT", "tensorShape": {"dim": [{"size": "3"}, {"size": "3"}, {"size": "1"}, {"size": "1"}]}}}, "dtype": {"type": "DT_FLOAT"}}}, {"name": "model_213/tf.nn.convolution_73/convolution/filter", "op": "Const", "attr": {"value": {"tensor": {"dtype": "DT_FLOAT", "tensorShape": {"dim": [{"size": "3"}, {"size": "3"}, {"size": "1"}, {"size": "1"}]}}}, "dtype": {"type": "DT_FLOAT"}}}, {"name": "model_213/tf.nn.convolution_74/convolution/filter", "op": "Const", "attr": {"value": {"tensor": {"dtype": "DT_FLOAT", "tensorShape": {"dim": [{"size": "3"}, {"size": "3"}, {"size": "1"}, {"size": "1"}]}}}, "dtype": {"type": "DT_FLOAT"}}}, {"name": "model_213/tf.nn.convolution_75/convolution/filter", "op": "Const", "attr": {"value": {"tensor": {"dtype": "DT_FLOAT", "tensorShape": {"dim": [{"size": "3"}, {"size": "3"}, {"size": "1"}, {"size": "1"}]}}}, "dtype": {"type": "DT_FLOAT"}}}, {"name": "model_213/tf.nn.convolution_76/convolution/filter", "op": "Const", "attr": {"value": {"tensor": {"dtype": "DT_FLOAT", "tensorShape": {"dim": [{"size": "3"}, {"size": "3"}, {"size": "1"}, {"size": "1"}]}}}, "dtype": {"type": "DT_FLOAT"}}}, {"name": "model_213/tf.nn.convolution_77/convolution/filter", "op": "Const", "attr": {"value": {"tensor": {"dtype": "DT_FLOAT", "tensorShape": {"dim": [{"size": "3"}, {"size": "3"}, {"size": "1"}, {"size": "1"}]}}}, "dtype": {"type": "DT_FLOAT"}}}, {"name": "model_213/tf.nn.convolution_78/convolution/filter", "op": "Const", "attr": {"value": {"tensor": {"dtype": "DT_FLOAT", "tensorShape": {"dim": [{"size": "3"}, {"size": "3"}, {"size": "1"}, {"size": "1"}]}}}, "dtype": {"type": "DT_FLOAT"}}}, {"name": "model_213/tf.nn.convolution_79/convolution/filter", "op": "Const", "attr": {"value": {"tensor": {"dtype": "DT_FLOAT", "tensorShape": {"dim": [{"size": "3"}, {"size": "3"}, {"size": "1"}, {"size": "1"}]}}}, "dtype": {"type": "DT_FLOAT"}}}, {"name": "model_213/tf.nn.convolution_80/convolution/filter", "op": "Const", "attr": {"value": {"tensor": {"dtype": "DT_FLOAT", "tensorShape": {"dim": [{"size": "3"}, {"size": "3"}, {"size": "1"}, {"size": "1"}]}}}, "dtype": {"type": "DT_FLOAT"}}}, {"name": "model_213/tf.nn.convolution_81/convolution/filter", "op": "Const", "attr": {"value": {"tensor": {"dtype": "DT_FLOAT", "tensorShape": {"dim": [{"size": "3"}, {"size": "3"}, {"size": "1"}, {"size": "1"}]}}}, "dtype": {"type": "DT_FLOAT"}}}, {"name": "model_213/tf.nn.convolution_82/convolution/filter", "op": "Const", "attr": {"value": {"tensor": {"dtype": "DT_FLOAT", "tensorShape": {"dim": [{"size": "3"}, {"size": "3"}, {"size": "1"}, {"size": "1"}]}}}, "dtype": {"type": "DT_FLOAT"}}}, {"name": "model_213/tf.nn.convolution_83/convolution/filter", "op": "Const", "attr": {"value": {"tensor": {"dtype": "DT_FLOAT", "tensorShape": {"dim": [{"size": "3"}, {"size": "3"}, {"size": "1"}, {"size": "1"}]}}}, "dtype": {"type": "DT_FLOAT"}}}, {"name": "model_213/tf.nn.convolution_84/convolution/filter", "op": "Const", "attr": {"value": {"tensor": {"dtype": "DT_FLOAT", "tensorShape": {"dim": [{"size": "3"}, {"size": "3"}, {"size": "1"}, {"size": "1"}]}}}, "dtype": {"type": "DT_FLOAT"}}}, {"name": "model_213/tf.nn.convolution_85/convolution/filter", "op": "Const", "attr": {"value": {"tensor": {"dtype": "DT_FLOAT", "tensorShape": {"dim": [{"size": "3"}, {"size": "3"}, {"size": "1"}, {"size": "1"}]}}}, "dtype": {"type": "DT_FLOAT"}}}, {"name": "model_213/tf.nn.convolution_86/convolution/filter", "op": "Const", "attr": {"value": {"tensor": {"dtype": "DT_FLOAT", "tensorShape": {"dim": [{"size": "3"}, {"size": "3"}, {"size": "1"}, {"size": "1"}]}}}, "dtype": {"type": "DT_FLOAT"}}}, {"name": "model_213/tf.nn.convolution_87/convolution/filter", "op": "Const", "attr": {"value": {"tensor": {"dtype": "DT_FLOAT", "tensorShape": {"dim": [{"size": "3"}, {"size": "3"}, {"size": "1"}, {"size": "1"}]}}}, "dtype": {"type": "DT_FLOAT"}}}, {"name": "model_213/tf.nn.convolution_88/convolution/filter", "op": "Const", "attr": {"value": {"tensor": {"dtype": "DT_FLOAT", "tensorShape": {"dim": [{"size": "3"}, {"size": "3"}, {"size": "1"}, {"size": "1"}]}}}, "dtype": {"type": "DT_FLOAT"}}}, {"name": "model_213/tf.nn.convolution_89/convolution/filter", "op": "Const", "attr": {"value": {"tensor": {"dtype": "DT_FLOAT", "tensorShape": {"dim": [{"size": "3"}, {"size": "3"}, {"size": "1"}, {"size": "1"}]}}}, "dtype": {"type": "DT_FLOAT"}}}, {"name": "model_213/tf.nn.convolution_90/convolution/filter", "op": "Const", "attr": {"value": {"tensor": {"dtype": "DT_FLOAT", "tensorShape": {"dim": [{"size": "3"}, {"size": "3"}, {"size": "1"}, {"size": "1"}]}}}, "dtype": {"type": "DT_FLOAT"}}}, {"name": "model_213/tf.nn.convolution_91/convolution/filter", "op": "Const", "attr": {"value": {"tensor": {"dtype": "DT_FLOAT", "tensorShape": {"dim": [{"size": "3"}, {"size": "3"}, {"size": "1"}, {"size": "1"}]}}}, "dtype": {"type": "DT_FLOAT"}}}, {"name": "model_213/tf.nn.convolution_92/convolution/filter", "op": "Const", "attr": {"value": {"tensor": {"dtype": "DT_FLOAT", "tensorShape": {"dim": [{"size": "3"}, {"size": "3"}, {"size": "1"}, {"size": "1"}]}}}, "dtype": {"type": "DT_FLOAT"}}}, {"name": "model_213/tf.nn.convolution_93/convolution/filter", "op": "Const", "attr": {"value": {"tensor": {"dtype": "DT_FLOAT", "tensorShape": {"dim": [{"size": "3"}, {"size": "3"}, {"size": "1"}, {"size": "1"}]}}}, "dtype": {"type": "DT_FLOAT"}}}, {"name": "model_213/tf.nn.convolution_94/convolution/filter", "op": "Const", "attr": {"value": {"tensor": {"dtype": "DT_FLOAT", "tensorShape": {"dim": [{"size": "3"}, {"size": "3"}, {"size": "1"}, {"size": "1"}]}}}, "dtype": {"type": "DT_FLOAT"}}}, {"name": "model_213/tf.nn.convolution_95/convolution/filter", "op": "Const", "attr": {"value": {"tensor": {"dtype": "DT_FLOAT", "tensorShape": {"dim": [{"size": "3"}, {"size": "3"}, {"size": "1"}, {"size": "1"}]}}}, "dtype": {"type": "DT_FLOAT"}}}, {"name": "model_213/tf.nn.convolution_96/convolution/filter", "op": "Const", "attr": {"value": {"tensor": {"dtype": "DT_FLOAT", "tensorShape": {"dim": [{"size": "3"}, {"size": "3"}, {"size": "1"}, {"size": "1"}]}}}, "dtype": {"type": "DT_FLOAT"}}}, {"name": "model_213/tf.nn.convolution_97/convolution/filter", "op": "Const", "attr": {"value": {"tensor": {"dtype": "DT_FLOAT", "tensorShape": {"dim": [{"size": "3"}, {"size": "3"}, {"size": "1"}, {"size": "1"}]}}}, "dtype": {"type": "DT_FLOAT"}}}, {"name": "model_213/tf.split/split/split_dim", "op": "Const", "attr": {"value": {"tensor": {"dtype": "DT_INT32", "tensorShape": {}}}, "dtype": {"type": "DT_INT32"}}}, {"name": "model_213/tf.nn.convolution_31/convolution/filter", "op": "Const", "attr": {"value": {"tensor": {"dtype": "DT_FLOAT", "tensorShape": {"dim": [{"size": "1"}, {"size": "1"}, {"size": "64"}, {"size": "32"}]}}}, "dtype": {"type": "DT_FLOAT"}}}, {"name": "model_213/tf.math.add_43/Add/y", "op": "Const", "attr": {"value": {"tensor": {"dtype": "DT_FLOAT", "tensorShape": {"dim": [{"size": "32"}]}}}, "dtype": {"type": "DT_FLOAT"}}}, {"name": "model_213/tf.concat_6/concat/axis", "op": "Const", "attr": {"value": {"tensor": {"dtype": "DT_INT32", "tensorShape": {}}}, "dtype": {"type": "DT_INT32"}}}, {"name": "model_213/tf.nn.convolution_32/convolution/filter", "op": "Const", "attr": {"value": {"tensor": {"dtype": "DT_FLOAT", "tensorShape": {"dim": [{"size": "1"}, {"size": "1"}, {"size": "128"}, {"size": "64"}]}}}, "dtype": {"type": "DT_FLOAT"}}}, {"name": "model_213/tf.math.add_44/Add/y", "op": "Const", "attr": {"value": {"tensor": {"dtype": "DT_FLOAT", "tensorShape": {"dim": [{"size": "64"}]}}}, "dtype": {"type": "DT_FLOAT"}}}, {"name": "model_213/tf.strided_slice_6/ones_like/tensor", "op": "Const", "attr": {"value": {"tensor": {"dtype": "DT_INT64", "tensorShape": {"dim": [{"size": "4"}]}}}, "dtype": {"type": "DT_INT64"}}}, {"name": "model_213/tf.strided_slice_6/StridedSlice/end", "op": "Const", "attr": {"value": {"tensor": {"dtype": "DT_INT64", "tensorShape": {"dim": [{"size": "4"}]}}}, "dtype": {"type": "DT_INT64"}}}, {"name": "model_213/tf.strided_slice_6/ones_like", "op": "Const", "attr": {"value": {"tensor": {"dtype": "DT_INT64", "tensorShape": {"dim": [{"size": "4"}]}}}, "dtype": {"type": "DT_INT64"}}}, {"name": "model_213/tf.nn.convolution_23/convolution/filter", "op": "Const", "attr": {"value": {"tensor": {"dtype": "DT_FLOAT", "tensorShape": {"dim": [{"size": "1"}, {"size": "1"}, {"size": "32"}, {"size": "16"}]}}}, "dtype": {"type": "DT_FLOAT"}}}, {"name": "model_213/tf.math.add_31/Add/y", "op": "Const", "attr": {"value": {"tensor": {"dtype": "DT_FLOAT", "tensorShape": {"dim": [{"size": "16"}]}}}, "dtype": {"type": "DT_FLOAT"}}}, {"name": "model_213/tf.nn.convolution_25/convolution/filter", "op": "Const", "attr": {"value": {"tensor": {"dtype": "DT_FLOAT", "tensorShape": {"dim": [{"size": "3"}, {"size": "3"}, {"size": "16"}, {"size": "16"}]}}}, "dtype": {"type": "DT_FLOAT"}}}, {"name": "model_213/tf.math.add_33/Add/y", "op": "Const", "attr": {"value": {"tensor": {"dtype": "DT_FLOAT", "tensorShape": {"dim": [{"size": "16"}]}}}, "dtype": {"type": "DT_FLOAT"}}}, {"name": "model_213/tf.nn.convolution_26/convolution/filter", "op": "Const", "attr": {"value": {"tensor": {"dtype": "DT_FLOAT", "tensorShape": {"dim": [{"size": "3"}, {"size": "3"}, {"size": "16"}, {"size": "16"}]}}}, "dtype": {"type": "DT_FLOAT"}}}, {"name": "model_213/tf.math.add_34/Add/y", "op": "Const", "attr": {"value": {"tensor": {"dtype": "DT_FLOAT", "tensorShape": {"dim": [{"size": "16"}]}}}, "dtype": {"type": "DT_FLOAT"}}}, {"name": "model_213/tf.nn.convolution_27/convolution/filter", "op": "Const", "attr": {"value": {"tensor": {"dtype": "DT_FLOAT", "tensorShape": {"dim": [{"size": "3"}, {"size": "3"}, {"size": "16"}, {"size": "16"}]}}}, "dtype": {"type": "DT_FLOAT"}}}, {"name": "model_213/tf.math.add_37/Add/y", "op": "Const", "attr": {"value": {"tensor": {"dtype": "DT_FLOAT", "tensorShape": {"dim": [{"size": "16"}]}}}, "dtype": {"type": "DT_FLOAT"}}}, {"name": "model_213/tf.nn.convolution_28/convolution/filter", "op": "Const", "attr": {"value": {"tensor": {"dtype": "DT_FLOAT", "tensorShape": {"dim": [{"size": "3"}, {"size": "3"}, {"size": "16"}, {"size": "16"}]}}}, "dtype": {"type": "DT_FLOAT"}}}, {"name": "model_213/tf.math.add_38/Add/y", "op": "Const", "attr": {"value": {"tensor": {"dtype": "DT_FLOAT", "tensorShape": {"dim": [{"size": "16"}]}}}, "dtype": {"type": "DT_FLOAT"}}}, {"name": "model_213/tf.strided_slice_4/ones_like/tensor", "op": "Const", "attr": {"value": {"tensor": {"dtype": "DT_INT64", "tensorShape": {"dim": [{"size": "4"}]}}}, "dtype": {"type": "DT_INT64"}}}, {"name": "model_213/tf.strided_slice_4/StridedSlice/end", "op": "Const", "attr": {"value": {"tensor": {"dtype": "DT_INT64", "tensorShape": {"dim": [{"size": "4"}]}}}, "dtype": {"type": "DT_INT64"}}}, {"name": "model_213/tf.strided_slice_4/ones_like", "op": "Const", "attr": {"value": {"tensor": {"dtype": "DT_INT64", "tensorShape": {"dim": [{"size": "4"}]}}}, "dtype": {"type": "DT_INT64"}}}, {"name": "model_213/tf.nn.convolution_13/convolution/filter", "op": "Const", "attr": {"value": {"tensor": {"dtype": "DT_FLOAT", "tensorShape": {"dim": [{"size": "1"}, {"size": "1"}, {"size": "16"}, {"size": "8"}]}}}, "dtype": {"type": "DT_FLOAT"}}}, {"name": "model_213/tf.math.add_17/Add/y", "op": "Const", "attr": {"value": {"tensor": {"dtype": "DT_FLOAT", "tensorShape": {"dim": [{"size": "8"}]}}}, "dtype": {"type": "DT_FLOAT"}}}, {"name": "model_213/tf.nn.convolution_15/convolution/filter", "op": "Const", "attr": {"value": {"tensor": {"dtype": "DT_FLOAT", "tensorShape": {"dim": [{"size": "3"}, {"size": "3"}, {"size": "8"}, {"size": "8"}]}}}, "dtype": {"type": "DT_FLOAT"}}}, {"name": "model_213/tf.math.add_19/Add/y", "op": "Const", "attr": {"value": {"tensor": {"dtype": "DT_FLOAT", "tensorShape": {"dim": [{"size": "8"}]}}}, "dtype": {"type": "DT_FLOAT"}}}, {"name": "model_213/tf.nn.convolution_16/convolution/filter", "op": "Const", "attr": {"value": {"tensor": {"dtype": "DT_FLOAT", "tensorShape": {"dim": [{"size": "3"}, {"size": "3"}, {"size": "8"}, {"size": "8"}]}}}, "dtype": {"type": "DT_FLOAT"}}}, {"name": "model_213/tf.math.add_20/Add/y", "op": "Const", "attr": {"value": {"tensor": {"dtype": "DT_FLOAT", "tensorShape": {"dim": [{"size": "8"}]}}}, "dtype": {"type": "DT_FLOAT"}}}, {"name": "model_213/tf.nn.convolution_17/convolution/filter", "op": "Const", "attr": {"value": {"tensor": {"dtype": "DT_FLOAT", "tensorShape": {"dim": [{"size": "3"}, {"size": "3"}, {"size": "8"}, {"size": "8"}]}}}, "dtype": {"type": "DT_FLOAT"}}}, {"name": "model_213/tf.math.add_23/Add/y", "op": "Const", "attr": {"value": {"tensor": {"dtype": "DT_FLOAT", "tensorShape": {"dim": [{"size": "8"}]}}}, "dtype": {"type": "DT_FLOAT"}}}, {"name": "model_213/tf.nn.convolution_18/convolution/filter", "op": "Const", "attr": {"value": {"tensor": {"dtype": "DT_FLOAT", "tensorShape": {"dim": [{"size": "3"}, {"size": "3"}, {"size": "8"}, {"size": "8"}]}}}, "dtype": {"type": "DT_FLOAT"}}}, {"name": "model_213/tf.math.add_24/Add/y", "op": "Const", "attr": {"value": {"tensor": {"dtype": "DT_FLOAT", "tensorShape": {"dim": [{"size": "8"}]}}}, "dtype": {"type": "DT_FLOAT"}}}, {"name": "model_213/tf.strided_slice_2/ones_like/tensor", "op": "Const", "attr": {"value": {"tensor": {"dtype": "DT_INT64", "tensorShape": {"dim": [{"size": "4"}]}}}, "dtype": {"type": "DT_INT64"}}}, {"name": "model_213/tf.strided_slice_2/StridedSlice/end", "op": "Const", "attr": {"value": {"tensor": {"dtype": "DT_INT64", "tensorShape": {"dim": [{"size": "4"}]}}}, "dtype": {"type": "DT_INT64"}}}, {"name": "model_213/tf.strided_slice_2/ones_like", "op": "Const", "attr": {"value": {"tensor": {"dtype": "DT_INT64", "tensorShape": {"dim": [{"size": "4"}]}}}, "dtype": {"type": "DT_INT64"}}}, {"name": "model_213/tf.strided_slice/ones_like/tensor", "op": "Const", "attr": {"value": {"tensor": {"dtype": "DT_INT64", "tensorShape": {"dim": [{"size": "4"}]}}}, "dtype": {"type": "DT_INT64"}}}, {"name": "model_213/tf.strided_slice/StridedSlice/end", "op": "Const", "attr": {"value": {"tensor": {"dtype": "DT_INT64", "tensorShape": {"dim": [{"size": "4"}]}}}, "dtype": {"type": "DT_INT64"}}}, {"name": "model_213/tf.strided_slice/ones_like", "op": "Const", "attr": {"value": {"tensor": {"dtype": "DT_INT64", "tensorShape": {"dim": [{"size": "4"}]}}}, "dtype": {"type": "DT_INT64"}}}, {"name": "model_213/tf.compat.v1.pad/Pad/paddings", "op": "Const", "attr": {"value": {"tensor": {"dtype": "DT_INT32", "tensorShape": {"dim": [{"size": "4"}, {"size": "2"}]}}}, "dtype": {"type": "DT_INT32"}}}, {"name": "model_213/tf.nn.convolution/convolution/filter", "op": "Const", "attr": {"value": {"tensor": {"dtype": "DT_FLOAT", "tensorShape": {"dim": [{"size": "3"}, {"size": "3"}, {"size": "3"}, {"size": "8"}]}}}, "dtype": {"type": "DT_FLOAT"}}}, {"name": "model_213/tf.math.add/Add/y", "op": "Const", "attr": {"value": {"tensor": {"dtype": "DT_FLOAT", "tensorShape": {"dim": [{"size": "8"}]}}}, "dtype": {"type": "DT_FLOAT"}}}, {"name": "model_213/tf.compat.v1.pad_1/Pad/paddings", "op": "Const", "attr": {"value": {"tensor": {"dtype": "DT_INT32", "tensorShape": {"dim": [{"size": "4"}, {"size": "2"}]}}}, "dtype": {"type": "DT_INT32"}}}, {"name": "model_213/tf.nn.convolution_1/convolution/filter", "op": "Const", "attr": {"value": {"tensor": {"dtype": "DT_FLOAT", "tensorShape": {"dim": [{"size": "3"}, {"size": "3"}, {"size": "8"}, {"size": "8"}]}}}, "dtype": {"type": "DT_FLOAT"}}}, {"name": "model_213/tf.math.add_1/Add/y", "op": "Const", "attr": {"value": {"tensor": {"dtype": "DT_FLOAT", "tensorShape": {"dim": [{"size": "8"}]}}}, "dtype": {"type": "DT_FLOAT"}}}, {"name": "model_213/tf.nn.convolution_2/convolution/filter", "op": "Const", "attr": {"value": {"tensor": {"dtype": "DT_FLOAT", "tensorShape": {"dim": [{"size": "1"}, {"size": "1"}, {"size": "8"}, {"size": "8"}]}}}, "dtype": {"type": "DT_FLOAT"}}}, {"name": "model_213/tf.math.add_2/Add/y", "op": "Const", "attr": {"value": {"tensor": {"dtype": "DT_FLOAT", "tensorShape": {"dim": [{"size": "8"}]}}}, "dtype": {"type": "DT_FLOAT"}}}, {"name": "model_213/tf.strided_slice_1/ones_like/tensor", "op": "Const", "attr": {"value": {"tensor": {"dtype": "DT_INT64", "tensorShape": {"dim": [{"size": "4"}]}}}, "dtype": {"type": "DT_INT64"}}}, {"name": "model_213/tf.strided_slice_1/StridedSlice/end", "op": "Const", "attr": {"value": {"tensor": {"dtype": "DT_INT64", "tensorShape": {"dim": [{"size": "4"}]}}}, "dtype": {"type": "DT_INT64"}}}, {"name": "model_213/tf.strided_slice_1/ones_like", "op": "Const", "attr": {"value": {"tensor": {"dtype": "DT_INT64", "tensorShape": {"dim": [{"size": "4"}]}}}, "dtype": {"type": "DT_INT64"}}}, {"name": "model_213/tf.nn.convolution_3/convolution/filter", "op": "Const", "attr": {"value": {"tensor": {"dtype": "DT_FLOAT", "tensorShape": {"dim": [{"size": "3"}, {"size": "3"}, {"size": "4"}, {"size": "2"}]}}}, "dtype": {"type": "DT_FLOAT"}}}, {"name": "model_213/tf.math.add_3/Add/y", "op": "Const", "attr": {"value": {"tensor": {"dtype": "DT_FLOAT", "tensorShape": {"dim": [{"size": "2"}]}}}, "dtype": {"type": "DT_FLOAT"}}}, {"name": "model_213/tf.nn.convolution_4/convolution/filter", "op": "Const", "attr": {"value": {"tensor": {"dtype": "DT_FLOAT", "tensorShape": {"dim": [{"size": "3"}, {"size": "3"}, {"size": "2"}, {"size": "4"}]}}}, "dtype": {"type": "DT_FLOAT"}}}, {"name": "model_213/tf.math.add_4/Add/y", "op": "Const", "attr": {"value": {"tensor": {"dtype": "DT_FLOAT", "tensorShape": {"dim": [{"size": "4"}]}}}, "dtype": {"type": "DT_FLOAT"}}}, {"name": "model_213/tf.concat/concat/axis", "op": "Const", "attr": {"value": {"tensor": {"dtype": "DT_INT32", "tensorShape": {}}}, "dtype": {"type": "DT_INT32"}}}, {"name": "model_213/tf.nn.convolution_5/convolution/filter", "op": "Const", "attr": {"value": {"tensor": {"dtype": "DT_FLOAT", "tensorShape": {"dim": [{"size": "1"}, {"size": "1"}, {"size": "12"}, {"size": "16"}]}}}, "dtype": {"type": "DT_FLOAT"}}}, {"name": "model_213/tf.math.add_7/Add/y", "op": "Const", "attr": {"value": {"tensor": {"dtype": "DT_FLOAT", "tensorShape": {"dim": [{"size": "16"}]}}}, "dtype": {"type": "DT_FLOAT"}}}, {"name": "model_213/tf.compat.v1.pad_2/Pad/paddings", "op": "Const", "attr": {"value": {"tensor": {"dtype": "DT_INT32", "tensorShape": {"dim": [{"size": "4"}, {"size": "2"}]}}}, "dtype": {"type": "DT_INT32"}}}, {"name": "model_213/tf.nn.convolution_6/convolution/filter", "op": "Const", "attr": {"value": {"tensor": {"dtype": "DT_FLOAT", "tensorShape": {"dim": [{"size": "3"}, {"size": "3"}, {"size": "16"}, {"size": "16"}]}}}, "dtype": {"type": "DT_FLOAT"}}}, {"name": "model_213/tf.math.add_8/Add/y", "op": "Const", "attr": {"value": {"tensor": {"dtype": "DT_FLOAT", "tensorShape": {"dim": [{"size": "16"}]}}}, "dtype": {"type": "DT_FLOAT"}}}, {"name": "model_213/tf.nn.convolution_7/convolution/filter", "op": "Const", "attr": {"value": {"tensor": {"dtype": "DT_FLOAT", "tensorShape": {"dim": [{"size": "1"}, {"size": "1"}, {"size": "16"}, {"size": "16"}]}}}, "dtype": {"type": "DT_FLOAT"}}}, {"name": "model_213/tf.math.add_9/Add/y", "op": "Const", "attr": {"value": {"tensor": {"dtype": "DT_FLOAT", "tensorShape": {"dim": [{"size": "16"}]}}}, "dtype": {"type": "DT_FLOAT"}}}, {"name": "model_213/tf.strided_slice_3/ones_like/tensor", "op": "Const", "attr": {"value": {"tensor": {"dtype": "DT_INT64", "tensorShape": {"dim": [{"size": "4"}]}}}, "dtype": {"type": "DT_INT64"}}}, {"name": "model_213/tf.strided_slice_3/StridedSlice/end", "op": "Const", "attr": {"value": {"tensor": {"dtype": "DT_INT64", "tensorShape": {"dim": [{"size": "4"}]}}}, "dtype": {"type": "DT_INT64"}}}, {"name": "model_213/tf.strided_slice_3/ones_like", "op": "Const", "attr": {"value": {"tensor": {"dtype": "DT_INT64", "tensorShape": {"dim": [{"size": "4"}]}}}, "dtype": {"type": "DT_INT64"}}}, {"name": "model_213/tf.nn.convolution_8/convolution/filter", "op": "Const", "attr": {"value": {"tensor": {"dtype": "DT_FLOAT", "tensorShape": {"dim": [{"size": "3"}, {"size": "3"}, {"size": "8"}, {"size": "4"}]}}}, "dtype": {"type": "DT_FLOAT"}}}, {"name": "model_213/tf.math.add_10/Add/y", "op": "Const", "attr": {"value": {"tensor": {"dtype": "DT_FLOAT", "tensorShape": {"dim": [{"size": "4"}]}}}, "dtype": {"type": "DT_FLOAT"}}}, {"name": "model_213/tf.nn.convolution_9/convolution/filter", "op": "Const", "attr": {"value": {"tensor": {"dtype": "DT_FLOAT", "tensorShape": {"dim": [{"size": "3"}, {"size": "3"}, {"size": "4"}, {"size": "8"}]}}}, "dtype": {"type": "DT_FLOAT"}}}, {"name": "model_213/tf.math.add_11/Add/y", "op": "Const", "attr": {"value": {"tensor": {"dtype": "DT_FLOAT", "tensorShape": {"dim": [{"size": "8"}]}}}, "dtype": {"type": "DT_FLOAT"}}}, {"name": "model_213/tf.concat_1/concat/axis", "op": "Const", "attr": {"value": {"tensor": {"dtype": "DT_INT32", "tensorShape": {}}}, "dtype": {"type": "DT_INT32"}}}, {"name": "model_213/tf.nn.convolution_10/convolution/filter", "op": "Const", "attr": {"value": {"tensor": {"dtype": "DT_FLOAT", "tensorShape": {"dim": [{"size": "1"}, {"size": "1"}, {"size": "24"}, {"size": "32"}]}}}, "dtype": {"type": "DT_FLOAT"}}}, {"name": "model_213/tf.math.add_14/Add/y", "op": "Const", "attr": {"value": {"tensor": {"dtype": "DT_FLOAT", "tensorShape": {"dim": [{"size": "32"}]}}}, "dtype": {"type": "DT_FLOAT"}}}, {"name": "model_213/tf.compat.v1.pad_3/Pad/paddings", "op": "Const", "attr": {"value": {"tensor": {"dtype": "DT_INT32", "tensorShape": {"dim": [{"size": "4"}, {"size": "2"}]}}}, "dtype": {"type": "DT_INT32"}}}, {"name": "model_213/tf.nn.convolution_11/convolution/filter", "op": "Const", "attr": {"value": {"tensor": {"dtype": "DT_FLOAT", "tensorShape": {"dim": [{"size": "3"}, {"size": "3"}, {"size": "32"}, {"size": "32"}]}}}, "dtype": {"type": "DT_FLOAT"}}}, {"name": "model_213/tf.math.add_15/Add/y", "op": "Const", "attr": {"value": {"tensor": {"dtype": "DT_FLOAT", "tensorShape": {"dim": [{"size": "32"}]}}}, "dtype": {"type": "DT_FLOAT"}}}, {"name": "model_213/tf.nn.convolution_12/convolution/filter", "op": "Const", "attr": {"value": {"tensor": {"dtype": "DT_FLOAT", "tensorShape": {"dim": [{"size": "1"}, {"size": "1"}, {"size": "32"}, {"size": "32"}]}}}, "dtype": {"type": "DT_FLOAT"}}}, {"name": "model_213/tf.math.add_16/Add/y", "op": "Const", "attr": {"value": {"tensor": {"dtype": "DT_FLOAT", "tensorShape": {"dim": [{"size": "32"}]}}}, "dtype": {"type": "DT_FLOAT"}}}, {"name": "model_213/tf.strided_slice_5/ones_like/tensor", "op": "Const", "attr": {"value": {"tensor": {"dtype": "DT_INT64", "tensorShape": {"dim": [{"size": "4"}]}}}, "dtype": {"type": "DT_INT64"}}}, {"name": "model_213/tf.strided_slice_5/StridedSlice/end", "op": "Const", "attr": {"value": {"tensor": {"dtype": "DT_INT64", "tensorShape": {"dim": [{"size": "4"}]}}}, "dtype": {"type": "DT_INT64"}}}, {"name": "model_213/tf.strided_slice_5/ones_like", "op": "Const", "attr": {"value": {"tensor": {"dtype": "DT_INT64", "tensorShape": {"dim": [{"size": "4"}]}}}, "dtype": {"type": "DT_INT64"}}}, {"name": "model_213/tf.nn.convolution_14/convolution/filter", "op": "Const", "attr": {"value": {"tensor": {"dtype": "DT_FLOAT", "tensorShape": {"dim": [{"size": "1"}, {"size": "1"}, {"size": "16"}, {"size": "8"}]}}}, "dtype": {"type": "DT_FLOAT"}}}, {"name": "model_213/tf.math.add_18/Add/y", "op": "Const", "attr": {"value": {"tensor": {"dtype": "DT_FLOAT", "tensorShape": {"dim": [{"size": "8"}]}}}, "dtype": {"type": "DT_FLOAT"}}}, {"name": "model_213/tf.concat_2/concat/axis", "op": "Const", "attr": {"value": {"tensor": {"dtype": "DT_INT32", "tensorShape": {}}}, "dtype": {"type": "DT_INT32"}}}, {"name": "model_213/tf.nn.convolution_19/convolution/filter", "op": "Const", "attr": {"value": {"tensor": {"dtype": "DT_FLOAT", "tensorShape": {"dim": [{"size": "1"}, {"size": "1"}, {"size": "16"}, {"size": "16"}]}}}, "dtype": {"type": "DT_FLOAT"}}}, {"name": "model_213/tf.math.add_27/Add/y", "op": "Const", "attr": {"value": {"tensor": {"dtype": "DT_FLOAT", "tensorShape": {"dim": [{"size": "16"}]}}}, "dtype": {"type": "DT_FLOAT"}}}, {"name": "model_213/tf.concat_3/concat/axis", "op": "Const", "attr": {"value": {"tensor": {"dtype": "DT_INT32", "tensorShape": {}}}, "dtype": {"type": "DT_INT32"}}}, {"name": "model_213/tf.nn.convolution_20/convolution/filter", "op": "Const", "attr": {"value": {"tensor": {"dtype": "DT_FLOAT", "tensorShape": {"dim": [{"size": "1"}, {"size": "1"}, {"size": "48"}, {"size": "32"}]}}}, "dtype": {"type": "DT_FLOAT"}}}, {"name": "model_213/tf.math.add_28/Add/y", "op": "Const", "attr": {"value": {"tensor": {"dtype": "DT_FLOAT", "tensorShape": {"dim": [{"size": "32"}]}}}, "dtype": {"type": "DT_FLOAT"}}}, {"name": "model_213/tf.compat.v1.pad_4/Pad/paddings", "op": "Const", "attr": {"value": {"tensor": {"dtype": "DT_INT32", "tensorShape": {"dim": [{"size": "4"}, {"size": "2"}]}}}, "dtype": {"type": "DT_INT32"}}}, {"name": "model_213/tf.nn.convolution_21/convolution/filter", "op": "Const", "attr": {"value": {"tensor": {"dtype": "DT_FLOAT", "tensorShape": {"dim": [{"size": "3"}, {"size": "3"}, {"size": "32"}, {"size": "64"}]}}}, "dtype": {"type": "DT_FLOAT"}}}, {"name": "model_213/tf.math.add_29/Add/y", "op": "Const", "attr": {"value": {"tensor": {"dtype": "DT_FLOAT", "tensorShape": {"dim": [{"size": "64"}]}}}, "dtype": {"type": "DT_FLOAT"}}}, {"name": "model_213/tf.nn.convolution_22/convolution/filter", "op": "Const", "attr": {"value": {"tensor": {"dtype": "DT_FLOAT", "tensorShape": {"dim": [{"size": "1"}, {"size": "1"}, {"size": "64"}, {"size": "64"}]}}}, "dtype": {"type": "DT_FLOAT"}}}, {"name": "model_213/tf.math.add_30/Add/y", "op": "Const", "attr": {"value": {"tensor": {"dtype": "DT_FLOAT", "tensorShape": {"dim": [{"size": "64"}]}}}, "dtype": {"type": "DT_FLOAT"}}}, {"name": "model_213/tf.strided_slice_7/ones_like/tensor", "op": "Const", "attr": {"value": {"tensor": {"dtype": "DT_INT64", "tensorShape": {"dim": [{"size": "4"}]}}}, "dtype": {"type": "DT_INT64"}}}, {"name": "model_213/tf.strided_slice_7/StridedSlice/end", "op": "Const", "attr": {"value": {"tensor": {"dtype": "DT_INT64", "tensorShape": {"dim": [{"size": "4"}]}}}, "dtype": {"type": "DT_INT64"}}}, {"name": "model_213/tf.strided_slice_7/ones_like", "op": "Const", "attr": {"value": {"tensor": {"dtype": "DT_INT64", "tensorShape": {"dim": [{"size": "4"}]}}}, "dtype": {"type": "DT_INT64"}}}, {"name": "model_213/tf.nn.convolution_24/convolution/filter", "op": "Const", "attr": {"value": {"tensor": {"dtype": "DT_FLOAT", "tensorShape": {"dim": [{"size": "1"}, {"size": "1"}, {"size": "32"}, {"size": "16"}]}}}, "dtype": {"type": "DT_FLOAT"}}}, {"name": "model_213/tf.math.add_32/Add/y", "op": "Const", "attr": {"value": {"tensor": {"dtype": "DT_FLOAT", "tensorShape": {"dim": [{"size": "16"}]}}}, "dtype": {"type": "DT_FLOAT"}}}, {"name": "model_213/tf.concat_4/concat/axis", "op": "Const", "attr": {"value": {"tensor": {"dtype": "DT_INT32", "tensorShape": {}}}, "dtype": {"type": "DT_INT32"}}}, {"name": "model_213/tf.nn.convolution_29/convolution/filter", "op": "Const", "attr": {"value": {"tensor": {"dtype": "DT_FLOAT", "tensorShape": {"dim": [{"size": "1"}, {"size": "1"}, {"size": "32"}, {"size": "32"}]}}}, "dtype": {"type": "DT_FLOAT"}}}, {"name": "model_213/tf.math.add_41/Add/y", "op": "Const", "attr": {"value": {"tensor": {"dtype": "DT_FLOAT", "tensorShape": {"dim": [{"size": "32"}]}}}, "dtype": {"type": "DT_FLOAT"}}}, {"name": "model_213/tf.concat_5/concat/axis", "op": "Const", "attr": {"value": {"tensor": {"dtype": "DT_INT32", "tensorShape": {}}}, "dtype": {"type": "DT_INT32"}}}, {"name": "model_213/tf.nn.convolution_30/convolution/filter", "op": "Const", "attr": {"value": {"tensor": {"dtype": "DT_FLOAT", "tensorShape": {"dim": [{"size": "1"}, {"size": "1"}, {"size": "96"}, {"size": "64"}]}}}, "dtype": {"type": "DT_FLOAT"}}}, {"name": "model_213/tf.math.add_42/Add/y", "op": "Const", "attr": {"value": {"tensor": {"dtype": "DT_FLOAT", "tensorShape": {"dim": [{"size": "64"}]}}}, "dtype": {"type": "DT_FLOAT"}}}, {"name": "model_213/tf.nn.convolution_33/convolution/filter", "op": "Const", "attr": {"value": {"tensor": {"dtype": "DT_FLOAT", "tensorShape": {"dim": [{"size": "1"}, {"size": "1"}, {"size": "64"}, {"size": "128"}]}}}, "dtype": {"type": "DT_FLOAT"}}}, {"name": "model_213/tf.math.add_47/Add/y", "op": "Const", "attr": {"value": {"tensor": {"dtype": "DT_FLOAT", "tensorShape": {"dim": [{"size": "128"}]}}}, "dtype": {"type": "DT_FLOAT"}}}, {"name": "model_213/tf.strided_slice_9/StridedSlice/begin", "op": "Const", "attr": {"value": {"tensor": {"dtype": "DT_INT32", "tensorShape": {"dim": [{"size": "4"}]}}}, "dtype": {"type": "DT_INT32"}}}, {"name": "model_213/tf.strided_slice_9/StridedSlice/end", "op": "Const", "attr": {"value": {"tensor": {"dtype": "DT_INT32", "tensorShape": {"dim": [{"size": "4"}]}}}, "dtype": {"type": "DT_INT32"}}}, {"name": "model_213/tf.strided_slice_9/ones_like", "op": "Const", "attr": {"value": {"tensor": {"dtype": "DT_INT32", "tensorShape": {"dim": [{"size": "4"}]}}}, "dtype": {"type": "DT_INT32"}}}, {"name": "model_213/tf.nn.convolution_34/convolution/filter", "op": "Const", "attr": {"value": {"tensor": {"dtype": "DT_FLOAT", "tensorShape": {"dim": [{"size": "1"}, {"size": "1"}, {"size": "64"}, {"size": "128"}]}}}, "dtype": {"type": "DT_FLOAT"}}}, {"name": "model_213/tf.math.add_48/Add/y", "op": "Const", "attr": {"value": {"tensor": {"dtype": "DT_FLOAT", "tensorShape": {"dim": [{"size": "128"}]}}}, "dtype": {"type": "DT_FLOAT"}}}, {"name": "model_213/tf.compat.v1.transpose_42/transpose/perm", "op": "Const", "attr": {"value": {"tensor": {"dtype": "DT_INT32", "tensorShape": {"dim": [{"size": "4"}]}}}, "dtype": {"type": "DT_INT32"}}}, {"name": "model_213/tf.reshape_2/Reshape/shape", "op": "Const", "attr": {"value": {"tensor": {"dtype": "DT_INT32", "tensorShape": {"dim": [{"size": "4"}]}}}, "dtype": {"type": "DT_INT32"}}}, {"name": "model_213/tf.strided_slice_12/StridedSlice/begin", "op": "Const", "attr": {"value": {"tensor": {"dtype": "DT_INT32", "tensorShape": {"dim": [{"size": "4"}]}}}, "dtype": {"type": "DT_INT32"}}}, {"name": "model_213/tf.strided_slice_12/StridedSlice/end", "op": "Const", "attr": {"value": {"tensor": {"dtype": "DT_INT32", "tensorShape": {"dim": [{"size": "4"}]}}}, "dtype": {"type": "DT_INT32"}}}, {"name": "model_213/tf.strided_slice_12/ones_like", "op": "Const", "attr": {"value": {"tensor": {"dtype": "DT_INT32", "tensorShape": {"dim": [{"size": "4"}]}}}, "dtype": {"type": "DT_INT32"}}}, {"name": "model_213/tf.reshape_5/Reshape/shape", "op": "Const", "attr": {"value": {"tensor": {"dtype": "DT_INT32", "tensorShape": {"dim": [{"size": "4"}]}}}, "dtype": {"type": "DT_INT32"}}}, {"name": "model_213/tf.compat.v1.transpose_94/transpose/perm", "op": "Const", "attr": {"value": {"tensor": {"dtype": "DT_INT32", "tensorShape": {"dim": [{"size": "4"}]}}}, "dtype": {"type": "DT_INT32"}}}, {"name": "model_213/tf.nn.convolution_98/convolution/filter", "op": "Const", "attr": {"value": {"tensor": {"dtype": "DT_FLOAT", "tensorShape": {"dim": [{"size": "3"}, {"size": "3"}, {"size": "1"}, {"size": "1"}]}}}, "dtype": {"type": "DT_FLOAT"}}}, {"name": "model_213/tf.concat_7/concat/axis", "op": "Const", "attr": {"value": {"tensor": {"dtype": "DT_INT32", "tensorShape": {}}}, "dtype": {"type": "DT_INT32"}}}, {"name": "model_213/tf.nn.convolution_99/convolution/filter", "op": "Const", "attr": {"value": {"tensor": {"dtype": "DT_FLOAT", "tensorShape": {"dim": [{"size": "1"}, {"size": "1"}, {"size": "64"}, {"size": "64"}]}}}, "dtype": {"type": "DT_FLOAT"}}}, {"name": "model_213/tf.math.add_52/Add/y", "op": "Const", "attr": {"value": {"tensor": {"dtype": "DT_FLOAT", "tensorShape": {"dim": [{"size": "64"}]}}}, "dtype": {"type": "DT_FLOAT"}}}, {"name": "model_213/tf.nn.convolution_100/convolution/filter", "op": "Const", "attr": {"value": {"tensor": {"dtype": "DT_FLOAT", "tensorShape": {"dim": [{"size": "1"}, {"size": "1"}, {"size": "64"}, {"size": "128"}]}}}, "dtype": {"type": "DT_FLOAT"}}}, {"name": "model_213/tf.math.add_55/Add/y", "op": "Const", "attr": {"value": {"tensor": {"dtype": "DT_FLOAT", "tensorShape": {"dim": [{"size": "128"}]}}}, "dtype": {"type": "DT_FLOAT"}}}, {"name": "model_213/tf.nn.convolution_101/convolution/filter", "op": "Const", "attr": {"value": {"tensor": {"dtype": "DT_FLOAT", "tensorShape": {"dim": [{"size": "1"}, {"size": "1"}, {"size": "128"}, {"size": "64"}]}}}, "dtype": {"type": "DT_FLOAT"}}}, {"name": "model_213/tf.concat_8/concat/axis", "op": "Const", "attr": {"value": {"tensor": {"dtype": "DT_INT32", "tensorShape": {}}}, "dtype": {"type": "DT_INT32"}}}, {"name": "model_213/tf.nn.convolution_102/convolution/filter", "op": "Const", "attr": {"value": {"tensor": {"dtype": "DT_FLOAT", "tensorShape": {"dim": [{"size": "1"}, {"size": "1"}, {"size": "128"}, {"size": "64"}]}}}, "dtype": {"type": "DT_FLOAT"}}}, {"name": "model_213/tf.math.add_59/Add/y", "op": "Const", "attr": {"value": {"tensor": {"dtype": "DT_FLOAT", "tensorShape": {"dim": [{"size": "64"}]}}}, "dtype": {"type": "DT_FLOAT"}}}, {"name": "model_213/tf.concat_18/concat/axis", "op": "Const", "attr": {"value": {"tensor": {"dtype": "DT_INT32", "tensorShape": {}}}, "dtype": {"type": "DT_INT32"}}}, {"name": "model_213/tf.nn.convolution_141/convolution/filter", "op": "Const", "attr": {"value": {"tensor": {"dtype": "DT_FLOAT", "tensorShape": {"dim": [{"size": "1"}, {"size": "1"}, {"size": "192"}, {"size": "256"}]}}}, "dtype": {"type": "DT_FLOAT"}}}, {"name": "model_213/tf.math.add_113/Add/y", "op": "Const", "attr": {"value": {"tensor": {"dtype": "DT_FLOAT", "tensorShape": {"dim": [{"size": "256"}]}}}, "dtype": {"type": "DT_FLOAT"}}}, {"name": "model_213/tf.strided_slice_20/ones_like/tensor", "op": "Const", "attr": {"value": {"tensor": {"dtype": "DT_INT64", "tensorShape": {"dim": [{"size": "4"}]}}}, "dtype": {"type": "DT_INT64"}}}, {"name": "model_213/tf.strided_slice_20/StridedSlice/end", "op": "Const", "attr": {"value": {"tensor": {"dtype": "DT_INT64", "tensorShape": {"dim": [{"size": "4"}]}}}, "dtype": {"type": "DT_INT64"}}}, {"name": "model_213/tf.strided_slice_20/ones_like", "op": "Const", "attr": {"value": {"tensor": {"dtype": "DT_INT64", "tensorShape": {"dim": [{"size": "4"}]}}}, "dtype": {"type": "DT_INT64"}}}, {"name": "model_213/tf.nn.convolution_143/convolution/filter", "op": "Const", "attr": {"value": {"tensor": {"dtype": "DT_FLOAT", "tensorShape": {"dim": [{"size": "3"}, {"size": "3"}, {"size": "128"}, {"size": "64"}]}}}, "dtype": {"type": "DT_FLOAT"}}}, {"name": "model_213/tf.math.add_116/Add/y", "op": "Const", "attr": {"value": {"tensor": {"dtype": "DT_FLOAT", "tensorShape": {"dim": [{"size": "64"}]}}}, "dtype": {"type": "DT_FLOAT"}}}, {"name": "model_213/tf.nn.convolution_145/convolution/filter", "op": "Const", "attr": {"value": {"tensor": {"dtype": "DT_FLOAT", "tensorShape": {"dim": [{"size": "3"}, {"size": "3"}, {"size": "64"}, {"size": "128"}]}}}, "dtype": {"type": "DT_FLOAT"}}}, {"name": "model_213/tf.math.add_118/Add/y", "op": "Const", "attr": {"value": {"tensor": {"dtype": "DT_FLOAT", "tensorShape": {"dim": [{"size": "128"}]}}}, "dtype": {"type": "DT_FLOAT"}}}, {"name": "model_213/tf.nn.convolution_147/convolution/filter", "op": "Const", "attr": {"value": {"tensor": {"dtype": "DT_FLOAT", "tensorShape": {"dim": [{"size": "1"}, {"size": "1"}, {"size": "128"}, {"size": "256"}]}}}, "dtype": {"type": "DT_FLOAT"}}}, {"name": "model_213/tf.math.add_122/Add/y", "op": "Const", "attr": {"value": {"tensor": {"dtype": "DT_FLOAT", "tensorShape": {"dim": [{"size": "256"}]}}}, "dtype": {"type": "DT_FLOAT"}}}, {"name": "model_213/tf.compat.v1.transpose_297/transpose/perm", "op": "Const", "attr": {"value": {"tensor": {"dtype": "DT_INT32", "tensorShape": {"dim": [{"size": "4"}]}}}, "dtype": {"type": "DT_INT32"}}}, {"name": "model_213/tf.reshape_46/Reshape/shape", "op": "Const", "attr": {"value": {"tensor": {"dtype": "DT_INT32", "tensorShape": {"dim": [{"size": "4"}]}}}, "dtype": {"type": "DT_INT32"}}}, {"name": "model_213/tf.strided_slice_23/StridedSlice/begin", "op": "Const", "attr": {"value": {"tensor": {"dtype": "DT_INT32", "tensorShape": {"dim": [{"size": "4"}]}}}, "dtype": {"type": "DT_INT32"}}}, {"name": "model_213/tf.strided_slice_23/StridedSlice/end", "op": "Const", "attr": {"value": {"tensor": {"dtype": "DT_INT32", "tensorShape": {"dim": [{"size": "4"}]}}}, "dtype": {"type": "DT_INT32"}}}, {"name": "model_213/tf.strided_slice_23/ones_like", "op": "Const", "attr": {"value": {"tensor": {"dtype": "DT_INT32", "tensorShape": {"dim": [{"size": "4"}]}}}, "dtype": {"type": "DT_INT32"}}}, {"name": "model_213/tf.reshape_49/Reshape/shape", "op": "Const", "attr": {"value": {"tensor": {"dtype": "DT_INT32", "tensorShape": {"dim": [{"size": "4"}]}}}, "dtype": {"type": "DT_INT32"}}}, {"name": "model_213/tf.compat.v1.transpose_313/transpose/perm", "op": "Const", "attr": {"value": {"tensor": {"dtype": "DT_INT32", "tensorShape": {"dim": [{"size": "4"}]}}}, "dtype": {"type": "DT_INT32"}}}, {"name": "model_213/tf.nn.convolution_275/convolution/filter", "op": "Const", "attr": {"value": {"tensor": {"dtype": "DT_FLOAT", "tensorShape": {"dim": [{"size": "3"}, {"size": "3"}, {"size": "1"}, {"size": "1"}]}}}, "dtype": {"type": "DT_FLOAT"}}}, {"name": "model_213/tf.concat_19/concat/axis", "op": "Const", "attr": {"value": {"tensor": {"dtype": "DT_INT32", "tensorShape": {}}}, "dtype": {"type": "DT_INT32"}}}, {"name": "model_213/tf.nn.convolution_276/convolution/filter", "op": "Const", "attr": {"value": {"tensor": {"dtype": "DT_FLOAT", "tensorShape": {"dim": [{"size": "1"}, {"size": "1"}, {"size": "128"}, {"size": "128"}]}}}, "dtype": {"type": "DT_FLOAT"}}}, {"name": "model_213/tf.nn.convolution_277/convolution/filter", "op": "Const", "attr": {"value": {"tensor": {"dtype": "DT_FLOAT", "tensorShape": {"dim": [{"size": "1"}, {"size": "1"}, {"size": "128"}, {"size": "256"}]}}}, "dtype": {"type": "DT_FLOAT"}}}, {"name": "model_213/tf.math.add_129/Add/y", "op": "Const", "attr": {"value": {"tensor": {"dtype": "DT_FLOAT", "tensorShape": {"dim": [{"size": "256"}]}}}, "dtype": {"type": "DT_FLOAT"}}}, {"name": "model_213/tf.nn.convolution_278/convolution/filter", "op": "Const", "attr": {"value": {"tensor": {"dtype": "DT_FLOAT", "tensorShape": {"dim": [{"size": "1"}, {"size": "1"}, {"size": "256"}, {"size": "128"}]}}}, "dtype": {"type": "DT_FLOAT"}}}, {"name": "model_213/tf.concat_20/concat/axis", "op": "Const", "attr": {"value": {"tensor": {"dtype": "DT_INT32", "tensorShape": {}}}, "dtype": {"type": "DT_INT32"}}}, {"name": "model_213/tf.nn.convolution_279/convolution/filter", "op": "Const", "attr": {"value": {"tensor": {"dtype": "DT_FLOAT", "tensorShape": {"dim": [{"size": "1"}, {"size": "1"}, {"size": "384"}, {"size": "256"}]}}}, "dtype": {"type": "DT_FLOAT"}}}, {"name": "model_213/tf.math.add_133/Add/y", "op": "Const", "attr": {"value": {"tensor": {"dtype": "DT_FLOAT", "tensorShape": {"dim": [{"size": "256"}]}}}, "dtype": {"type": "DT_FLOAT"}}}, {"name": "model_213/tf.compat.v1.nn.depthwise_conv2d_4/depthwise/filter_in", "op": "Const", "attr": {"value": {"tensor": {"dtype": "DT_FLOAT", "tensorShape": {"dim": [{"size": "3"}, {"size": "3"}, {"size": "256"}, {"size": "1"}]}}}, "dtype": {"type": "DT_FLOAT"}}}, {"name": "model_213/tf.math.add_135/Add/y", "op": "Const", "attr": {"value": {"tensor": {"dtype": "DT_FLOAT", "tensorShape": {"dim": [{"size": "256"}]}}}, "dtype": {"type": "DT_FLOAT"}}}, {"name": "model_213/tf.nn.convolution_282/convolution/filter", "op": "Const", "attr": {"value": {"tensor": {"dtype": "DT_FLOAT", "tensorShape": {"dim": [{"size": "1"}, {"size": "1"}, {"size": "256"}, {"size": "64"}]}}}, "dtype": {"type": "DT_FLOAT"}}}, {"name": "model_213/tf.math.add_137/Add/y", "op": "Const", "attr": {"value": {"tensor": {"dtype": "DT_FLOAT", "tensorShape": {"dim": [{"size": "64"}]}}}, "dtype": {"type": "DT_FLOAT"}}}, {"name": "model_213/tf.compat.v1.nn.depthwise_conv2d_5/depthwise/filter_in", "op": "Const", "attr": {"value": {"tensor": {"dtype": "DT_FLOAT", "tensorShape": {"dim": [{"size": "3"}, {"size": "3"}, {"size": "64"}, {"size": "1"}]}}}, "dtype": {"type": "DT_FLOAT"}}}, {"name": "model_213/tf.math.add_139/Add/y", "op": "Const", "attr": {"value": {"tensor": {"dtype": "DT_FLOAT", "tensorShape": {"dim": [{"size": "64"}]}}}, "dtype": {"type": "DT_FLOAT"}}}, {"name": "model_213/tf.nn.convolution_284/convolution/filter", "op": "Const", "attr": {"value": {"tensor": {"dtype": "DT_FLOAT", "tensorShape": {"dim": [{"size": "1"}, {"size": "1"}, {"size": "64"}, {"size": "64"}]}}}, "dtype": {"type": "DT_FLOAT"}}}, {"name": "model_213/tf.math.add_140/Add/y", "op": "Const", "attr": {"value": {"tensor": {"dtype": "DT_FLOAT", "tensorShape": {"dim": [{"size": "64"}]}}}, "dtype": {"type": "DT_FLOAT"}}}, {"name": "model_213/tf.nn.convolution_286/convolution/filter", "op": "Const", "attr": {"value": {"tensor": {"dtype": "DT_FLOAT", "tensorShape": {"dim": [{"size": "1"}, {"size": "1"}, {"size": "64"}, {"size": "59"}]}}}, "dtype": {"type": "DT_FLOAT"}}}, {"name": "model_213/tf.math.add_141/Add/y", "op": "Const", "attr": {"value": {"tensor": {"dtype": "DT_FLOAT", "tensorShape": {"dim": [{"size": "59"}]}}}, "dtype": {"type": "DT_FLOAT"}}}, {"name": "model_213/tf.compat.v1.transpose_416/transpose/perm", "op": "Const", "attr": {"value": {"tensor": {"dtype": "DT_INT32", "tensorShape": {"dim": [{"size": "4"}]}}}, "dtype": {"type": "DT_INT32"}}}, {"name": "model_213/tf.reshape_110/Reshape/shape", "op": "Const", "attr": {"value": {"tensor": {"dtype": "DT_INT32", "tensorShape": {"dim": [{"size": "3"}]}}}, "dtype": {"type": "DT_INT32"}}}, {"name": "model_213/tf.concat_22/concat/axis", "op": "Const", "attr": {"value": {"tensor": {"dtype": "DT_INT32", "tensorShape": {}}}, "dtype": {"type": "DT_INT32"}}}, {"name": "model_213/output0/concat/axis", "op": "Const", "attr": {"value": {"tensor": {"dtype": "DT_INT32", "tensorShape": {}}}, "dtype": {"type": "DT_INT32"}}}, {"name": "x", "op": "Placeholder", "attr": {"shape": {"shape": {"dim": [{"size": "1"}, {"size": "640"}, {"size": "640"}, {"size": "3"}]}}, "dtype": {"type": "DT_FLOAT"}}}, {"name": "model_213/tf.compat.v1.pad/Pad", "op": "Pad", "input": ["x", "model_213/tf.compat.v1.pad/Pad/paddings"], "attr": {"Tpaddings": {"type": "DT_INT32"}, "T": {"type": "DT_FLOAT"}}}, {"name": "model_213/tf.math.add/Add", "op": "_FusedConv2D", "input": ["model_213/tf.compat.v1.pad/Pad", "model_213/tf.nn.convolution/convolution/filter", "model_213/tf.math.add/Add/y"], "device": "/device:CPU:0", "attr": {"num_host_args": {"i": "0"}, "data_format": {"s": "TkhXQw=="}, "filter_format": {"s": "SFdJTw=="}, "fused_ops": {"list": {"s": ["Qmlhc0FkZA=="]}}, "num_args": {"i": "1"}, "strides": {"list": {"i": ["1", "2", "2", "1"]}}, "TArgs": {"list": {"type": ["DT_FLOAT"]}}, "padding": {"s": "VkFMSUQ="}, "use_cudnn_on_gpu": {"b": true}, "leakyrelu_alpha": {"f": 0.2}, "epsilon": {"f": 0.0}, "T": {"type": "DT_FLOAT"}, "explicit_paddings": {"list": {}}, "dilations": {"list": {"i": ["1", "1", "1", "1"]}}}}, {"name": "model_213/tf.math.sigmoid/Sigmoid", "op": "Sigmoid", "input": ["model_213/tf.math.add/Add"], "attr": {"T": {"type": "DT_FLOAT"}}}, {"name": "model_213/tf.math.multiply_3/Mul", "op": "Mul", "input": ["model_213/tf.math.add/Add", "model_213/tf.math.sigmoid/Sigmoid"], "attr": {"T": {"type": "DT_FLOAT"}}}, {"name": "model_213/tf.compat.v1.pad_1/Pad", "op": "Pad", "input": ["model_213/tf.math.multiply_3/Mul", "model_213/tf.compat.v1.pad_1/Pad/paddings"], "attr": {"Tpaddings": {"type": "DT_INT32"}, "T": {"type": "DT_FLOAT"}}}, {"name": "model_213/tf.math.add_1/Add", "op": "_FusedConv2D", "input": ["model_213/tf.compat.v1.pad_1/Pad", "model_213/tf.nn.convolution_1/convolution/filter", "model_213/tf.math.add_1/Add/y"], "device": "/device:CPU:0", "attr": {"num_host_args": {"i": "0"}, "data_format": {"s": "TkhXQw=="}, "filter_format": {"s": "SFdJTw=="}, "strides": {"list": {"i": ["1", "2", "2", "1"]}}, "num_args": {"i": "1"}, "fused_ops": {"list": {"s": ["Qmlhc0FkZA=="]}}, "TArgs": {"list": {"type": ["DT_FLOAT"]}}, "padding": {"s": "VkFMSUQ="}, "use_cudnn_on_gpu": {"b": true}, "leakyrelu_alpha": {"f": 0.2}, "epsilon": {"f": 0.0}, "T": {"type": "DT_FLOAT"}, "explicit_paddings": {"list": {}}, "dilations": {"list": {"i": ["1", "1", "1", "1"]}}}}, {"name": "model_213/tf.math.sigmoid_1/Sigmoid", "op": "Sigmoid", "input": ["model_213/tf.math.add_1/Add"], "attr": {"T": {"type": "DT_FLOAT"}}}, {"name": "model_213/tf.math.multiply_7/Mul", "op": "Mul", "input": ["model_213/tf.math.add_1/Add", "model_213/tf.math.sigmoid_1/Sigmoid"], "attr": {"T": {"type": "DT_FLOAT"}}}, {"name": "model_213/tf.math.add_2/Add", "op": "_FusedConv2D", "input": ["model_213/tf.math.multiply_7/Mul", "model_213/tf.nn.convolution_2/convolution/filter", "model_213/tf.math.add_2/Add/y"], "device": "/device:CPU:0", "attr": {"num_host_args": {"i": "0"}, "data_format": {"s": "TkhXQw=="}, "filter_format": {"s": "SFdJTw=="}, "fused_ops": {"list": {"s": ["Qmlhc0FkZA=="]}}, "num_args": {"i": "1"}, "strides": {"list": {"i": ["1", "1", "1", "1"]}}, "TArgs": {"list": {"type": ["DT_FLOAT"]}}, "padding": {"s": "U0FNRQ=="}, "use_cudnn_on_gpu": {"b": true}, "leakyrelu_alpha": {"f": 0.2}, "epsilon": {"f": 0.0}, "T": {"type": "DT_FLOAT"}, "explicit_paddings": {"list": {}}, "dilations": {"list": {"i": ["1", "1", "1", "1"]}}}}, {"name": "model_213/tf.math.sigmoid_2/Sigmoid", "op": "Sigmoid", "input": ["model_213/tf.math.add_2/Add"], "attr": {"T": {"type": "DT_FLOAT"}}}, {"name": "model_213/tf.math.multiply_11/Mul", "op": "Mul", "input": ["model_213/tf.math.add_2/Add", "model_213/tf.math.sigmoid_2/Sigmoid"], "attr": {"T": {"type": "DT_FLOAT"}}}, {"name": "model_213/tf.strided_slice/StridedSlice", "op": "StridedSlice", "input": ["model_213/tf.math.multiply_11/Mul", "model_213/tf.strided_slice/ones_like/tensor", "model_213/tf.strided_slice/StridedSlice/end", "model_213/tf.strided_slice/ones_like"], "attr": {"shrink_axis_mask": {"i": "0"}, "new_axis_mask": {"i": "0"}, "Index": {"type": "DT_INT64"}, "begin_mask": {"i": "15"}, "T": {"type": "DT_FLOAT"}, "end_mask": {"i": "7"}, "ellipsis_mask": {"i": "0"}}}, {"name": "model_213/tf.strided_slice_1/StridedSlice", "op": "StridedSlice", "input": ["model_213/tf.math.multiply_11/Mul", "model_213/tf.strided_slice_1/ones_like/tensor", "model_213/tf.strided_slice_1/StridedSlice/end", "model_213/tf.strided_slice_1/ones_like"], "attr": {"shrink_axis_mask": {"i": "0"}, "new_axis_mask": {"i": "0"}, "Index": {"type": "DT_INT64"}, "begin_mask": {"i": "7"}, "T": {"type": "DT_FLOAT"}, "end_mask": {"i": "7"}, "ellipsis_mask": {"i": "0"}}}, {"name": "model_213/tf.math.add_3/Add", "op": "_FusedConv2D", "input": ["model_213/tf.strided_slice_1/StridedSlice", "model_213/tf.nn.convolution_3/convolution/filter", "model_213/tf.math.add_3/Add/y"], "device": "/device:CPU:0", "attr": {"num_host_args": {"i": "0"}, "data_format": {"s": "TkhXQw=="}, "filter_format": {"s": "SFdJTw=="}, "fused_ops": {"list": {"s": ["Qmlhc0FkZA=="]}}, "num_args": {"i": "1"}, "strides": {"list": {"i": ["1", "1", "1", "1"]}}, "TArgs": {"list": {"type": ["DT_FLOAT"]}}, "padding": {"s": "U0FNRQ=="}, "use_cudnn_on_gpu": {"b": true}, "leakyrelu_alpha": {"f": 0.2}, "epsilon": {"f": 0.0}, "T": {"type": "DT_FLOAT"}, "explicit_paddings": {"list": {}}, "dilations": {"list": {"i": ["1", "1", "1", "1"]}}}}, {"name": "model_213/tf.math.sigmoid_3/Sigmoid", "op": "Sigmoid", "input": ["model_213/tf.math.add_3/Add"], "attr": {"T": {"type": "DT_FLOAT"}}}, {"name": "model_213/tf.math.multiply_15/Mul", "op": "Mul", "input": ["model_213/tf.math.add_3/Add", "model_213/tf.math.sigmoid_3/Sigmoid"], "attr": {"T": {"type": "DT_FLOAT"}}}, {"name": "model_213/tf.math.add_4/Add", "op": "_FusedConv2D", "input": ["model_213/tf.math.multiply_15/Mul", "model_213/tf.nn.convolution_4/convolution/filter", "model_213/tf.math.add_4/Add/y"], "device": "/device:CPU:0", "attr": {"num_host_args": {"i": "0"}, "data_format": {"s": "TkhXQw=="}, "filter_format": {"s": "SFdJTw=="}, "strides": {"list": {"i": ["1", "1", "1", "1"]}}, "num_args": {"i": "1"}, "fused_ops": {"list": {"s": ["Qmlhc0FkZA=="]}}, "TArgs": {"list": {"type": ["DT_FLOAT"]}}, "padding": {"s": "U0FNRQ=="}, "use_cudnn_on_gpu": {"b": true}, "leakyrelu_alpha": {"f": 0.2}, "epsilon": {"f": 0.0}, "T": {"type": "DT_FLOAT"}, "explicit_paddings": {"list": {}}, "dilations": {"list": {"i": ["1", "1", "1", "1"]}}}}, {"name": "model_213/tf.math.sigmoid_4/Sigmoid", "op": "Sigmoid", "input": ["model_213/tf.math.add_4/Add"], "attr": {"T": {"type": "DT_FLOAT"}}}, {"name": "model_213/tf.math.multiply_19/Mul", "op": "Mul", "input": ["model_213/tf.math.add_4/Add", "model_213/tf.math.sigmoid_4/Sigmoid"], "attr": {"T": {"type": "DT_FLOAT"}}}, {"name": "model_213/tf.math.add_6/Add", "op": "AddV2", "input": ["model_213/tf.strided_slice_1/StridedSlice", "model_213/tf.math.multiply_19/Mul"], "attr": {"T": {"type": "DT_FLOAT"}}}, {"name": "model_213/tf.concat/concat", "op": "ConcatV2", "input": ["model_213/tf.strided_slice/StridedSlice", "model_213/tf.strided_slice_1/StridedSlice", "model_213/tf.math.add_6/Add", "model_213/tf.concat/concat/axis"], "attr": {"N": {"i": "3"}, "T": {"type": "DT_FLOAT"}, "Tidx": {"type": "DT_INT32"}}}, {"name": "model_213/tf.math.add_7/Add", "op": "_FusedConv2D", "input": ["model_213/tf.concat/concat", "model_213/tf.nn.convolution_5/convolution/filter", "model_213/tf.math.add_7/Add/y"], "device": "/device:CPU:0", "attr": {"num_host_args": {"i": "0"}, "data_format": {"s": "TkhXQw=="}, "filter_format": {"s": "SFdJTw=="}, "fused_ops": {"list": {"s": ["Qmlhc0FkZA=="]}}, "num_args": {"i": "1"}, "strides": {"list": {"i": ["1", "1", "1", "1"]}}, "TArgs": {"list": {"type": ["DT_FLOAT"]}}, "padding": {"s": "U0FNRQ=="}, "use_cudnn_on_gpu": {"b": true}, "leakyrelu_alpha": {"f": 0.2}, "epsilon": {"f": 0.0}, "T": {"type": "DT_FLOAT"}, "explicit_paddings": {"list": {}}, "dilations": {"list": {"i": ["1", "1", "1", "1"]}}}}, {"name": "model_213/tf.math.sigmoid_5/Sigmoid", "op": "Sigmoid", "input": ["model_213/tf.math.add_7/Add"], "attr": {"T": {"type": "DT_FLOAT"}}}, {"name": "model_213/tf.math.multiply_25/Mul", "op": "Mul", "input": ["model_213/tf.math.add_7/Add", "model_213/tf.math.sigmoid_5/Sigmoid"], "attr": {"T": {"type": "DT_FLOAT"}}}, {"name": "model_213/tf.compat.v1.pad_2/Pad", "op": "Pad", "input": ["model_213/tf.math.multiply_25/Mul", "model_213/tf.compat.v1.pad_2/Pad/paddings"], "attr": {"Tpaddings": {"type": "DT_INT32"}, "T": {"type": "DT_FLOAT"}}}, {"name": "model_213/tf.math.add_8/Add", "op": "_FusedConv2D", "input": ["model_213/tf.compat.v1.pad_2/Pad", "model_213/tf.nn.convolution_6/convolution/filter", "model_213/tf.math.add_8/Add/y"], "device": "/device:CPU:0", "attr": {"num_host_args": {"i": "0"}, "data_format": {"s": "TkhXQw=="}, "filter_format": {"s": "SFdJTw=="}, "fused_ops": {"list": {"s": ["Qmlhc0FkZA=="]}}, "num_args": {"i": "1"}, "strides": {"list": {"i": ["1", "2", "2", "1"]}}, "TArgs": {"list": {"type": ["DT_FLOAT"]}}, "padding": {"s": "VkFMSUQ="}, "use_cudnn_on_gpu": {"b": true}, "leakyrelu_alpha": {"f": 0.2}, "epsilon": {"f": 0.0}, "T": {"type": "DT_FLOAT"}, "explicit_paddings": {"list": {}}, "dilations": {"list": {"i": ["1", "1", "1", "1"]}}}}, {"name": "model_213/tf.math.sigmoid_6/Sigmoid", "op": "Sigmoid", "input": ["model_213/tf.math.add_8/Add"], "attr": {"T": {"type": "DT_FLOAT"}}}, {"name": "model_213/tf.math.multiply_29/Mul", "op": "Mul", "input": ["model_213/tf.math.add_8/Add", "model_213/tf.math.sigmoid_6/Sigmoid"], "attr": {"T": {"type": "DT_FLOAT"}}}, {"name": "model_213/tf.math.add_9/Add", "op": "_FusedConv2D", "input": ["model_213/tf.math.multiply_29/Mul", "model_213/tf.nn.convolution_7/convolution/filter", "model_213/tf.math.add_9/Add/y"], "device": "/device:CPU:0", "attr": {"num_host_args": {"i": "0"}, "data_format": {"s": "TkhXQw=="}, "filter_format": {"s": "SFdJTw=="}, "fused_ops": {"list": {"s": ["Qmlhc0FkZA=="]}}, "num_args": {"i": "1"}, "strides": {"list": {"i": ["1", "1", "1", "1"]}}, "TArgs": {"list": {"type": ["DT_FLOAT"]}}, "padding": {"s": "U0FNRQ=="}, "use_cudnn_on_gpu": {"b": true}, "leakyrelu_alpha": {"f": 0.2}, "epsilon": {"f": 0.0}, "T": {"type": "DT_FLOAT"}, "explicit_paddings": {"list": {}}, "dilations": {"list": {"i": ["1", "1", "1", "1"]}}}}, {"name": "model_213/tf.math.sigmoid_7/Sigmoid", "op": "Sigmoid", "input": ["model_213/tf.math.add_9/Add"], "attr": {"T": {"type": "DT_FLOAT"}}}, {"name": "model_213/tf.math.multiply_33/Mul", "op": "Mul", "input": ["model_213/tf.math.add_9/Add", "model_213/tf.math.sigmoid_7/Sigmoid"], "attr": {"T": {"type": "DT_FLOAT"}}}, {"name": "model_213/tf.strided_slice_2/StridedSlice", "op": "StridedSlice", "input": ["model_213/tf.math.multiply_33/Mul", "model_213/tf.strided_slice_2/ones_like/tensor", "model_213/tf.strided_slice_2/StridedSlice/end", "model_213/tf.strided_slice_2/ones_like"], "attr": {"shrink_axis_mask": {"i": "0"}, "Index": {"type": "DT_INT64"}, "new_axis_mask": {"i": "0"}, "begin_mask": {"i": "15"}, "T": {"type": "DT_FLOAT"}, "end_mask": {"i": "7"}, "ellipsis_mask": {"i": "0"}}}, {"name": "model_213/tf.strided_slice_3/StridedSlice", "op": "StridedSlice", "input": ["model_213/tf.math.multiply_33/Mul", "model_213/tf.strided_slice_3/ones_like/tensor", "model_213/tf.strided_slice_3/StridedSlice/end", "model_213/tf.strided_slice_3/ones_like"], "attr": {"shrink_axis_mask": {"i": "0"}, "new_axis_mask": {"i": "0"}, "Index": {"type": "DT_INT64"}, "begin_mask": {"i": "7"}, "T": {"type": "DT_FLOAT"}, "end_mask": {"i": "7"}, "ellipsis_mask": {"i": "0"}}}, {"name": "model_213/tf.math.add_10/Add", "op": "_FusedConv2D", "input": ["model_213/tf.strided_slice_3/StridedSlice", "model_213/tf.nn.convolution_8/convolution/filter", "model_213/tf.math.add_10/Add/y"], "device": "/device:CPU:0", "attr": {"num_host_args": {"i": "0"}, "data_format": {"s": "TkhXQw=="}, "filter_format": {"s": "SFdJTw=="}, "fused_ops": {"list": {"s": ["Qmlhc0FkZA=="]}}, "num_args": {"i": "1"}, "strides": {"list": {"i": ["1", "1", "1", "1"]}}, "TArgs": {"list": {"type": ["DT_FLOAT"]}}, "padding": {"s": "U0FNRQ=="}, "use_cudnn_on_gpu": {"b": true}, "leakyrelu_alpha": {"f": 0.2}, "epsilon": {"f": 0.0}, "T": {"type": "DT_FLOAT"}, "explicit_paddings": {"list": {}}, "dilations": {"list": {"i": ["1", "1", "1", "1"]}}}}, {"name": "model_213/tf.math.sigmoid_8/Sigmoid", "op": "Sigmoid", "input": ["model_213/tf.math.add_10/Add"], "attr": {"T": {"type": "DT_FLOAT"}}}, {"name": "model_213/tf.math.multiply_37/Mul", "op": "Mul", "input": ["model_213/tf.math.add_10/Add", "model_213/tf.math.sigmoid_8/Sigmoid"], "attr": {"T": {"type": "DT_FLOAT"}}}, {"name": "model_213/tf.math.add_11/Add", "op": "_FusedConv2D", "input": ["model_213/tf.math.multiply_37/Mul", "model_213/tf.nn.convolution_9/convolution/filter", "model_213/tf.math.add_11/Add/y"], "device": "/device:CPU:0", "attr": {"num_host_args": {"i": "0"}, "data_format": {"s": "TkhXQw=="}, "filter_format": {"s": "SFdJTw=="}, "strides": {"list": {"i": ["1", "1", "1", "1"]}}, "num_args": {"i": "1"}, "fused_ops": {"list": {"s": ["Qmlhc0FkZA=="]}}, "TArgs": {"list": {"type": ["DT_FLOAT"]}}, "padding": {"s": "U0FNRQ=="}, "use_cudnn_on_gpu": {"b": true}, "leakyrelu_alpha": {"f": 0.2}, "epsilon": {"f": 0.0}, "T": {"type": "DT_FLOAT"}, "explicit_paddings": {"list": {}}, "dilations": {"list": {"i": ["1", "1", "1", "1"]}}}}, {"name": "model_213/tf.math.sigmoid_9/Sigmoid", "op": "Sigmoid", "input": ["model_213/tf.math.add_11/Add"], "attr": {"T": {"type": "DT_FLOAT"}}}, {"name": "model_213/tf.math.multiply_41/Mul", "op": "Mul", "input": ["model_213/tf.math.add_11/Add", "model_213/tf.math.sigmoid_9/Sigmoid"], "attr": {"T": {"type": "DT_FLOAT"}}}, {"name": "model_213/tf.math.add_13/Add", "op": "AddV2", "input": ["model_213/tf.strided_slice_3/StridedSlice", "model_213/tf.math.multiply_41/Mul"], "attr": {"T": {"type": "DT_FLOAT"}}}, {"name": "model_213/tf.concat_1/concat", "op": "ConcatV2", "input": ["model_213/tf.strided_slice_2/StridedSlice", "model_213/tf.strided_slice_3/StridedSlice", "model_213/tf.math.add_13/Add", "model_213/tf.concat_1/concat/axis"], "attr": {"N": {"i": "3"}, "T": {"type": "DT_FLOAT"}, "Tidx": {"type": "DT_INT32"}}}, {"name": "model_213/tf.math.add_14/Add", "op": "_FusedConv2D", "input": ["model_213/tf.concat_1/concat", "model_213/tf.nn.convolution_10/convolution/filter", "model_213/tf.math.add_14/Add/y"], "device": "/device:CPU:0", "attr": {"num_host_args": {"i": "0"}, "data_format": {"s": "TkhXQw=="}, "filter_format": {"s": "SFdJTw=="}, "fused_ops": {"list": {"s": ["Qmlhc0FkZA=="]}}, "num_args": {"i": "1"}, "strides": {"list": {"i": ["1", "1", "1", "1"]}}, "TArgs": {"list": {"type": ["DT_FLOAT"]}}, "padding": {"s": "U0FNRQ=="}, "use_cudnn_on_gpu": {"b": true}, "leakyrelu_alpha": {"f": 0.2}, "epsilon": {"f": 0.0}, "T": {"type": "DT_FLOAT"}, "explicit_paddings": {"list": {}}, "dilations": {"list": {"i": ["1", "1", "1", "1"]}}}}, {"name": "model_213/tf.math.sigmoid_10/Sigmoid", "op": "Sigmoid", "input": ["model_213/tf.math.add_14/Add"], "attr": {"T": {"type": "DT_FLOAT"}}}, {"name": "model_213/tf.math.multiply_47/Mul", "op": "Mul", "input": ["model_213/tf.math.add_14/Add", "model_213/tf.math.sigmoid_10/Sigmoid"], "attr": {"T": {"type": "DT_FLOAT"}}}, {"name": "model_213/tf.compat.v1.pad_3/Pad", "op": "Pad", "input": ["model_213/tf.math.multiply_47/Mul", "model_213/tf.compat.v1.pad_3/Pad/paddings"], "attr": {"Tpaddings": {"type": "DT_INT32"}, "T": {"type": "DT_FLOAT"}}}, {"name": "model_213/tf.math.add_15/Add", "op": "_FusedConv2D", "input": ["model_213/tf.compat.v1.pad_3/Pad", "model_213/tf.nn.convolution_11/convolution/filter", "model_213/tf.math.add_15/Add/y"], "device": "/device:CPU:0", "attr": {"num_host_args": {"i": "0"}, "data_format": {"s": "TkhXQw=="}, "filter_format": {"s": "SFdJTw=="}, "fused_ops": {"list": {"s": ["Qmlhc0FkZA=="]}}, "num_args": {"i": "1"}, "strides": {"list": {"i": ["1", "2", "2", "1"]}}, "TArgs": {"list": {"type": ["DT_FLOAT"]}}, "padding": {"s": "VkFMSUQ="}, "use_cudnn_on_gpu": {"b": true}, "leakyrelu_alpha": {"f": 0.2}, "epsilon": {"f": 0.0}, "T": {"type": "DT_FLOAT"}, "explicit_paddings": {"list": {}}, "dilations": {"list": {"i": ["1", "1", "1", "1"]}}}}, {"name": "model_213/tf.math.sigmoid_11/Sigmoid", "op": "Sigmoid", "input": ["model_213/tf.math.add_15/Add"], "attr": {"T": {"type": "DT_FLOAT"}}}, {"name": "model_213/tf.math.multiply_51/Mul", "op": "Mul", "input": ["model_213/tf.math.add_15/Add", "model_213/tf.math.sigmoid_11/Sigmoid"], "attr": {"T": {"type": "DT_FLOAT"}}}, {"name": "model_213/tf.math.add_16/Add", "op": "_FusedConv2D", "input": ["model_213/tf.math.multiply_51/Mul", "model_213/tf.nn.convolution_12/convolution/filter", "model_213/tf.math.add_16/Add/y"], "device": "/device:CPU:0", "attr": {"num_host_args": {"i": "0"}, "data_format": {"s": "TkhXQw=="}, "filter_format": {"s": "SFdJTw=="}, "strides": {"list": {"i": ["1", "1", "1", "1"]}}, "num_args": {"i": "1"}, "fused_ops": {"list": {"s": ["Qmlhc0FkZA=="]}}, "TArgs": {"list": {"type": ["DT_FLOAT"]}}, "padding": {"s": "U0FNRQ=="}, "use_cudnn_on_gpu": {"b": true}, "leakyrelu_alpha": {"f": 0.2}, "epsilon": {"f": 0.0}, "T": {"type": "DT_FLOAT"}, "explicit_paddings": {"list": {}}, "dilations": {"list": {"i": ["1", "1", "1", "1"]}}}}, {"name": "model_213/tf.math.sigmoid_12/Sigmoid", "op": "Sigmoid", "input": ["model_213/tf.math.add_16/Add"], "attr": {"T": {"type": "DT_FLOAT"}}}, {"name": "model_213/tf.math.multiply_55/Mul", "op": "Mul", "input": ["model_213/tf.math.add_16/Add", "model_213/tf.math.sigmoid_12/Sigmoid"], "attr": {"T": {"type": "DT_FLOAT"}}}, {"name": "model_213/tf.strided_slice_4/StridedSlice", "op": "StridedSlice", "input": ["model_213/tf.math.multiply_55/Mul", "model_213/tf.strided_slice_4/ones_like/tensor", "model_213/tf.strided_slice_4/StridedSlice/end", "model_213/tf.strided_slice_4/ones_like"], "attr": {"shrink_axis_mask": {"i": "0"}, "new_axis_mask": {"i": "0"}, "Index": {"type": "DT_INT64"}, "begin_mask": {"i": "15"}, "T": {"type": "DT_FLOAT"}, "end_mask": {"i": "7"}, "ellipsis_mask": {"i": "0"}}}, {"name": "model_213/tf.strided_slice_5/StridedSlice", "op": "StridedSlice", "input": ["model_213/tf.math.multiply_55/Mul", "model_213/tf.strided_slice_5/ones_like/tensor", "model_213/tf.strided_slice_5/StridedSlice/end", "model_213/tf.strided_slice_5/ones_like"], "attr": {"shrink_axis_mask": {"i": "0"}, "new_axis_mask": {"i": "0"}, "Index": {"type": "DT_INT64"}, "begin_mask": {"i": "7"}, "end_mask": {"i": "7"}, "T": {"type": "DT_FLOAT"}, "ellipsis_mask": {"i": "0"}}}, {"name": "model_213/tf.math.add_17/Add", "op": "_FusedConv2D", "input": ["model_213/tf.strided_slice_5/StridedSlice", "model_213/tf.nn.convolution_13/convolution/filter", "model_213/tf.math.add_17/Add/y"], "device": "/device:CPU:0", "attr": {"num_host_args": {"i": "0"}, "data_format": {"s": "TkhXQw=="}, "filter_format": {"s": "SFdJTw=="}, "fused_ops": {"list": {"s": ["Qmlhc0FkZA=="]}}, "num_args": {"i": "1"}, "strides": {"list": {"i": ["1", "1", "1", "1"]}}, "TArgs": {"list": {"type": ["DT_FLOAT"]}}, "padding": {"s": "U0FNRQ=="}, "use_cudnn_on_gpu": {"b": true}, "leakyrelu_alpha": {"f": 0.2}, "epsilon": {"f": 0.0}, "T": {"type": "DT_FLOAT"}, "explicit_paddings": {"list": {}}, "dilations": {"list": {"i": ["1", "1", "1", "1"]}}}}, {"name": "model_213/tf.math.add_18/Add", "op": "_FusedConv2D", "input": ["model_213/tf.strided_slice_5/StridedSlice", "model_213/tf.nn.convolution_14/convolution/filter", "model_213/tf.math.add_18/Add/y"], "device": "/device:CPU:0", "attr": {"num_host_args": {"i": "0"}, "data_format": {"s": "TkhXQw=="}, "filter_format": {"s": "SFdJTw=="}, "strides": {"list": {"i": ["1", "1", "1", "1"]}}, "num_args": {"i": "1"}, "fused_ops": {"list": {"s": ["Qmlhc0FkZA=="]}}, "TArgs": {"list": {"type": ["DT_FLOAT"]}}, "padding": {"s": "U0FNRQ=="}, "use_cudnn_on_gpu": {"b": true}, "leakyrelu_alpha": {"f": 0.2}, "epsilon": {"f": 0.0}, "T": {"type": "DT_FLOAT"}, "explicit_paddings": {"list": {}}, "dilations": {"list": {"i": ["1", "1", "1", "1"]}}}}, {"name": "model_213/tf.math.sigmoid_13/Sigmoid", "op": "Sigmoid", "input": ["model_213/tf.math.add_17/Add"], "attr": {"T": {"type": "DT_FLOAT"}}}, {"name": "model_213/tf.math.sigmoid_14/Sigmoid", "op": "Sigmoid", "input": ["model_213/tf.math.add_18/Add"], "attr": {"T": {"type": "DT_FLOAT"}}}, {"name": "model_213/tf.math.multiply_59/Mul", "op": "Mul", "input": ["model_213/tf.math.add_17/Add", "model_213/tf.math.sigmoid_13/Sigmoid"], "attr": {"T": {"type": "DT_FLOAT"}}}, {"name": "model_213/tf.math.multiply_63/Mul", "op": "Mul", "input": ["model_213/tf.math.add_18/Add", "model_213/tf.math.sigmoid_14/Sigmoid"], "attr": {"T": {"type": "DT_FLOAT"}}}, {"name": "model_213/tf.math.add_19/Add", "op": "_FusedConv2D", "input": ["model_213/tf.math.multiply_59/Mul", "model_213/tf.nn.convolution_15/convolution/filter", "model_213/tf.math.add_19/Add/y"], "device": "/device:CPU:0", "attr": {"num_host_args": {"i": "0"}, "data_format": {"s": "TkhXQw=="}, "filter_format": {"s": "SFdJTw=="}, "strides": {"list": {"i": ["1", "1", "1", "1"]}}, "num_args": {"i": "1"}, "fused_ops": {"list": {"s": ["Qmlhc0FkZA=="]}}, "TArgs": {"list": {"type": ["DT_FLOAT"]}}, "padding": {"s": "U0FNRQ=="}, "use_cudnn_on_gpu": {"b": true}, "leakyrelu_alpha": {"f": 0.2}, "epsilon": {"f": 0.0}, "T": {"type": "DT_FLOAT"}, "explicit_paddings": {"list": {}}, "dilations": {"list": {"i": ["1", "1", "1", "1"]}}}}, {"name": "model_213/tf.math.sigmoid_15/Sigmoid", "op": "Sigmoid", "input": ["model_213/tf.math.add_19/Add"], "attr": {"T": {"type": "DT_FLOAT"}}}, {"name": "model_213/tf.math.multiply_67/Mul", "op": "Mul", "input": ["model_213/tf.math.add_19/Add", "model_213/tf.math.sigmoid_15/Sigmoid"], "attr": {"T": {"type": "DT_FLOAT"}}}, {"name": "model_213/tf.math.add_20/Add", "op": "_FusedConv2D", "input": ["model_213/tf.math.multiply_67/Mul", "model_213/tf.nn.convolution_16/convolution/filter", "model_213/tf.math.add_20/Add/y"], "device": "/device:CPU:0", "attr": {"num_host_args": {"i": "0"}, "data_format": {"s": "TkhXQw=="}, "filter_format": {"s": "SFdJTw=="}, "fused_ops": {"list": {"s": ["Qmlhc0FkZA=="]}}, "num_args": {"i": "1"}, "strides": {"list": {"i": ["1", "1", "1", "1"]}}, "TArgs": {"list": {"type": ["DT_FLOAT"]}}, "padding": {"s": "U0FNRQ=="}, "use_cudnn_on_gpu": {"b": true}, "leakyrelu_alpha": {"f": 0.2}, "epsilon": {"f": 0.0}, "T": {"type": "DT_FLOAT"}, "explicit_paddings": {"list": {}}, "dilations": {"list": {"i": ["1", "1", "1", "1"]}}}}, {"name": "model_213/tf.math.sigmoid_16/Sigmoid", "op": "Sigmoid", "input": ["model_213/tf.math.add_20/Add"], "attr": {"T": {"type": "DT_FLOAT"}}}, {"name": "model_213/tf.math.multiply_71/Mul", "op": "Mul", "input": ["model_213/tf.math.add_20/Add", "model_213/tf.math.sigmoid_16/Sigmoid"], "attr": {"T": {"type": "DT_FLOAT"}}}, {"name": "model_213/tf.math.add_22/Add", "op": "AddV2", "input": ["model_213/tf.math.multiply_59/Mul", "model_213/tf.math.multiply_71/Mul"], "attr": {"T": {"type": "DT_FLOAT"}}}, {"name": "model_213/tf.math.add_23/Add", "op": "_FusedConv2D", "input": ["model_213/tf.math.add_22/Add", "model_213/tf.nn.convolution_17/convolution/filter", "model_213/tf.math.add_23/Add/y"], "device": "/device:CPU:0", "attr": {"num_host_args": {"i": "0"}, "data_format": {"s": "TkhXQw=="}, "filter_format": {"s": "SFdJTw=="}, "fused_ops": {"list": {"s": ["Qmlhc0FkZA=="]}}, "num_args": {"i": "1"}, "strides": {"list": {"i": ["1", "1", "1", "1"]}}, "TArgs": {"list": {"type": ["DT_FLOAT"]}}, "padding": {"s": "U0FNRQ=="}, "use_cudnn_on_gpu": {"b": true}, "leakyrelu_alpha": {"f": 0.2}, "epsilon": {"f": 0.0}, "T": {"type": "DT_FLOAT"}, "explicit_paddings": {"list": {}}, "dilations": {"list": {"i": ["1", "1", "1", "1"]}}}}, {"name": "model_213/tf.math.sigmoid_17/Sigmoid", "op": "Sigmoid", "input": ["model_213/tf.math.add_23/Add"], "attr": {"T": {"type": "DT_FLOAT"}}}, {"name": "model_213/tf.math.multiply_77/Mul", "op": "Mul", "input": ["model_213/tf.math.add_23/Add", "model_213/tf.math.sigmoid_17/Sigmoid"], "attr": {"T": {"type": "DT_FLOAT"}}}, {"name": "model_213/tf.math.add_24/Add", "op": "_FusedConv2D", "input": ["model_213/tf.math.multiply_77/Mul", "model_213/tf.nn.convolution_18/convolution/filter", "model_213/tf.math.add_24/Add/y"], "device": "/device:CPU:0", "attr": {"num_host_args": {"i": "0"}, "data_format": {"s": "TkhXQw=="}, "filter_format": {"s": "SFdJTw=="}, "strides": {"list": {"i": ["1", "1", "1", "1"]}}, "num_args": {"i": "1"}, "fused_ops": {"list": {"s": ["Qmlhc0FkZA=="]}}, "TArgs": {"list": {"type": ["DT_FLOAT"]}}, "padding": {"s": "U0FNRQ=="}, "use_cudnn_on_gpu": {"b": true}, "leakyrelu_alpha": {"f": 0.2}, "epsilon": {"f": 0.0}, "T": {"type": "DT_FLOAT"}, "explicit_paddings": {"list": {}}, "dilations": {"list": {"i": ["1", "1", "1", "1"]}}}}, {"name": "model_213/tf.math.sigmoid_18/Sigmoid", "op": "Sigmoid", "input": ["model_213/tf.math.add_24/Add"], "attr": {"T": {"type": "DT_FLOAT"}}}, {"name": "model_213/tf.math.multiply_81/Mul", "op": "Mul", "input": ["model_213/tf.math.add_24/Add", "model_213/tf.math.sigmoid_18/Sigmoid"], "attr": {"T": {"type": "DT_FLOAT"}}}, {"name": "model_213/tf.math.add_26/Add", "op": "AddV2", "input": ["model_213/tf.math.add_22/Add", "model_213/tf.math.multiply_81/Mul"], "attr": {"T": {"type": "DT_FLOAT"}}}, {"name": "model_213/tf.concat_2/concat", "op": "ConcatV2", "input": ["model_213/tf.math.add_26/Add", "model_213/tf.math.multiply_63/Mul", "model_213/tf.concat_2/concat/axis"], "attr": {"N": {"i": "2"}, "Tidx": {"type": "DT_INT32"}, "T": {"type": "DT_FLOAT"}}}, {"name": "model_213/tf.math.add_27/Add", "op": "_FusedConv2D", "input": ["model_213/tf.concat_2/concat", "model_213/tf.nn.convolution_19/convolution/filter", "model_213/tf.math.add_27/Add/y"], "device": "/device:CPU:0", "attr": {"num_host_args": {"i": "0"}, "data_format": {"s": "TkhXQw=="}, "filter_format": {"s": "SFdJTw=="}, "strides": {"list": {"i": ["1", "1", "1", "1"]}}, "num_args": {"i": "1"}, "fused_ops": {"list": {"s": ["Qmlhc0FkZA=="]}}, "TArgs": {"list": {"type": ["DT_FLOAT"]}}, "padding": {"s": "U0FNRQ=="}, "use_cudnn_on_gpu": {"b": true}, "leakyrelu_alpha": {"f": 0.2}, "epsilon": {"f": 0.0}, "T": {"type": "DT_FLOAT"}, "explicit_paddings": {"list": {}}, "dilations": {"list": {"i": ["1", "1", "1", "1"]}}}}, {"name": "model_213/tf.math.sigmoid_19/Sigmoid", "op": "Sigmoid", "input": ["model_213/tf.math.add_27/Add"], "attr": {"T": {"type": "DT_FLOAT"}}}, {"name": "model_213/tf.math.multiply_87/Mul", "op": "Mul", "input": ["model_213/tf.math.add_27/Add", "model_213/tf.math.sigmoid_19/Sigmoid"], "attr": {"T": {"type": "DT_FLOAT"}}}, {"name": "model_213/tf.concat_3/concat", "op": "ConcatV2", "input": ["model_213/tf.strided_slice_4/StridedSlice", "model_213/tf.strided_slice_5/StridedSlice", "model_213/tf.math.multiply_87/Mul", "model_213/tf.concat_3/concat/axis"], "attr": {"N": {"i": "3"}, "T": {"type": "DT_FLOAT"}, "Tidx": {"type": "DT_INT32"}}}, {"name": "model_213/tf.math.add_28/Add", "op": "_FusedConv2D", "input": ["model_213/tf.concat_3/concat", "model_213/tf.nn.convolution_20/convolution/filter", "model_213/tf.math.add_28/Add/y"], "device": "/device:CPU:0", "attr": {"num_host_args": {"i": "0"}, "data_format": {"s": "TkhXQw=="}, "filter_format": {"s": "SFdJTw=="}, "strides": {"list": {"i": ["1", "1", "1", "1"]}}, "num_args": {"i": "1"}, "fused_ops": {"list": {"s": ["Qmlhc0FkZA=="]}}, "TArgs": {"list": {"type": ["DT_FLOAT"]}}, "padding": {"s": "U0FNRQ=="}, "use_cudnn_on_gpu": {"b": true}, "leakyrelu_alpha": {"f": 0.2}, "epsilon": {"f": 0.0}, "T": {"type": "DT_FLOAT"}, "explicit_paddings": {"list": {}}, "dilations": {"list": {"i": ["1", "1", "1", "1"]}}}}, {"name": "model_213/tf.math.sigmoid_20/Sigmoid", "op": "Sigmoid", "input": ["model_213/tf.math.add_28/Add"], "attr": {"T": {"type": "DT_FLOAT"}}}, {"name": "model_213/tf.math.multiply_91/Mul", "op": "Mul", "input": ["model_213/tf.math.add_28/Add", "model_213/tf.math.sigmoid_20/Sigmoid"], "attr": {"T": {"type": "DT_FLOAT"}}}, {"name": "model_213/tf.compat.v1.pad_4/Pad", "op": "Pad", "input": ["model_213/tf.math.multiply_91/Mul", "model_213/tf.compat.v1.pad_4/Pad/paddings"], "attr": {"Tpaddings": {"type": "DT_INT32"}, "T": {"type": "DT_FLOAT"}}}, {"name": "model_213/tf.math.add_29/Add", "op": "_FusedConv2D", "input": ["model_213/tf.compat.v1.pad_4/Pad", "model_213/tf.nn.convolution_21/convolution/filter", "model_213/tf.math.add_29/Add/y"], "device": "/device:CPU:0", "attr": {"num_host_args": {"i": "0"}, "data_format": {"s": "TkhXQw=="}, "filter_format": {"s": "SFdJTw=="}, "fused_ops": {"list": {"s": ["Qmlhc0FkZA=="]}}, "num_args": {"i": "1"}, "strides": {"list": {"i": ["1", "2", "2", "1"]}…
729366, "scale": 0.007487931204777138, "original_dtype": "float32"}}, {"name": "model_213/tf.nn.convolution_109/convolution/filter", "shape": [3, 3, 32, 32], "dtype": "float32", "quantization": {"dtype": "uint8", "min": -0.35118234391305964, "scale": 0.002701402645485074, "original_dtype": "float32"}}, {"name": "model_213/tf.math.add_68/Add/y", "shape": [32], "dtype": "float32", "quantization": {"dtype": "uint8", "min": -0.5072110351394205, "scale": 0.006420392849866082, "original_dtype": "float32"}}, {"name": "model_213/tf.image.resize/resize/size", "shape": [2], "dtype": "int32"}, {"name": "model_213/tf.concat_9/concat/axis", "shape": [], "dtype": "int32"}, {"name": "model_213/tf.nn.convolution_103/convolution/filter", "shape": [1, 1, 96, 128], "dtype": "float32", "quantization": {"dtype": "uint8", "min": -0.5534933646519978, "scale": 0.004161604245503743, "original_dtype": "float32"}}, {"name": "model_213/tf.math.add_60/Add/y", "shape": [128], "dtype": "float32", "quantization": {"dtype": "uint8", "min": -0.4949339368764092, "scale": 0.004458864296183866, "original_dtype": "float32"}}, {"name": "model_213/tf.strided_slice_14/ones_like/tensor", "shape": [4], "dtype": "int32"}, {"name": "model_213/tf.strided_slice_14/StridedSlice/end", "shape": [4], "dtype": "int32"}, {"name": "model_213/tf.strided_slice_14/ones_like", "shape": [4], "dtype": "int32"}, {"name": "model_213/tf.nn.convolution_105/convolution/filter", "shape": [1, 1, 64, 32], "dtype": "float32", "quantization": {"dtype": "uint8", "min": -0.6759326878715964, "scale": 0.00563277239892997, "original_dtype": "float32"}}, {"name": "model_213/tf.math.add_62/Add/y", "shape": [32], "dtype": "float32", "quantization": {"dtype": "uint8", "min": -0.5674753824869792, "scale": 0.004172613106521905, "original_dtype": "float32"}}, {"name": "model_213/tf.concat_10/concat/axis", "shape": [], "dtype": "int32"}, {"name": "model_213/tf.nn.convolution_110/convolution/filter", "shape": [1, 1, 64, 64], "dtype": "float32", "quantization": {"dtype": "uint8", "min": -0.38233403505063523, "scale": 0.0031338855332019282, "original_dtype": "float32"}}, {"name": "model_213/tf.math.add_71/Add/y", "shape": [64], "dtype": "float32", "quantization": {"dtype": "uint8", "min": -0.8520742608051675, "scale": 0.007220968311908198, "original_dtype": "float32"}}, {"name": "model_213/tf.concat_11/concat/axis", "shape": [], "dtype": "int32"}, {"name": "model_213/tf.nn.convolution_111/convolution/filter", "shape": [1, 1, 192, 128], "dtype": "float32", "quantization": {"dtype": "uint8", "min": -0.44078005622414984, "scale": 0.0034435941892511706, "original_dtype": "float32"}}, {"name": "model_213/tf.math.add_72/Add/y", "shape": [128], "dtype": "float32", "quantization": {"dtype": "uint8", "min": -0.536517952002731, "scale": 0.00705944673687804, "original_dtype": "float32"}}, {"name": "model_213/tf.concat_15/concat/axis", "shape": [], "dtype": "int32"}, {"name": "model_213/tf.nn.convolution_125/convolution/filter", "shape": [1, 1, 192, 128], "dtype": "float32", "quantization": {"dtype": "uint8", "min": -0.4052535092129427, "scale": 0.0032947439773409973, "original_dtype": "float32"}}, {"name": "model_213/tf.math.add_91/Add/y", "shape": [128], "dtype": "float32", "quantization": {"dtype": "uint8", "min": -0.5743253361945059, "scale": 0.006109844002069212, "original_dtype": "float32"}}, {"name": "model_213/tf.strided_slice_18/ones_like/tensor", "shape": [4], "dtype": "int32"}, {"name": "model_213/tf.strided_slice_18/StridedSlice/end", "shape": [4], "dtype": "int32"}, {"name": "model_213/tf.strided_slice_18/ones_like", "shape": [4], "dtype": "int32"}, {"name": "model_213/tf.nn.convolution_128/convolution/filter", "shape": [1, 1, 64, 32], "dtype": "float32", "quantization": {"dtype": "uint8", "min": -0.5851362207356621, "scale": 0.004209613098817713, "original_dtype": "float32"}}, {"name": "model_213/tf.math.add_95/Add/y", "shape": [32], "dtype": "float32", "quantization": {"dtype": "uint8", "min": -0.35411490272073187, "scale": 0.0036886969033409567, "original_dtype": "float32"}}, {"name": "model_213/tf.concat_16/concat/axis", "shape": [], "dtype": "int32"}, {"name": "model_213/tf.nn.convolution_135/convolution/filter", "shape": [1, 1, 64, 64], "dtype": "float32", "quantization": {"dtype": "uint8", "min": -0.3922844714978162, "scale": 0.003189304646323709, "original_dtype": "float32"}}, {"name": "model_213/tf.math.add_106/Add/y", "shape": [64], "dtype": "float32", "quantization": {"dtype": "uint8", "min": -0.8235328174104878, "scale": 0.00748666197645898, "original_dtype": "float32"}}, {"name": "model_213/tf.concat_17/concat/axis", "shape": [], "dtype": "int32"}, {"name": "model_213/tf.nn.convolution_136/convolution/filter", "shape": [1, 1, 192, 128], "dtype": "float32", "quantization": {"dtype": "uint8", "min": -0.41081008373522293, "scale": 0.0031600775671940225, "original_dtype": "float32"}}, {"name": "model_213/tf.math.add_107/Add/y", "shape": [128], "dtype": "float32", "quantization": {"dtype": "uint8", "min": -0.5732974342271393, "scale": 0.007256929547178979, "original_dtype": "float32"}}, {"name": "model_213/tf.compat.v1.pad_6/Pad/paddings", "shape": [4, 2], "dtype": "int32"}, {"name": "model_213/tf.nn.convolution_137/convolution/filter", "shape": [3, 3, 128, 128], "dtype": "float32", "quantization": {"dtype": "uint8", "min": -0.15248185115702012, "scale": 0.0011551655390683343, "original_dtype": "float32"}}, {"name": "model_213/tf.math.add_108/Add/y", "shape": [128], "dtype": "float32", "quantization": {"dtype": "uint8", "min": -1.3568267831615373, "scale": 0.010125573008668188, "original_dtype": "float32"}}, {"name": "model_213/tf.strided_slice_8/StridedSlice/begin", "shape": [4], "dtype": "int32"}, {"name": "model_213/tf.strided_slice_8/StridedSlice/end", "shape": [4], "dtype": "int32"}, {"name": "model_213/tf.strided_slice_8/ones_like", "shape": [4], "dtype": "int32"}, {"name": "model_213/tf.math.add_56/Add/y", "shape": [64], "dtype": "float32", "quantization": {"dtype": "uint8", "min": -0.8096312775331385, "scale": 0.006477050220265108, "original_dtype": "float32"}}, {"name": "model_213/tf.math.add_49/Add/y", "shape": [64], "dtype": "float32", "quantization": {"dtype": "uint8", "min": -0.1019454273523069, "scale": 0.0009102270299313116, "original_dtype": "float32"}}, {"name": "model_213/tf.strided_slice_10/StridedSlice/begin", "shape": [4], "dtype": "int32"}, {"name": "model_213/tf.strided_slice_10/StridedSlice/end", "shape": [4], "dtype": "int32"}, {"name": "model_213/tf.strided_slice_10/ones_like", "shape": [4], "dtype": "int32"}, {"name": "model_213/tf.strided_slice_11/StridedSlice/begin", "shape": [4], "dtype": "int32"}, {"name": "model_213/tf.strided_slice_11/StridedSlice/end", "shape": [4], "dtype": "int32"}, {"name": "model_213/tf.strided_slice_11/ones_like", "shape": [4], "dtype": "int32"}, {"name": "model_213/tf.math.multiply_148/Mul/y", "shape": [], "dtype": "float32", "quantization": {"dtype": "uint8", "min": 0.1767766922712326, "scale": 1.0, "original_dtype": "float32"}}, {"name": "model_213/tf.reshape_31/Reshape/shape", "shape": [4], "dtype": "int32"}, {"name": "model_213/tf.compat.v1.transpose_218/transpose/perm", "shape": [4], "dtype": "int32"}, {"name": "model_213/tf.nn.convolution_35/convolution/filter", "shape": [3, 3, 1, 1], "dtype": "float32", "quantization": {"dtype": "uint8", "min": -0.3881354444167193, "scale": 0.003080440035053328, "original_dtype": "float32"}}, {"name": "model_213/tf.nn.convolution_36/convolution/filter", "shape": [3, 3, 1, 1], "dtype": "float32", "quantization": {"dtype": "uint8", "min": -0.13480962456441392, "scale": 0.0016440198117611455, "original_dtype": "float32"}}, {"name": "model_213/tf.nn.convolution_37/convolution/filter", "shape": [3, 3, 1, 1], "dtype": "float32", "quantization": {"dtype": "uint8", "min": -0.6227822058341083, "scale": 0.004613201524697098, "original_dtype": "float32"}}, {"name": "model_213/tf.nn.convolution_38/convolution/filter", "shape": [3, 3, 1, 1], "dtype": "float32", "quantization": {"dtype": "uint8", "min": -0.36325958488034266, "scale": 0.003823785104003607, "original_dtype": "float32"}}, {"name": "model_213/tf.nn.convolution_39/convolution/filter", "shape": [3, 3, 1, 1], "dtype": "float32", "quantization": {"dtype": "uint8", "min": -0.3670948361649233, "scale": 0.002679524351568783, "original_dtype": "float32"}}, {"name": "model_213/tf.nn.convolution_40/convolution/filter", "shape": [3, 3, 1, 1], "dtype": "float32", "quantization": {"dtype": "uint8", "min": -0.6069953976892958, "scale": 0.004633552654116762, "original_dtype": "float32"}}, {"name": "model_213/tf.nn.convolution_41/convolution/filter", "shape": [3, 3, 1, 1], "dtype": "float32", "quantization": {"dtype": "uint8", "min": -0.4554427413379445, "scale": 0.002617487019183589, "original_dtype": "float32"}}, {"name": "model_213/tf.nn.convolution_42/convolution/filter", "shape": [3, 3, 1, 1], "dtype": "float32", "quantization": {"dtype": "uint8", "min": -0.12348390011226429, "scale": 0.0023298849077785714, "original_dtype": "float32"}}, {"name": "model_213/tf.nn.convolution_43/convolution/filter", "shape": [3, 3, 1, 1], "dtype": "float32", "quantization": {"dtype": "uint8", "min": -0.6020944677147211, "scale": 0.004740901320588355, "original_dtype": "float32"}}, {"name": "model_213/tf.nn.convolution_44/convolution/filter", "shape": [3, 3, 1, 1], "dtype": "float32", "quantization": {"dtype": "uint8", "min": -0.4265200699076933, "scale": 0.0037414041219973096, "original_dtype": "float32"}}, {"name": "model_213/tf.nn.convolution_45/convolution/filter", "shape": [3, 3, 1, 1], "dtype": "float32", "quantization": {"dtype": "uint8", "min": -0.8317305284387926, "scale": 0.006300988851809034, "original_dtype": "float32"}}, {"name": "model_213/tf.nn.convolution_46/convolution/filter", "shape": [3, 3, 1, 1], "dtype": "float32", "quantization": {"dtype": "uint8", "min": -0.4265537624265633, "scale": 0.0024799637350381588, "original_dtype": "float32"}}, {"name": "model_213/tf.nn.convolution_47/convolution/filter", "shape": [3, 3, 1, 1], "dtype": "float32", "quantization": {"dtype": "uint8", "min": -0.30793529772290995, "scale": 0.002654614635542327, "original_dtype": "float32"}}, {"name": "model_213/tf.nn.convolution_48/convolution/filter", "shape": [3, 3, 1, 1], "dtype": "float32", "quantization": {"dtype": "uint8", "min": -0.08851651812300963, "scale": 0.0015261468641898212, "original_dtype": "float32"}}, {"name": "model_213/tf.nn.convolution_49/convolution/filter", "shape": [3, 3, 1, 1], "dtype": "float32", "quantization": {"dtype": "uint8", "min": -0.6438062008689431, "scale": 0.006849002136903651, "original_dtype": "float32"}}, {"name": "model_213/tf.nn.convolution_50/convolution/filter", "shape": [3, 3, 1, 1], "dtype": "float32", "quantization": {"dtype": "uint8", "min": -0.07808964392718146, "scale": 0.0017353254206040325, "original_dtype": "float32"}}, {"name": "model_213/tf.nn.convolution_51/convolution/filter", "shape": [3, 3, 1, 1], "dtype": "float32", "quantization": {"dtype": "uint8", "min": -0.27582063861921724, "scale": 0.002507460351083793, "original_dtype": "float32"}}, {"name": "model_213/tf.nn.convolution_52/convolution/filter", "shape": [3, 3, 1, 1], "dtype": "float32", "quantization": {"dtype": "uint8", "min": -0.3445805591695449, "scale": 0.0037051673028983324, "original_dtype": "float32"}}, {"name": "model_213/tf.nn.convolution_53/convolution/filter", "shape": [3, 3, 1, 1], "dtype": "float32", "quantization": {"dtype": "uint8", "min": -0.3947765607459872, "scale": 0.0029460937369103525, "original_dtype": "float32"}}, {"name": "model_213/tf.nn.convolution_54/convolution/filter", "shape": [3, 3, 1, 1], "dtype": "float32", "quantization": {"dtype": "uint8", "min": -0.3704099962524339, "scale": 0.00327796456860561, "original_dtype": "float32"}}, {"name": "model_213/tf.nn.convolution_55/convolution/filter", "shape": [3, 3, 1, 1], "dtype": "float32", "quantization": {"dtype": "uint8", "min": -0.3510770670339173, "scale": 0.0023250136889663396, "original_dtype": "float32"}}, {"name": "model_213/tf.nn.convolution_56/convolution/filter", "shape": [3, 3, 1, 1], "dtype": "float32", "quantization": {"dtype": "uint8", "min": -0.6157079658087562, "scale": 0.004188489563324872, "original_dtype": "float32"}}, {"name": "model_213/tf.nn.convolution_57/convolution/filter", "shape": [3, 3, 1, 1], "dtype": "float32", "quantization": {"dtype": "uint8", "min": -0.4634199321269989, "scale": 0.0030288884452745026, "original_dtype": "float32"}}, {"name": "model_213/tf.nn.convolution_58/convolution/filter", "shape": [3, 3, 1, 1], "dtype": "float32", "quantization": {"dtype": "uint8", "min": -0.7968397736549377, "scale": 0.005902516841888428, "original_dtype": "float32"}}, {"name": "model_213/tf.nn.convolution_59/convolution/filter", "shape": [3, 3, 1, 1], "dtype": "float32", "quantization": {"dtype": "uint8", "min": -0.47456391938761167, "scale": 0.0022491181013630885, "original_dtype": "float32"}}, {"name": "model_213/tf.nn.convolution_60/convolution/filter", "shape": [3, 3, 1, 1], "dtype": "float32", "quantization": {"dtype": "uint8", "min": -0.3455238557037185, "scale": 0.0017719172087370181, "original_dtype": "float32"}}, {"name": "model_213/tf.nn.convolution_61/convolution/filter", "shape": [3, 3, 1, 1], "dtype": "float32", "quantization": {"dtype": "uint8", "min": -0.2656775982940898, "scale": 0.002579394158195047, "original_dtype": "float32"}}, {"name": "model_213/tf.nn.convolution_62/convolution/filter", "shape": [3, 3, 1, 1], "dtype": "float32", "quantization": {"dtype": "uint8", "min": -0.26106321811676025, "scale": 0.0024863163630167644, "original_dtype": "float32"}}, {"name": "model_213/tf.nn.convolution_63/convolution/filter", "shape": [3, 3, 1, 1], "dtype": "float32", "quantization": {"dtype": "uint8", "min": -0.4407334533392214, "scale": 0.0037994263218898397, "original_dtype": "float32"}}, {"name": "model_213/tf.nn.convolution_64/convolution/filter", "shape": [3, 3, 1, 1], "dtype": "float32", "quantization": {"dtype": "uint8", "min": -0.40894290512683346, "scale": 0.003717662773880304, "original_dtype": "float32"}}, {"name": "model_213/tf.nn.convolution_65/convolution/filter", "shape": [3, 3, 1, 1], "dtype": "float32", "quantization": {"dtype": "uint8", "min": -0.2897576843990999, "scale": 0.002541734073676315, "original_dtype": "float32"}}, {"name": "model_213/tf.nn.convolution_66/convolution/filter", "shape": [3, 3, 1, 1], "dtype": "float32", "quantization": {"dtype": "uint8", "min": -0.3491266848994236, "scale": 0.0026855898838417202, "original_dtype": "float32"}}, {"name": "model_213/tf.nn.convolution_67/convolution/filter", "shape": [3, 3, 1, 1], "dtype": "float32", "quantization": {"dtype": "uint8", "min": -0.23076124051037958, "scale": 0.0023076124051037957, "original_dtype": "float32"}}, {"name": "model_213/tf.nn.convolution_68/convolution/filter", "shape": [3, 3, 1, 1], "dtype": "float32", "quantization": {"dtype": "uint8", "min": -0.49166342055096346, "scale": 0.003588784091612872, "original_dtype": "float32"}}, {"name": "model_213/tf.nn.convolution_69/convolution/filter", "shape": [3, 3, 1, 1], "dtype": "float32", "quantization": {"dtype": "uint8", "min": -0.4081108317655675, "scale": 0.0026160950754203047, "original_dtype": "float32"}}, {"name": "model_213/tf.nn.convolution_70/convolution/filter", "shape": [3, 3, 1, 1], "dtype": "float32", "quantization": {"dtype": "uint8", "min": -0.631832771207772, "scale": 0.004611918038012934, "original_dtype": "float32"}}, {"name": "model_213/tf.nn.convolution_71/convolution/filter", "shape": [3, 3, 1, 1], "dtype": "float32", "quantization": {"dtype": "uint8", "min": -0.45912563835873327, "scale": 0.002716719753601972, "original_dtype": "float32"}}, {"name": "model_213/tf.nn.convolution_72/convolution/filter", "shape": [3, 3, 1, 1], "dtype": "float32", "quantization": {"dtype": "uint8", "min": -0.44066385731977575, "scale": 0.003125275583828197, "original_dtype": "float32"}}, {"name": "model_213/tf.nn.convolution_73/convolution/filter", "shape": [3, 3, 1, 1], "dtype": "float32", "quantization": {"dtype": "uint8", "min": -0.48230592853882737, "scale": 0.00408733837744769, "original_dtype": "float32"}}, {"name": "model_213/tf.nn.convolution_74/convolution/filter", "shape": [3, 3, 1, 1], "dtype": "float32", "quantization": {"dtype": "uint8", "min": -0.5376544375045628, "scale": 0.005024807827145446, "original_dtype": "float32"}}, {"name": "model_213/tf.nn.convolution_75/convolution/filter", "shape": [3, 3, 1, 1], "dtype": "float32", "quantization": {"dtype": "uint8", "min": -0.5476410984992981, "scale": 0.0029285620240604177, "original_dtype": "float32"}}, {"name": "model_213/tf.nn.convolution_76/convolution/filter", "shape": [3, 3, 1, 1], "dtype": "float32", "quantization": {"dtype": "uint8", "min": -0.7012277063201455, "scale": 0.0049036902539870315, "original_dtype": "float32"}}, {"name": "model_213/tf.nn.convolution_77/convolution/filter", "shape": [3, 3, 1, 1], "dtype": "float32", "quantization": {"dtype": "uint8", "min": -0.45348828446631334, "scale": 0.0032392020319022383, "original_dtype": "float32"}}, {"name": "model_213/tf.nn.convolution_78/convolution/filter", "shape": [3, 3, 1, 1], "dtype": "float32", "quantization": {"dtype": "uint8", "min": -0.11992991306618148, "scale": 0.0016891537051574857, "original_dtype": "float32"}}, {"name": "model_213/tf.nn.convolution_79/convolution/filter", "shape": [3, 3, 1, 1], "dtype": "float32", "quantization": {"dtype": "uint8", "min": -0.6220098126168345, "scale": 0.004784690866283342, "original_dtype": "float32"}}, {"name": "model_213/tf.nn.convolution_80/convolution/filter", "shape": [3, 3, 1, 1], "dtype": "float32", "quantization": {"dtype": "uint8", "min": -0.5289536504184499, "scale": 0.004852785783655503, "original_dtype": "float32"}}, {"name": "model_213/tf.nn.convolution_81/convolution/filter", "shape": [3, 3, 1, 1], "dtype": "float32", "quantization": {"dtype": "uint8", "min": -0.4955860698924346, "scale": 0.004424875624039594, "original_dtype": "float32"}}, {"name": "model_213/tf.nn.convolution_82/convolution/filter", "shape": [3, 3, 1, 1], "dtype": "float32", "quantization": {"dtype": "uint8", "min": -0.20674329604588304, "scale": 0.0019321803368774115, "original_dtype": "float32"}}, {"name": "model_213/tf.nn.convolution_83/convolution/filter", "shape": [3, 3, 1, 1], "dtype": "float32", "quantization": {"dtype": "uint8", "min": -0.24836881394479787, "scale": 0.0026996610211391073, "original_dtype": "float32"}}, {"name": "model_213/tf.nn.convolution_84/convolution/filter", "shape": [3, 3, 1, 1], "dtype": "float32", "quantization": {"dtype": "uint8", "min": -0.39022481570056844, "scale": 0.00358004418073916, "original_dtype": "float32"}}, {"name": "model_213/tf.nn.convolution_85/convolution/filter", "shape": [3, 3, 1, 1], "dtype": "float32", "quantization": {"dtype": "uint8", "min": -0.5318671676458097, "scale": 0.003569578306347716, "original_dtype": "float32"}}, {"name": "model_213/tf.nn.convolution_86/convolution/filter", "shape": [3, 3, 1, 1], "dtype": "float32", "quantization": {"dtype": "uint8", "min": -0.04014961474082049, "scale": 0.0016729006142008538, "original_dtype": "float32"}}, {"name": "model_213/tf.nn.convolution_87/convolution/filter", "shape": [3, 3, 1, 1], "dtype": "float32", "quantization": {"dtype": "uint8", "min": -0.33960550439124015, "scale": 0.0037319286196839576, "original_dtype": "float32"}}, {"name": "model_213/tf.nn.convolution_88/convolution/filter", "shape": [3, 3, 1, 1], "dtype": "float32", "quantization": {"dtype": "uint8", "min": -0.3990221160299638, "scale": 0.0027903644477619846, "original_dtype": "float32"}}, {"name": "model_213/tf.nn.convolution_89/convolution/filter", "shape": [3, 3, 1, 1], "dtype": "float32", "quantization": {"dtype": "uint8", "min": -0.5695543480854409, "scale": 0.004250405582727171, "original_dtype": "float32"}}, {"name": "model_213/tf.nn.convolution_90/convolution/filter", "shape": [3, 3, 1, 1], "dtype": "float32", "quantization": {"dtype": "uint8", "min": -0.46278503957916706, "scale": 0.00395542768871083, "original_dtype": "float32"}}, {"name": "model_213/tf.nn.convolution_91/convolution/filter", "shape": [3, 3, 1, 1], "dtype": "float32", "quantization": {"dtype": "uint8", "min": -0.42164066726086186, "scale": 0.0035732259937361175, "original_dtype": "float32"}}, {"name": "model_213/tf.nn.convolution_92/convolution/filter", "shape": [3, 3, 1, 1], "dtype": "float32", "quantization": {"dtype": "uint8", "min": -0.5100304337108836, "scale": 0.004047860585007013, "original_dtype": "float32"}}, {"name": "model_213/tf.nn.convolution_93/convolution/filter", "shape": [3, 3, 1, 1], "dtype": "float32", "quantization": {"dtype": "uint8", "min": -0.557898056156495, "scale": 0.0040722485850839055, "original_dtype": "float32"}}, {"name": "model_213/tf.nn.convolution_94/convolution/filter", "shape": [3, 3, 1, 1], "dtype": "float32", "quantization": {"dtype": "uint8", "min": -0.515056396933163, "scale": 0.00408774918200923, "original_dtype": "float32"}}, {"name": "model_213/tf.nn.convolution_95/convolution/filter", "shape": [3, 3, 1, 1], "dtype": "float32", "quantization": {"dtype": "uint8", "min": -0.262374771342558, "scale": 0.0031235091826495, "original_dtype": "float32"}}, {"name": "model_213/tf.nn.convolution_96/convolution/filter", "shape": [3, 3, 1, 1], "dtype": "float32", "quantization": {"dtype": "uint8", "min": -0.4334630447275498, "scale": 0.002643067345899694, "original_dtype": "float32"}}, {"name": "model_213/tf.nn.convolution_97/convolution/filter", "shape": [3, 3, 1, 1], "dtype": "float32", "quantization": {"dtype": "uint8", "min": -0.31682927047505094, "scale": 0.003370524153989904, "original_dtype": "float32"}}, {"name": "model_213/tf.split/split/split_dim", "shape": [], "dtype": "int32"}, {"name": "model_213/tf.nn.convolution_31/convolution/filter", "shape": [1, 1, 64, 32], "dtype": "float32", "quantization": {"dtype": "uint8", "min": -0.552648333007214, "scale": 0.004351561677222158, "original_dtype": "float32"}}, {"name": "model_213/tf.math.add_43/Add/y", "shape": [32], "dtype": "float32", "quantization": {"dtype": "uint8", "min": -0.47228143881349005, "scale": 0.003349513750450284, "original_dtype": "float32"}}, {"name": "model_213/tf.concat_6/concat/axis", "shape": [], "dtype": "int32"}, {"name": "model_213/tf.nn.convolution_32/convolution/filter", "shape": [1, 1, 128, 64], "dtype": "float32", "quantization": {"dtype": "uint8", "min": -0.4529884911635343, "scale": 0.0026804052731570077, "original_dtype": "float32"}}, {"name": "model_213/tf.math.add_44/Add/y", "shape": [64], "dtype": "float32", "quantization": {"dtype": "uint8", "min": -2.5710158591176953, "scale": 0.02107390048457127, "original_dtype": "float32"}}, {"name": "model_213/tf.strided_slice_6/ones_like/tensor", "shape": [4], "dtype": "int32"}, {"name": "model_213/tf.strided_slice_6/StridedSlice/end", "shape": [4], "dtype": "int32"}, {"name": "model_213/tf.strided_slice_6/ones_like", "shape": [4], "dtype": "int32"}, {"name": "model_213/tf.nn.convolution_23/convolution/filter", "shape": [1, 1, 32, 16], "dtype": "float32", "quantization": {"dtype": "uint8", "min": -0.5950337727864583, "scale": 0.0046487013498942055, "original_dtype": "float32"}}, {"name": "model_213/tf.math.add_31/Add/y", "shape": [16], "dtype": "float32", "quantization": {"dtype": "uint8", "min": -0.961012754837672, "scale": 0.005031480391820272, "original_dtype": "float32"}}, {"name": "model_213/tf.nn.convolution_25/convolution/filter", "shape": [3, 3, 16, 16], "dtype": "float32", "quantization": {"dtype": "uint8", "min": -0.4156540141386144, "scale": 0.0029479008094937193, "original_dtype": "float32"}}, {"name": "model_213/tf.math.add_33/Add/y", "shape": [16], "dtype": "float32", "quantization": {"dtype": "uint8", "min": -0.7583027264651131, "scale": 0.005494947293225457, "original_dtype": "float32"}}, {"name": "model_213/tf.nn.convolution_26/convolution/filter", "shape": [3, 3, 16, 16], "dtype": "float32", "quantization": {"dtype": "uint8", "min": -0.3943906062958287, "scale": 0.0028373424913368975, "original_dtype": "float32"}}, {"name": "model_213/tf.math.add_34/Add/y", "shape": [16], "dtype": "float32", "quantization": {"dtype": "uint8", "min": -0.2853877187943926, "scale": 0.004678487193350699, "original_dtype": "float32"}}, {"name": "model_213/tf.nn.convolution_27/convolution/filter", "shape": [3, 3, 16, 16], "dtype": "float32", "quantization": {"dtype": "uint8", "min": -0.22806866729960723, "scale": 0.0017543743638431324, "original_dtype": "float32"}}, {"name": "model_213/tf.math.add_37/Add/y", "shape": [16], "dtype": "float32", "quantization": {"dtype": "uint8", "min": -0.6759247340408026, "scale": 0.006317053589166379, "original_dtype": "float32"}}, {"name": "model_213/tf.nn.convolution_28/convolution/filter", "shape": [3, 3, 16, 16], "dtype": "float32", "quantization": {"dtype": "uint8", "min": -0.446027283224405, "scale": 0.0032556736001781387, "original_dtype": "float32"}}, {"name": "model_213/tf.math.add_38/Add/y", "shape": [16], "dtype": "float32", "quantization": {"dtype": "uint8", "min": -0.4038628767518436, "scale": 0.00407942299749337, "original_dtype": "float32"}}, {"name": "model_213/tf.strided_slice_4/ones_like/tensor", "shape": [4], "dtype": "int32"}, {"name": "model_213/tf.strided_slice_4/StridedSlice/end", "shape": [4], "dtype": "int32"}, {"name": "model_213/tf.strided_slice_4/ones_like", "shape": [4], "dtype": "int32"}, {"name": "model_213/tf.nn.convolution_13/convolution/filter", "shape": [1, 1, 16, 8], "dtype": "float32", "quantization": {"dtype": "uint8", "min": -0.9109327428481158, "scale": 0.007116662053500904, "original_dtype": "float32"}}, {"name": "model_213/tf.math.add_17/Add/y", "shape": [8], "dtype": "float32", "quantization": {"dtype": "uint8", "min": -0.5829880086814656, "scale": 0.003860847739612355, "original_dtype": "float32"}}, {"name": "model_213/tf.nn.convolution_15/convolution/filter", "shape": [3, 3, 8, 8], "dtype": "float32", "quantization": {"dtype": "uint8", "min": -0.5151259843040915, "scale": 0.0036533757752063227, "original_dtype": "float32"}}, {"name": "model_213/tf.math.add_19/Add/y", "shape": [8], "dtype": "float32", "quantization": {"dtype": "uint8", "min": -0.5402688463528951, "scale": 0.004540074339099959, "original_dtype": "float32"}}, {"name": "model_213/tf.nn.convolution_16/convolution/filter", "shape": [3, 3, 8, 8], "dtype": "float32", "quantization": {"dtype": "uint8", "min": -0.5098762890871833, "scale": 0.004145335683635637, "original_dtype": "float32"}}, {"name": "model_213/tf.math.add_20/Add/y", "shape": [8], "dtype": "float32", "quantization": {"dtype": "uint8", "min": -0.46972404683337493, "scale": 0.0034794373839509255, "original_dtype": "float32"}}, {"name": "model_213/tf.nn.convolution_17/convolution/filter", "shape": [3, 3, 8, 8], "dtype": "float32", "quantization": {"dtype": "uint8", "min": -0.3245937468958836, "scale": 0.0024405544879389745, "original_dtype": "float32"}}, {"name": "model_213/tf.math.add_23/Add/y", "shape": [8], "dtype": "float32", "quantization": {"dtype": "uint8", "min": -0.8991191751816694, "scale": 0.006243883160983815, "original_dtype": "float32"}}, {"name": "model_213/tf.nn.convolution_18/convolution/filter", "shape": [3, 3, 8, 8], "dtype": "float32", "quantization": {"dtype": "uint8", "min": -0.33967261220894607, "scale": 0.0027173808976715687, "original_dtype": "float32"}}, {"name": "model_213/tf.math.add_24/Add/y", "shape": [8], "dtype": "float32", "quantization": {"dtype": "uint8", "min": -0.31855751790252385, "scale": 0.0035792979539609423, "original_dtype": "float32"}}, {"name": "model_213/tf.strided_slice_2/ones_like/tensor", "shape": [4], "dtype": "int32"}, {"name": "model_213/tf.strided_slice_2/StridedSlice/end", "shape": [4], "dtype": "int32"}, {"name": "model_213/tf.strided_slice_2/ones_like", "shape": [4], "dtype": "int32"}, {"name": "model_213/tf.strided_slice/ones_like/tensor", "shape": [4], "dtype": "int32"}, {"name": "model_213/tf.strided_slice/StridedSlice/end", "shape": [4], "dtype": "int32"}, {"name": "model_213/tf.strided_slice/ones_like", "shape": [4], "dtype": "int32"}, {"name": "model_213/tf.compat.v1.pad/Pad/paddings", "shape": [4, 2], "dtype": "int32"}, {"name": "model_213/tf.nn.convolution/convolution/filter", "shape": [3, 3, 3, 8], "dtype": "float32", "quantization": {"dtype": "uint8", "min": -5.607456369961009, "scale": 0.04093033846686868, "original_dtype": "float32"}}, {"name": "model_213/tf.math.add/Add/y", "shape": [8], "dtype": "float32", "quantization": {"dtype": "uint8", "min": 0.6597628593444824, "scale": 0.006908489676082836, "original_dtype": "float32"}}, {"name": "model_213/tf.compat.v1.pad_1/Pad/paddings", "shape": [4, 2], "dtype": "int32"}, {"name": "model_213/tf.nn.convolution_1/convolution/filter", "shape": [3, 3, 8, 8], "dtype": "float32", "quantization": {"dtype": "uint8", "min": -1.1134172439575196, "scale": 0.008186891499687644, "original_dtype": "float32"}}, {"name": "model_213/tf.math.add_1/Add/y", "shape": [8], "dtype": "float32", "quantization": {"dtype": "uint8", "min": -0.3041620751221975, "scale": 0.003578377354378794, "original_dtype": "float32"}}, {"name": "model_213/tf.nn.convolution_2/convolution/filter", "shape": [1, 1, 8, 8], "dtype": "float32", "quantization": {"dtype": "uint8", "min": -0.9846921032550289, "scale": 0.007941065348830878, "original_dtype": "float32"}}, {"name": "model_213/tf.math.add_2/Add/y", "shape": [8], "dtype": "float32", "quantization": {"dtype": "uint8", "min": -0.2127261577867994, "scale": 0.0027990283919315712, "original_dtype": "float32"}}, {"name": "model_213/tf.strided_slice_1/ones_like/tensor", "shape": [4], "dtype": "int32"}, {"name": "model_213/tf.strided_slice_1/StridedSlice/end", "shape": [4], "dtype": "int32"}, {"name": "model_213/tf.strided_slice_1/ones_like", "shape": [4], "dtype": "int32"}, {"name": "model_213/tf.nn.convolution_3/convolution/filter", "shape": [3, 3, 4, 2], "dtype": "float32", "quantization": {"dtype": "uint8", "min": -0.47506993810335796, "scale": 0.003992184353809731, "original_dtype": "float32"}}, {"name": "model_213/tf.math.add_3/Add/y", "shape": [2], "dtype": "float32", "quantization": {"dtype": "uint8", "min": -0.47709500789642334, "scale": 0.0006571805944629744, "original_dtype": "float32"}}, {"name": "model_213/tf.nn.convolution_4/convolution/filter", "shape": [3, 3, 2, 4], "dtype": "float32", "quantization": {"dtype": "uint8", "min": -0.4368367218503765, "scale": 0.0032599755361968396, "original_dtype": "float32"}}, {"name": "model_213/tf.math.add_4/Add/y", "shape": [4], "dtype": "float32", "quantization": {"dtype": "uint8", "min": 0.03524269163608551, "scale": 0.0010082154297361187, "original_dtype": "float32"}}, {"name": "model_213/tf.concat/concat/axis", "shape": [], "dtype": "int32"}, {"name": "model_213/tf.nn.convolution_5/convolution/filter", "shape": [1, 1, 12, 16], "dtype": "float32", "quantization": {"dtype": "uint8", "min": -1.252509124138776, "scale": 0.009277845363990933, "original_dtype": "float32"}}, {"name": "model_213/tf.math.add_7/Add/y", "shape": [16], "dtype": "float32", "quantization": {"dtype": "uint8", "min": -0.3376013545429005, "scale": 0.0048927732542449354, "original_dtype": "float32"}}, {"name": "model_213/tf.compat.v1.pad_2/Pad/paddings", "shape": [4, 2], "dtype": "int32"}, {"name": "model_213/tf.nn.convolution_6/convolution/filter", "shape": [3, 3, 16, 16], "dtype": "float32", "quantization": {"dtype": "uint8", "min": -0.5266767349897646, "scale": 0.003607374897190169, "original_dtype": "float32"}}, {"name": "model_213/tf.math.add_8/Add/y", "shape": [16], "dtype": "float32", "quantization": {"dtype": "uint8", "min": -0.3416833980410707, "scale": 0.0038827658868303486, "original_dtype": "float32"}}, {"name": "model_213/tf.nn.convolution_7/convolution/filter", "shape": [1, 1, 16, 16], "dtype": "float32", "quantization": {"dtype": "uint8", "min": -0.7620507637659709, "scale": 0.006403787930806478, "original_dtype": "float32"}}, {"name": "model_213/tf.math.add_9/Add/y", "shape": [16], "dtype": "float32", "quantization": {"dtype": "uint8", "min": -0.4029957245377933, "scale": 0.004632134764802222, "original_dtype": "float32"}}, {"name": "model_213/tf.strided_slice_3/ones_like/tensor", "shape": [4], "dtype": "int32"}, {"name": "model_213/tf.strided_slice_3/StridedSlice/end", "shape": [4], "dtype": "int32"}, {"name": "model_213/tf.strided_slice_3/ones_like", "shape": [4], "dtype": "int32"}, {"name": "model_213/tf.nn.convolution_8/convolution/filter", "shape": [3, 3, 8, 4], "dtype": "float32", "quantization": {"dtype": "uint8", "min": -0.2970413209176531, "scale": 0.0022674909993713977, "original_dtype": "float32"}}, {"name": "model_213/tf.math.add_10/Add/y", "shape": [4], "dtype": "float32", "quantization": {"dtype": "uint8", "min": -0.03725445913333519, "scale": 0.0014328638128205842, "original_dtype": "float32"}}, {"name": "model_213/tf.nn.convolution_9/convolution/filter", "shape": [3, 3, 4, 8], "dtype": "float32", "quantization": {"dtype": "uint8", "min": -0.5226639462452309, "scale": 0.0037333139017516493, "original_dtype": "float32"}}, {"name": "model_213/tf.math.add_11/Add/y", "shape": [8], "dtype": "float32", "quantization": {"dtype": "uint8", "min": -0.22737169961134593, "scale": 0.0019106865513558481, "original_dtype": "float32"}}, {"name": "model_213/tf.concat_1/concat/axis", "shape": [], "dtype": "int32"}, {"name": "model_213/tf.nn.convolution_10/convolution/filter", "shape": [1, 1, 24, 32], "dtype": "float32", "quantization": {"dtype": "uint8", "min": -1.0589582218843347, "scale": 0.008609416438084022, "original_dtype": "float32"}}, {"name": "model_213/tf.math.add_14/Add/y", "shape": [32], "dtype": "float32", "quantization": {"dtype": "uint8", "min": -0.8042841132949381, "scale": 0.0078085836242227, "original_dtype": "float32"}}, {"name": "model_213/tf.compat.v1.pad_3/Pad/paddings", "shape": [4, 2], "dtype": "int32"}, {"name": "model_213/tf.nn.convolution_11/convolution/filter", "shape": [3, 3, 32, 32], "dtype": "float32", "quantization": {"dtype": "uint8", "min": -0.2537353510950126, "scale": 0.002079797959795185, "original_dtype": "float32"}}, {"name": "model_213/tf.math.add_15/Add/y", "shape": [32], "dtype": "float32", "quantization": {"dtype": "uint8", "min": -0.7917030278374168, "scale": 0.006597525231978473, "original_dtype": "float32"}}, {"name": "model_213/tf.nn.convolution_12/convolution/filter", "shape": [1, 1, 32, 32], "dtype": "float32", "quantization": {"dtype": "uint8", "min": -0.9515780420864329, "scale": 0.0068954930585973405, "original_dtype": "float32"}}, {"name": "model_213/tf.math.add_16/Add/y", "shape": [32], "dtype": "float32", "quantization": {"dtype": "uint8", "min": -0.9017558892567952, "scale": 0.009017558892567952, "original_dtype": "float32"}}, {"name": "model_213/tf.strided_slice_5/ones_like/tensor", "shape": [4], "dtype": "int32"}, {"name": "model_213/tf.strided_slice_5/StridedSlice/end", "shape": [4], "dtype": "int32"}, {"name": "model_213/tf.strided_slice_5/ones_like", "shape": [4], "dtype": "int32"}, {"name": "model_213/tf.nn.convolution_14/convolution/filter", "shape": [1, 1, 16, 8], "dtype": "float32", "quantization": {"dtype": "uint8", "min": -0.870082870651694, "scale": 0.006851046225603889, "original_dtype": "float32"}}, {"name": "model_213/tf.math.add_18/Add/y", "shape": [8], "dtype": "float32", "quantization": {"dtype": "uint8", "min": -0.5784646258634679, "scale": 0.004017115457385194, "original_dtype": "float32"}}, {"name": "model_213/tf.concat_2/concat/axis", "shape": [], "dtype": "int32"}, {"name": "model_213/tf.nn.convolution_19/convolution/filter", "shape": [1, 1, 16, 16], "dtype": "float32", "quantization": {"dtype": "uint8", "min": -0.4952225236331715, "scale": 0.004585393737344181, "original_dtype": "float32"}}, {"name": "model_213/tf.math.add_27/Add/y", "shape": [16], "dtype": "float32", "quantization": {"dtype": "uint8", "min": -0.31664151654523964, "scale": 0.0033330685952130488, "original_dtype": "float32"}}, {"name": "model_213/tf.concat_3/concat/axis", "shape": [], "dtype": "int32"}, {"name": "model_213/tf.nn.convolution_20/convolution/filter", "shape": [1, 1, 48, 32], "dtype": "float32", "quantization": {"dtype": "uint8", "min": -0.7041425101897295, "scale": 0.005588432620553409, "original_dtype": "float32"}}, {"name": "model_213/tf.math.add_28/Add/y", "shape": [32], "dtype": "float32", "quantization": {"dtype": "uint8", "min": -0.43248770283717736, "scale": 0.005406096285464717, "original_dtype": "float32"}}, {"name": "model_213/tf.compat.v1.pad_4/Pad/paddings", "shape": [4, 2], "dtype": "int32"}, {"name": "model_213/tf.nn.convolution_21/convolution/filter", "shape": [3, 3, 32, 64], "dtype": "float32", "quantization": {"dtype": "uint8", "min": -0.24956434281433326, "scale": 0.002028978396864498, "original_dtype": "float32"}}, {"name": "model_213/tf.math.add_29/Add/y", "shape": [64], "dtype": "float32", "quantization": {"dtype": "uint8", "min": -0.5976232687632244, "scale": 0.007030861985449698, "original_dtype": "float32"}}, {"name": "model_213/tf.nn.convolution_22/convolution/filter", "shape": [1, 1, 64, 64], "dtype": "float32", "quantization": {"dtype": "uint8", "min": -0.5149263879832099, "scale": 0.003842734238680671, "original_dtype": "float32"}}, {"name": "model_213/tf.math.add_30/Add/y", "shape": [64], "dtype": "float32", "quantization": {"dtype": "uint8", "min": -0.8134541583996193, "scale": 0.007198709366368313, "original_dtype": "float32"}}, {"name": "model_213/tf.strided_slice_7/ones_like/tensor", "shape": [4], "dtype": "int32"}, {"name": "model_213/tf.strided_slice_7/StridedSlice/end", "shape": [4], "dtype": "int32"}, {"name": "model_213/tf.strided_slice_7/ones_like", "shape": [4], "dtype": "int32"}, {"name": "model_213/tf.nn.convolution_24/convolution/filter", "shape": [1, 1, 32, 16], "dtype": "float32", "quantization": {"dtype": "uint8", "min": -0.8612421540653005, "scale": 0.00717701795054417, "original_dtype": "float32"}}, {"name": "model_213/tf.math.add_32/Add/y", "shape": [16], "dtype": "float32", "quantization": {"dtype": "uint8", "min": -0.4527574823183172, "scale": 0.004573307902205224, "original_dtype": "float32"}}, {"name": "model_213/tf.concat_4/concat/axis", "shape": [], "dtype": "int32"}, {"name": "model_213/tf.nn.convolution_29/convolution/filter", "shape": [1, 1, 32, 32], "dtype": "float32", "quantization": {"dtype": "uint8", "min": -0.5469503763843986, "scale": 0.0038790806835772946, "original_dtype": "float32"}}, {"name": "model_213/tf.math.add_41/Add/y", "shape": [32], "dtype": "float32", "quantization": {"dtype": "uint8", "min": -0.8272841509650735, "scale": 0.008617543239219516, "original_dtype": "float32"}}, {"name": "model_213/tf.concat_5/concat/axis", "shape": [], "dtype": "int32"}, {"name": "model_213/tf.nn.convolution_30/convolution/filter", "shape": [1, 1, 96, 64], "dtype": "float32", "quantization": {"dtype": "uint8", "min": -0.4464377944375954, "scale": 0.0034079220949434766, "original_dtype": "float32"}}, {"name": "model_213/tf.math.add_42/Add/y", "shape": [64], "dtype": "float32", "quantization": {"dtype": "uint8", "min": -0.4832212435264213, "scale": 0.004691468383751663, "original_dtype": "float32"}}, {"name": "model_213/tf.nn.convolution_33/convolution/filter", "shape": [1, 1, 64, 128], "dtype": "float32", "quantization": {"dtype": "uint8", "min": -0.4011195762484681, "scale": 0.003133746689441157, "original_dtype": "float32"}}, {"name": "model_213/tf.math.add_47/Add/y", "shape": [128], "dtype": "float32", "quantization": {"dtype": "uint8", "min": -0.9028894901275635, "scale": 0.008598947525024414, "original_dtype": "float32"}}, {"name": "model_213/tf.strided_slice_9/StridedSlice/begin", "shape": [4], "dtype": "int32"}, {"name": "model_213/tf.strided_slice_9/StridedSlice/end", "shape": [4], "dtype": "int32"}, {"name": "model_213/tf.strided_slice_9/ones_like", "shape": [4], "dtype": "int32"}, {"name": "model_213/tf.nn.convolution_34/convolution/filter", "shape": [1, 1, 64, 128], "dtype": "float32", "quantization": {"dtype": "uint8", "min": -0.7853418425017712, "scale": 0.006041091096167471, "original_dtype": "float32"}}, {"name": "model_213/tf.math.add_48/Add/y", "shape": [128], "dtype": "float32", "quantization": {"dtype": "uint8", "min": -0.6722664868130404, "scale": 0.006056454836153516, "original_dtype": "float32"}}, {"name": "model_213/tf.compat.v1.transpose_42/transpose/perm", "shape": [4], "dtype": "int32"}, {"name": "model_213/tf.reshape_2/Reshape/shape", "shape": [4], "dtype": "int32"}, {"name": "model_213/tf.strided_slice_12/StridedSlice/begin", "shape": [4], "dtype": "int32"}, {"name": "model_213/tf.strided_slice_12/StridedSlice/end", "shape": [4], "dtype": "int32"}, {"name": "model_213/tf.strided_slice_12/ones_like", "shape": [4], "dtype": "int32"}, {"name": "model_213/tf.reshape_5/Reshape/shape", "shape": [4], "dtype": "int32"}, {"name": "model_213/tf.compat.v1.transpose_94/transpose/perm", "shape": [4], "dtype": "int32"}, {"name": "model_213/tf.nn.convolution_98/convolution/filter", "shape": [3, 3, 1, 1], "dtype": "float32", "quantization": {"dtype": "uint8", "min": -0.6240556268131031, "scale": 0.004522142223283356, "original_dtype": "float32"}}, {"name": "model_213/tf.concat_7/concat/axis", "shape": [], "dtype": "int32"}, {"name": "model_213/tf.nn.convolution_99/convolution/filter", "shape": [1, 1, 64, 64], "dtype": "float32", "quantization": {"dtype": "uint8", "min": -0.2576097077014399, "scale": 0.0020125758414174994, "original_dtype": "float32"}}, {"name": "model_213/tf.math.add_52/Add/y", "shape": [64], "dtype": "float32", "quantization": {"dtype": "uint8", "min": -0.2005778099976334, "scale": 0.0016440804098166672, "original_dtype": "float32"}}, {"name": "model_213/tf.nn.convolution_100/convolution/filter", "shape": [1, 1, 64, 128], "dtype": "float32", "quantization": {"dtype": "uint8", "min": -0.37245899473919586, "scale": 0.0028872790289860145, "original_dtype": "float32"}}, {"name": "model_213/tf.math.add_55/Add/y", "shape": [128], "dtype": "float32", "quantization": {"dtype": "uint8", "min": -0.3739513018551995, "scale": 0.002991610414841596, "original_dtype": "float32"}}, {"name": "model_213/tf.nn.convolution_101/convolution/filter", "shape": [1, 1, 128, 64], "dtype": "float32", "quantization": {"dtype": "uint8", "min": -0.5408856133619944, "scale": 0.0038912634054819742, "original_dtype": "float32"}}, {"name": "model_213/tf.concat_8/concat/axis", "shape": [], "dtype": "int32"}, {"name": "model_213/tf.nn.convolution_102/convolution/filter", "shape": [1, 1, 128, 64], "dtype": "float32", "quantization": {"dtype": "uint8", "min": -0.19763154375786873, "scale": 0.001520242644291298, "original_dtype": "float32"}}, {"name": "model_213/tf.math.add_59/Add/y", "shape": [64], "dtype": "float32", "quantization": {"dtype": "uint8", "min": -0.185983616698022, "scale": 0.0015244558745739507, "original_dtype": "float32"}}, {"name": "model_213/tf.concat_18/concat/axis", "shape": [], "dtype": "int32"}, {"name": "model_213/tf.nn.convolution_141/convolution/filter", "shape": [1, 1, 192, 256], "dtype": "float32", "quantization": {"dtype": "uint8", "min": -0.33223066552012576, "scale": 0.002657845324161006, "original_dtype": "float32"}}, {"name": "model_213/tf.math.add_113/Add/y", "shape": [256], "dtype": "float32", "quantization": {"dtype": "uint8", "min": -0.7223286322518891, "scale": 0.006750734880858777, "original_dtype": "float32"}}, {"name": "model_213/tf.strided_slice_20/ones_like/tensor", "shape": [4], "dtype": "int32"}, {"name": "model_213/tf.strided_slice_20/StridedSlice/end", "shape": [4], "dtype": "int32"}, {"name": "model_213/tf.strided_slice_20/ones_like", "shape": [4], "dtype": "int32"}, {"name": "model_213/tf.nn.convolution_143/convolution/filter", "shape": [3, 3, 128, 64], "dtype": "float32", "quantization": {"dtype": "uint8", "min": -0.14200192339280074, "scale": 0.0011833493616066728, "original_dtype": "float32"}}, {"name": "model_213/tf.math.add_116/Add/y", "shape": [64], "dtype": "float32", "quantization": {"dtype": "uint8", "min": -0.5802971547725154, "scale": 0.007345533604715385, "original_dtype": "float32"}}, {"name": "model_213/tf.nn.convolution_145/convolution/filter", "shape": [3, 3, 64, 128], "dtype": "float32", "quantization": {"dtype": "uint8", "min": -0.1853338409872616, "scale": 0.0014256449306712432, "original_dtype": "float32"}}, {"name": "model_213/tf.math.add_118/Add/y", "shape": [128], "dtype": "float32", "quantization": {"dtype": "uint8", "min": -0.9257901930341533, "scale": 0.008416274482128666, "original_dtype": "float32"}}, {"name": "model_213/tf.nn.convolution_147/convolution/filter", "shape": [1, 1, 128, 256], "dtype": "float32", "quantization": {"dtype": "uint8", "min": -0.28796825034945617, "scale": 0.0022497519558551263, "original_dtype": "float32"}}, {"name": "model_213/tf.math.add_122/Add/y", "shape": [256], "dtype": "float32", "quantization": {"dtype": "uint8", "min": -1.635061161658343, "scale": 0.01176302993998808, "original_dtype": "float32"}}, {"name": "model_213/tf.compat.v1.transpose_297/transpose/perm", "shape": [4], "dtype": "int32"}, {"name": "model_213/tf.reshape_46/Reshape/shape", "shape": [4], "dtype": "int32"}, {"name": "model_213/tf.strided_slice_23/StridedSlice/begin", "shape": [4], "dtype": "int32"}, {"name": "model_213/tf.strided_slice_23/StridedSlice/end", "shape": [4], "dtype": "int32"}, {"name": "model_213/tf.strided_slice_23/ones_like", "shape": [4], "dtype": "int32"}, {"name": "model_213/tf.reshape_49/Reshape/shape", "shape": [4], "dtype": "int32"}, {"name": "model_213/tf.compat.v1.transpose_313/transpose/perm", "shape": [4], "dtype": "int32"}, {"name": "model_213/tf.nn.convolution_275/convolution/filter", "shape": [3, 3, 1, 1], "dtype": "float32", "quantization": {"dtype": "uint8", "min": -0.6088648669859942, "scale": 0.004950120869804831, "original_dtype": "float32"}}, {"name": "model_213/tf.concat_19/concat/axis", "shape": [], "dtype": "int32"}, {"name": "model_213/tf.nn.convolution_276/convolution/filter", "shape": [1, 1, 128, 128], "dtype": "float32", "quantization": {"dtype": "uint8", "min": -0.20734137226553523, "scale": 0.0015827585669124828, "original_dtype": "float32"}}, {"name": "model_213/tf.nn.convolution_277/convolution/filter", "shape": [1, 1, 128, 256], "dtype": "float32", "quantization": {"dtype": "uint8", "min": -0.175170150457644, "scale": 0.0013685168004503438, "original_dtype": "float32"}}, {"name": "model_213/tf.math.add_129/Add/y", "shape": [256], "dtype": "float32", "quantization": {"dtype": "uint8", "min": -0.9637118774301866, "scale": 0.0067867033621844125, "original_dtype": "float32"}}, {"name": "model_213/tf.nn.convolution_278/convolution/filter", "shape": [1, 1, 256, 128], "dtype": "float32", "quantization": {"dtype": "uint8", "min": -0.303918701059678, "scale": 0.0024120531830133175, "original_dtype": "float32"}}, {"name": "model_213/tf.concat_20/concat/axis", "shape": [], "dtype": "int32"}, {"name": "model_213/tf.nn.convolution_279/convolution/filter", "shape": [1, 1, 384, 256], "dtype": "float32", "quantization": {"dtype": "uint8", "min": -0.11144438368432662, "scale": 0.0008775148321600522, "original_dtype": "float32"}}, {"name": "model_213/tf.math.add_133/Add/y", "shape": [256], "dtype": "float32", "quantization": {"dtype": "uint8", "min": -0.5344531797895244, "scale": 0.005453603875403311, "original_dtype": "float32"}}, {"name": "model_213/tf.compat.v1.nn.depthwise_conv2d_4/depthwise/filter_in", "shape": [3, 3, 256, 1], "dtype": "float32", "quantization": {"dtype": "uint8", "min": -3.203368537566241, "scale": 0.023728655833824008, "original_dtype": "float32"}}, {"name": "model_213/tf.math.add_135/Add/y", "shape": [256], "dtype": "float32", "quantization": {"dtype": "uint8", "min": -0.5101206945438012, "scale": 0.004514342429591161, "original_dtype": "float32"}}, {"name": "model_213/tf.nn.convolution_282/convolution/filter", "shape": [1, 1, 256, 64], "dtype": "float32", "quantization": {"dtype": "uint8", "min": -0.30051781184533066, "scale": 0.0021935606704038733, "original_dtype": "float32"}}, {"name": "model_213/tf.math.add_137/Add/y", "shape": [64], "dtype": "float32", "quantization": {"dtype": "uint8", "min": -0.3927794754505157, "scale": 0.0056924561659495035, "original_dtype": "float32"}}, {"name": "model_213/tf.compat.v1.nn.depthwise_conv2d_5/depthwise/filter_in", "shape": [3, 3, 64, 1], "dtype": "float32", "quantization": {"dtype": "uint8", "min": -3.0599617864571367, "scale": 0.021856869903265262, "original_dtype": "float32"}}, {"name": "model_213/tf.math.add_139/Add/y", "shape": [64], "dtype": "float32", "quantization": {"dtype": "uint8", "min": -0.530451602561801, "scale": 0.004736175022873224, "original_dtype": "float32"}}, {"name": "model_213/tf.nn.convolution_284/convolution/filter", "shape": [1, 1, 64, 64], "dtype": "float32", "quantization": {"dtype": "uint8", "min": -0.9706371952505672, "scale": 0.007033602864134545, "original_dtype": "float32"}}, {"name": "model_213/tf.math.add_140/Add/y", "shape": [64], "dtype": "float32", "quantization": {"dtype": "uint8", "min": 0.23961636424064636, "scale": 0.006413461764653524, "original_dtype": "float32"}}, {"name": "model_213/tf.nn.convolution_286/convolution/filter", "shape": [1, 1, 64, 59], "dtype": "float32", "quantization": {"dtype": "uint8", "min": -0.3945197610294118, "scale": 0.002144129136029412, "original_dtype": "float32"}}, {"name": "model_213/tf.math.add_141/Add/y", "shape": [59], "dtype": "float32", "quantization": {"dtype": "uint8", "min": -8.625, "scale": 0.00027573529411764705, "original_dtype": "float32"}}, {"name": "model_213/tf.compat.v1.transpose_416/transpose/perm", "shape": [4], "dtype": "int32"}, {"name": "model_213/tf.reshape_110/Reshape/shape", "shape": [3], "dtype": "int32"}, {"name": "model_213/tf.concat_22/concat/axis", "shape": [], "dtype": "int32"}, {"name": "model_213/output0/concat/axis", "shape": [], "dtype": "int32"}]}]}