{"format": "graph-model", "generatedBy": "2.19.0", "convertedBy": "TensorFlow.js Converter v4.22.0", "signature": {"outputs": {"Identity:0": {"name": "Identity:0"}, "model_358/tf.math.top_k/TopKV2:0": {"name": "model_358/tf.math.top_k/TopKV2:0"}}}, "modelTopology": {"node": [{"name": "model_358/tf.strided_slice_26/StridedSlice/begin", "op": "Const", "attr": {"value": {"tensor": {"dtype": "DT_INT32", "tensorShape": {"dim": [{"size": "3"}]}}}, "dtype": {"type": "DT_INT32"}}}, {"name": "model_358/tf.strided_slice_26/StridedSlice/end", "op": "Const", "attr": {"value": {"tensor": {"dtype": "DT_INT32", "tensorShape": {"dim": [{"size": "3"}]}}}, "dtype": {"type": "DT_INT32"}}}, {"name": "model_358/tf.strided_slice_26/ones_like", "op": "Const", "attr": {"value": {"tensor": {"dtype": "DT_INT32", "tensorShape": {"dim": [{"size": "3"}]}}}, "dtype": {"type": "DT_INT32"}}}, {"name": "model_358/tf.reshape_267/Reshape/shape", "op": "Const", "attr": {"value": {"tensor": {"dtype": "DT_INT32", "tensorShape": {"dim": [{"size": "2"}]}}}, "dtype": {"type": "DT_INT32"}}}, {"name": "ConstantFolding/model_358/tf.math.divide/truediv_recip", "op": "Const", "attr": {"value": {"tensor": {"dtype": "DT_FLOAT", "tensorShape": {}}}, "dtype": {"type": "DT_FLOAT"}}}, {"name": "model_358/tf.math.less/Less/y", "op": "Const", "attr": {"value": {"tensor": {"dtype": "DT_INT64", "tensorShape": {}}}, "dtype": {"type": "DT_INT64"}}}, {"name": "model_358/tf.__operators__.getitem_12/strided_slice", "op": "Const", "attr": {"value": {"tensor": {"dtype": "DT_INT64", "tensorShape": {}}}, "dtype": {"type": "DT_INT64"}}}, {"name": "model_358/tf.compat.v1.gather/GatherV2/axis", "op": "Const", "attr": {"value": {"tensor": {"dtype": "DT_INT32", "tensorShape": {}}}, "dtype": {"type": "DT_INT32"}}}, {"name": "model_358/tf.tile_38/Tile/multiples", "op": "Const", "attr": {"value": {"tensor": {"dtype": "DT_INT64", "tensorShape": {"dim": [{"size": "3"}]}}}, "dtype": {"type": "DT_INT64"}}}, {"name": "model_358/tf.math.add_144/Add/y", "op": "Const", "attr": {"value": {"tensor": {"dtype": "DT_INT64", "tensorShape": {}}}, "dtype": {"type": "DT_INT64"}}}, {"name": "model_358/tf.expand_dims_24/ExpandDims/dim", "op": "Const", "attr": {"value": {"tensor": {"dtype": "DT_INT32", "tensorShape": {}}}, "dtype": {"type": "DT_INT32"}}}, {"name": "ConstantFolding/model_358/tf.concat_37/concat_partial_split_1", "op": "Const", "attr": {"value": {"tensor": {"dtype": "DT_INT64", "tensorShape": {"dim": [{"size": "300"}, {"size": "1"}, {"size": "4"}, {"size": "2"}]}}}, "dtype": {"type": "DT_INT64"}}}, {"name": "model_358/tf.concat_37/concat/axis", "op": "Const", "attr": {"value": {"tensor": {"dtype": "DT_INT32", "tensorShape": {}}}, "dtype": {"type": "DT_INT32"}}}, {"name": "model_358/tf.tensor_scatter_nd_update_8/TensorScatterUpdate", "op": "Const", "attr": {"value": {"tensor": {"dtype": "DT_INT32", "tensorShape": {"dim": [{"size": "3"}]}}}, "dtype": {"type": "DT_INT32"}}}, {"name": "model_358/tf.reshape_275/Reshape/shape", "op": "Const", "attr": {"value": {"tensor": {"dtype": "DT_INT32", "tensorShape": {"dim": [{"size": "3"}]}}}, "dtype": {"type": "DT_INT32"}}}, {"name": "model_358/tf.reshape_266/Reshape/shape", "op": "Const", "attr": {"value": {"tensor": {"dtype": "DT_INT32", "tensorShape": {"dim": [{"size": "3"}]}}}, "dtype": {"type": "DT_INT32"}}}, {"name": "model_358/tf.tile_1/Tile/multiples", "op": "Const", "attr": {"value": {"tensor": {"dtype": "DT_INT64", "tensorShape": {"dim": [{"size": "3"}]}}}, "dtype": {"type": "DT_INT64"}}}, {"name": "model_358/tf.math.add_143/Add/y", "op": "Const", "attr": {"value": {"tensor": {"dtype": "DT_INT64", "tensorShape": {}}}, "dtype": {"type": "DT_INT64"}}}, {"name": "model_358/tf.expand_dims_3/ExpandDims/dim", "op": "Const", "attr": {"value": {"tensor": {"dtype": "DT_INT32", "tensorShape": {}}}, "dtype": {"type": "DT_INT32"}}}, {"name": "ConstantFolding/model_358/tf.concat_30/concat_partial_split_1", "op": "Const", "attr": {"value": {"tensor": {"dtype": "DT_INT64", "tensorShape": {"dim": [{"size": "300"}, {"size": "1"}, {"size": "59"}, {"size": "2"}]}}}, "dtype": {"type": "DT_INT64"}}}, {"name": "model_358/tf.concat_30/concat/axis", "op": "Const", "attr": {"value": {"tensor": {"dtype": "DT_INT32", "tensorShape": {}}}, "dtype": {"type": "DT_INT32"}}}, {"name": "model_358/tf.tensor_scatter_nd_update_1/TensorScatterUpdate", "op": "Const", "attr": {"value": {"tensor": {"dtype": "DT_INT32", "tensorShape": {"dim": [{"size": "3"}]}}}, "dtype": {"type": "DT_INT32"}}}, {"name": "model_358/tf.reshape_274/Reshape/shape", "op": "Const", "attr": {"value": {"tensor": {"dtype": "DT_INT32", "tensorShape": {"dim": [{"size": "2"}]}}}, "dtype": {"type": "DT_INT32"}}}, {"name": "model_358/tf.math.top_k_1/TopKV2/k", "op": "Const", "attr": {"value": {"tensor": {"dtype": "DT_INT32", "tensorShape": {}}}, "dtype": {"type": "DT_INT32"}}}, {"name": "model_358/tf.math.floormod_2/FloorMod/y", "op": "Const", "attr": {"value": {"tensor": {"dtype": "DT_INT64", "tensorShape": {}}}, "dtype": {"type": "DT_INT64"}}}, {"name": "model_358/tf.reshape_276/Reshape/shape", "op": "Const", "attr": {"value": {"tensor": {"dtype": "DT_INT32", "tensorShape": {"dim": [{"size": "3"}]}}}, "dtype": {"type": "DT_INT32"}}}, {"name": "model_358/output0/concat/axis", "op": "Const", "attr": {"value": {"tensor": {"dtype": "DT_INT32", "tensorShape": {}}}, "dtype": {"type": "DT_INT32"}}}, {"name": "model_358/89628", "op": "Const", "attr": {"value": {"tensor": {"dtype": "DT_FLOAT", "tensorShape": {"dim": [{"size": "1"}, {"size": "2"}, {"size": "8400"}]}}}, "dtype": {"type": "DT_FLOAT"}}}, {"name": "model_358/tf.strided_slice_24/ones_like/tensor", "op": "Const", "attr": {"value": {"tensor": {"dtype": "DT_INT64", "tensorShape": {"dim": [{"size": "3"}]}}}, "dtype": {"type": "DT_INT64"}}}, {"name": "model_358/tf.strided_slice_24/StridedSlice/end", "op": "Const", "attr": {"value": {"tensor": {"dtype": "DT_INT64", "tensorShape": {"dim": [{"size": "3"}]}}}, "dtype": {"type": "DT_INT64"}}}, {"name": "model_358/tf.strided_slice_24/ones_like", "op": "Const", "attr": {"value": {"tensor": {"dtype": "DT_INT64", "tensorShape": {"dim": [{"size": "3"}]}}}, "dtype": {"type": "DT_INT64"}}}, {"name": "model_358/tf.nn.convolution_186/convolution/filter", "op": "Const", "attr": {"value": {"tensor": {"dtype": "DT_FLOAT", "tensorShape": {"dim": [{"size": "3"}, {"size": "3"}, {"size": "64"}, {"size": "16"}]}}}, "dtype": {"type": "DT_FLOAT"}}}, {"name": "model_358/tf.math.add_87/Add/y", "op": "Const", "attr": {"value": {"tensor": {"dtype": "DT_FLOAT", "tensorShape": {"dim": [{"size": "16"}]}}}, "dtype": {"type": "DT_FLOAT"}}}, {"name": "model_358/tf.nn.convolution_187/convolution/filter", "op": "Const", "attr": {"value": {"tensor": {"dtype": "DT_FLOAT", "tensorShape": {"dim": [{"size": "3"}, {"size": "3"}, {"size": "16"}, {"size": "16"}]}}}, "dtype": {"type": "DT_FLOAT"}}}, {"name": "model_358/tf.math.add_89/Add/y", "op": "Const", "attr": {"value": {"tensor": {"dtype": "DT_FLOAT", "tensorShape": {"dim": [{"size": "16"}]}}}, "dtype": {"type": "DT_FLOAT"}}}, {"name": "model_358/tf.nn.convolution_190/convolution/filter", "op": "Const", "attr": {"value": {"tensor": {"dtype": "DT_FLOAT", "tensorShape": {"dim": [{"size": "1"}, {"size": "1"}, {"size": "16"}, {"size": "4"}]}}}, "dtype": {"type": "DT_FLOAT"}}}, {"name": "model_358/tf.math.add_92/Add/y", "op": "Const", "attr": {"value": {"tensor": {"dtype": "DT_FLOAT", "tensorShape": {"dim": [{"size": "4"}]}}}, "dtype": {"type": "DT_FLOAT"}}}, {"name": "model_358/tf.compat.v1.transpose_147/transpose/perm", "op": "Const", "attr": {"value": {"tensor": {"dtype": "DT_INT32", "tensorShape": {"dim": [{"size": "4"}]}}}, "dtype": {"type": "DT_INT32"}}}, {"name": "model_358/tf.reshape_57/Reshape/shape", "op": "Const", "attr": {"value": {"tensor": {"dtype": "DT_INT32", "tensorShape": {"dim": [{"size": "3"}]}}}, "dtype": {"type": "DT_INT32"}}}, {"name": "model_358/tf.nn.convolution_202/convolution/filter", "op": "Const", "attr": {"value": {"tensor": {"dtype": "DT_FLOAT", "tensorShape": {"dim": [{"size": "3"}, {"size": "3"}, {"size": "128"}, {"size": "16"}]}}}, "dtype": {"type": "DT_FLOAT"}}}, {"name": "model_358/tf.math.add_109/Add/y", "op": "Const", "attr": {"value": {"tensor": {"dtype": "DT_FLOAT", "tensorShape": {"dim": [{"size": "16"}]}}}, "dtype": {"type": "DT_FLOAT"}}}, {"name": "model_358/tf.nn.convolution_203/convolution/filter", "op": "Const", "attr": {"value": {"tensor": {"dtype": "DT_FLOAT", "tensorShape": {"dim": [{"size": "3"}, {"size": "3"}, {"size": "16"}, {"size": "16"}]}}}, "dtype": {"type": "DT_FLOAT"}}}, {"name": "model_358/tf.math.add_111/Add/y", "op": "Const", "attr": {"value": {"tensor": {"dtype": "DT_FLOAT", "tensorShape": {"dim": [{"size": "16"}]}}}, "dtype": {"type": "DT_FLOAT"}}}, {"name": "model_358/tf.nn.convolution_206/convolution/filter", "op": "Const", "attr": {"value": {"tensor": {"dtype": "DT_FLOAT", "tensorShape": {"dim": [{"size": "1"}, {"size": "1"}, {"size": "16"}, {"size": "4"}]}}}, "dtype": {"type": "DT_FLOAT"}}}, {"name": "model_358/tf.math.add_114/Add/y", "op": "Const", "attr": {"value": {"tensor": {"dtype": "DT_FLOAT", "tensorShape": {"dim": [{"size": "4"}]}}}, "dtype": {"type": "DT_FLOAT"}}}, {"name": "model_358/tf.compat.v1.transpose_221/transpose/perm", "op": "Const", "attr": {"value": {"tensor": {"dtype": "DT_INT32", "tensorShape": {"dim": [{"size": "4"}]}}}, "dtype": {"type": "DT_INT32"}}}, {"name": "model_358/tf.reshape_109/Reshape/shape", "op": "Const", "attr": {"value": {"tensor": {"dtype": "DT_INT32", "tensorShape": {"dim": [{"size": "3"}]}}}, "dtype": {"type": "DT_INT32"}}}, {"name": "model_358/tf.nn.convolution_344/convolution/filter", "op": "Const", "attr": {"value": {"tensor": {"dtype": "DT_FLOAT", "tensorShape": {"dim": [{"size": "3"}, {"size": "3"}, {"size": "256"}, {"size": "16"}]}}}, "dtype": {"type": "DT_FLOAT"}}}, {"name": "model_358/tf.math.add_134/Add/y", "op": "Const", "attr": {"value": {"tensor": {"dtype": "DT_FLOAT", "tensorShape": {"dim": [{"size": "16"}]}}}, "dtype": {"type": "DT_FLOAT"}}}, {"name": "model_358/tf.nn.convolution_345/convolution/filter", "op": "Const", "attr": {"value": {"tensor": {"dtype": "DT_FLOAT", "tensorShape": {"dim": [{"size": "3"}, {"size": "3"}, {"size": "16"}, {"size": "16"}]}}}, "dtype": {"type": "DT_FLOAT"}}}, {"name": "model_358/tf.math.add_136/Add/y", "op": "Const", "attr": {"value": {"tensor": {"dtype": "DT_FLOAT", "tensorShape": {"dim": [{"size": "16"}]}}}, "dtype": {"type": "DT_FLOAT"}}}, {"name": "model_358/tf.nn.convolution_347/convolution/filter", "op": "Const", "attr": {"value": {"tensor": {"dtype": "DT_FLOAT", "tensorShape": {"dim": [{"size": "1"}, {"size": "1"}, {"size": "16"}, {"size": "4"}]}}}, "dtype": {"type": "DT_FLOAT"}}}, {"name": "model_358/tf.math.add_138/Add/y", "op": "Const", "attr": {"value": {"tensor": {"dtype": "DT_FLOAT", "tensorShape": {"dim": [{"size": "4"}]}}}, "dtype": {"type": "DT_FLOAT"}}}, {"name": "model_358/tf.compat.v1.transpose_406/transpose/perm", "op": "Const", "attr": {"value": {"tensor": {"dtype": "DT_INT32", "tensorShape": {"dim": [{"size": "4"}]}}}, "dtype": {"type": "DT_INT32"}}}, {"name": "model_358/tf.reshape_239/Reshape/shape", "op": "Const", "attr": {"value": {"tensor": {"dtype": "DT_INT32", "tensorShape": {"dim": [{"size": "3"}]}}}, "dtype": {"type": "DT_INT32"}}}, {"name": "model_358/tf.concat_21/concat/axis", "op": "Const", "attr": {"value": {"tensor": {"dtype": "DT_INT32", "tensorShape": {}}}, "dtype": {"type": "DT_INT32"}}}, {"name": "model_358/tf.strided_slice_25/ones_like/tensor", "op": "Const", "attr": {"value": {"tensor": {"dtype": "DT_INT64", "tensorShape": {"dim": [{"size": "3"}]}}}, "dtype": {"type": "DT_INT64"}}}, {"name": "model_358/tf.strided_slice_25/StridedSlice/end", "op": "Const", "attr": {"value": {"tensor": {"dtype": "DT_INT64", "tensorShape": {"dim": [{"size": "3"}]}}}, "dtype": {"type": "DT_INT64"}}}, {"name": "model_358/tf.strided_slice_25/ones_like", "op": "Const", "attr": {"value": {"tensor": {"dtype": "DT_INT64", "tensorShape": {"dim": [{"size": "3"}]}}}, "dtype": {"type": "DT_INT64"}}}, {"name": "model_358/tf.math.add_141/Add/y", "op": "Const", "attr": {"value": {"tensor": {"dtype": "DT_FLOAT", "tensorShape": {"dim": [{"size": "1"}, {"size": "2"}, {"size": "8400"}]}}}, "dtype": {"type": "DT_FLOAT"}}}, {"name": "model_358/tf.concat_26/concat/axis", "op": "Const", "attr": {"value": {"tensor": {"dtype": "DT_INT32", "tensorShape": {}}}, "dtype": {"type": "DT_INT32"}}}, {"name": "model_358/tf.math.multiply_399/Mul/y", "op": "Const", "attr": {"value": {"tensor": {"dtype": "DT_FLOAT", "tensorShape": {"dim": [{"size": "1"}, {"size": "1"}, {"size": "8400"}]}}}, "dtype": {"type": "DT_FLOAT"}}}, {"name": "model_358/tf.compat.v1.nn.depthwise_conv2d/depthwise/filter_in", "op": "Const", "attr": {"value": {"tensor": {"dtype": "DT_FLOAT", "tensorShape": {"dim": [{"size": "3"}, {"size": "3"}, {"size": "64"}, {"size": "1"}]}}}, "dtype": {"type": "DT_FLOAT"}}}, {"name": "model_358/tf.math.add_88/Add/y", "op": "Const", "attr": {"value": {"tensor": {"dtype": "DT_FLOAT", "tensorShape": {"dim": [{"size": "64"}]}}}, "dtype": {"type": "DT_FLOAT"}}}, {"name": "model_358/tf.nn.convolution_188/convolution/filter", "op": "Const", "attr": {"value": {"tensor": {"dtype": "DT_FLOAT", "tensorShape": {"dim": [{"size": "1"}, {"size": "1"}, {"size": "64"}, {"size": "64"}]}}}, "dtype": {"type": "DT_FLOAT"}}}, {"name": "model_358/tf.math.add_90/Add/y", "op": "Const", "attr": {"value": {"tensor": {"dtype": "DT_FLOAT", "tensorShape": {"dim": [{"size": "64"}]}}}, "dtype": {"type": "DT_FLOAT"}}}, {"name": "model_358/tf.compat.v1.nn.depthwise_conv2d_1/depthwise/filter_in", "op": "Const", "attr": {"value": {"tensor": {"dtype": "DT_FLOAT", "tensorShape": {"dim": [{"size": "3"}, {"size": "3"}, {"size": "64"}, {"size": "1"}]}}}, "dtype": {"type": "DT_FLOAT"}}}, {"name": "model_358/tf.math.add_93/Add/y", "op": "Const", "attr": {"value": {"tensor": {"dtype": "DT_FLOAT", "tensorShape": {"dim": [{"size": "64"}]}}}, "dtype": {"type": "DT_FLOAT"}}}, {"name": "model_358/tf.nn.convolution_193/convolution/filter", "op": "Const", "attr": {"value": {"tensor": {"dtype": "DT_FLOAT", "tensorShape": {"dim": [{"size": "1"}, {"size": "1"}, {"size": "64"}, {"size": "64"}]}}}, "dtype": {"type": "DT_FLOAT"}}}, {"name": "model_358/tf.math.add_96/Add/y", "op": "Const", "attr": {"value": {"tensor": {"dtype": "DT_FLOAT", "tensorShape": {"dim": [{"size": "64"}]}}}, "dtype": {"type": "DT_FLOAT"}}}, {"name": "model_358/tf.nn.convolution_195/convolution/filter", "op": "Const", "attr": {"value": {"tensor": {"dtype": "DT_FLOAT", "tensorShape": {"dim": [{"size": "1"}, {"size": "1"}, {"size": "64"}, {"size": "59"}]}}}, "dtype": {"type": "DT_FLOAT"}}}, {"name": "model_358/tf.math.add_98/Add/y", "op": "Const", "attr": {"value": {"tensor": {"dtype": "DT_FLOAT", "tensorShape": {"dim": [{"size": "59"}]}}}, "dtype": {"type": "DT_FLOAT"}}}, {"name": "model_358/tf.compat.v1.transpose_180/transpose/perm", "op": "Const", "attr": {"value": {"tensor": {"dtype": "DT_INT32", "tensorShape": {"dim": [{"size": "4"}]}}}, "dtype": {"type": "DT_INT32"}}}, {"name": "model_358/tf.reshape_83/Reshape/shape", "op": "Const", "attr": {"value": {"tensor": {"dtype": "DT_INT32", "tensorShape": {"dim": [{"size": "3"}]}}}, "dtype": {"type": "DT_INT32"}}}, {"name": "model_358/tf.compat.v1.nn.depthwise_conv2d_2/depthwise/filter_in", "op": "Const", "attr": {"value": {"tensor": {"dtype": "DT_FLOAT", "tensorShape": {"dim": [{"size": "3"}, {"size": "3"}, {"size": "128"}, {"size": "1"}]}}}, "dtype": {"type": "DT_FLOAT"}}}, {"name": "model_358/tf.math.add_110/Add/y", "op": "Const", "attr": {"value": {"tensor": {"dtype": "DT_FLOAT", "tensorShape": {"dim": [{"size": "128"}]}}}, "dtype": {"type": "DT_FLOAT"}}}, {"name": "model_358/tf.nn.convolution_204/convolution/filter", "op": "Const", "attr": {"value": {"tensor": {"dtype": "DT_FLOAT", "tensorShape": {"dim": [{"size": "1"}, {"size": "1"}, {"size": "128"}, {"size": "64"}]}}}, "dtype": {"type": "DT_FLOAT"}}}, {"name": "model_358/tf.math.add_112/Add/y", "op": "Const", "attr": {"value": {"tensor": {"dtype": "DT_FLOAT", "tensorShape": {"dim": [{"size": "64"}]}}}, "dtype": {"type": "DT_FLOAT"}}}, {"name": "model_358/tf.compat.v1.nn.depthwise_conv2d_3/depthwise/filter_in", "op": "Const", "attr": {"value": {"tensor": {"dtype": "DT_FLOAT", "tensorShape": {"dim": [{"size": "3"}, {"size": "3"}, {"size": "64"}, {"size": "1"}]}}}, "dtype": {"type": "DT_FLOAT"}}}, {"name": "model_358/tf.math.add_115/Add/y", "op": "Const", "attr": {"value": {"tensor": {"dtype": "DT_FLOAT", "tensorShape": {"dim": [{"size": "64"}]}}}, "dtype": {"type": "DT_FLOAT"}}}, {"name": "model_358/tf.nn.convolution_208/convolution/filter", "op": "Const", "attr": {"value": {"tensor": {"dtype": "DT_FLOAT", "tensorShape": {"dim": [{"size": "1"}, {"size": "1"}, {"size": "64"}, {"size": "64"}]}}}, "dtype": {"type": "DT_FLOAT"}}}, {"name": "model_358/tf.math.add_117/Add/y", "op": "Const", "attr": {"value": {"tensor": {"dtype": "DT_FLOAT", "tensorShape": {"dim": [{"size": "64"}]}}}, "dtype": {"type": "DT_FLOAT"}}}, {"name": "model_358/tf.nn.convolution_210/convolution/filter", "op": "Const", "attr": {"value": {"tensor": {"dtype": "DT_FLOAT", "tensorShape": {"dim": [{"size": "1"}, {"size": "1"}, {"size": "64"}, {"size": "59"}]}}}, "dtype": {"type": "DT_FLOAT"}}}, {"name": "model_358/tf.math.add_119/Add/y", "op": "Const", "attr": {"value": {"tensor": {"dtype": "DT_FLOAT", "tensorShape": {"dim": [{"size": "59"}]}}}, "dtype": {"type": "DT_FLOAT"}}}, {"name": "model_358/tf.compat.v1.transpose_253/transpose/perm", "op": "Const", "attr": {"value": {"tensor": {"dtype": "DT_INT32", "tensorShape": {"dim": [{"size": "4"}]}}}, "dtype": {"type": "DT_INT32"}}}, {"name": "model_358/tf.reshape_135/Reshape/shape", "op": "Const", "attr": {"value": {"tensor": {"dtype": "DT_INT32", "tensorShape": {"dim": [{"size": "3"}]}}}, "dtype": {"type": "DT_INT32"}}}, {"name": "model_358/tf.strided_slice_19/ones_like/tensor", "op": "Const", "attr": {"value": {"tensor": {"dtype": "DT_INT64", "tensorShape": {"dim": [{"size": "4"}]}}}, "dtype": {"type": "DT_INT64"}}}, {"name": "model_358/tf.strided_slice_19/StridedSlice/end", "op": "Const", "attr": {"value": {"tensor": {"dtype": "DT_INT64", "tensorShape": {"dim": [{"size": "4"}]}}}, "dtype": {"type": "DT_INT64"}}}, {"name": "model_358/tf.strided_slice_19/ones_like", "op": "Const", "attr": {"value": {"tensor": {"dtype": "DT_INT64", "tensorShape": {"dim": [{"size": "4"}]}}}, "dtype": {"type": "DT_INT64"}}}, {"name": "model_358/tf.math.add_130/Add/y", "op": "Const", "attr": {"value": {"tensor": {"dtype": "DT_FLOAT", "tensorShape": {"dim": [{"size": "128"}]}}}, "dtype": {"type": "DT_FLOAT"}}}, {"name": "model_358/tf.math.add_126/Add/y", "op": "Const", "attr": {"value": {"tensor": {"dtype": "DT_FLOAT", "tensorShape": {"dim": [{"size": "128"}]}}}, "dtype": {"type": "DT_FLOAT"}}}, {"name": "model_358/tf.math.add_123/Add/y", "op": "Const", "attr": {"value": {"tensor": {"dtype": "DT_FLOAT", "tensorShape": {"dim": [{"size": "128"}]}}}, "dtype": {"type": "DT_FLOAT"}}}, {"name": "model_358/tf.strided_slice_21/StridedSlice/begin", "op": "Const", "attr": {"value": {"tensor": {"dtype": "DT_INT32", "tensorShape": {"dim": [{"size": "4"}]}}}, "dtype": {"type": "DT_INT32"}}}, {"name": "model_358/tf.strided_slice_21/StridedSlice/end", "op": "Const", "attr": {"value": {"tensor": {"dtype": "DT_INT32", "tensorShape": {"dim": [{"size": "4"}]}}}, "dtype": {"type": "DT_INT32"}}}, {"name": "model_358/tf.strided_slice_21/ones_like", "op": "Const", "attr": {"value": {"tensor": {"dtype": "DT_INT32", "tensorShape": {"dim": [{"size": "4"}]}}}, "dtype": {"type": "DT_INT32"}}}, {"name": "model_358/tf.strided_slice_22/StridedSlice/begin", "op": "Const", "attr": {"value": {"tensor": {"dtype": "DT_INT32", "tensorShape": {"dim": [{"size": "4"}]}}}, "dtype": {"type": "DT_INT32"}}}, {"name": "model_358/tf.strided_slice_22/StridedSlice/end", "op": "Const", "attr": {"value": {"tensor": {"dtype": "DT_INT32", "tensorShape": {"dim": [{"size": "4"}]}}}, "dtype": {"type": "DT_INT32"}}}, {"name": "model_358/tf.strided_slice_22/ones_like", "op": "Const", "attr": {"value": {"tensor": {"dtype": "DT_INT32", "tensorShape": {"dim": [{"size": "4"}]}}}, "dtype": {"type": "DT_INT32"}}}, {"name": "model_358/tf.math.multiply_355/Mul/y", "op": "Const", "attr": {"value": {"tensor": {"dtype": "DT_FLOAT", "tensorShape": {}}}, "dtype": {"type": "DT_FLOAT"}}}, {"name": "model_358/tf.compat.v1.transpose_346/transpose/perm", "op": "Const", "attr": {"value": {"tensor": {"dtype": "DT_INT32", "tensorShape": {"dim": [{"size": "4"}]}}}, "dtype": {"type": "DT_INT32"}}}, {"name": "model_358/tf.compat.v1.transpose_365/transpose/perm", "op": "Const", "attr": {"value": {"tensor": {"dtype": "DT_INT32", "tensorShape": {"dim": [{"size": "4"}]}}}, "dtype": {"type": "DT_INT32"}}}, {"name": "model_358/tf.compat.v1.transpose_366/transpose/perm", "op": "Const", "attr": {"value": {"tensor": {"dtype": "DT_INT32", "tensorShape": {"dim": [{"size": "4"}]}}}, "dtype": {"type": "DT_INT32"}}}, {"name": "model_358/tf.reshape_213/Reshape/shape", "op": "Const", "attr": {"value": {"tensor": {"dtype": "DT_INT32", "tensorShape": {"dim": [{"size": "4"}]}}}, "dtype": {"type": "DT_INT32"}}}, {"name": "model_358/tf.compat.v1.transpose_394/transpose/perm", "op": "Const", "attr": {"value": {"tensor": {"dtype": "DT_INT32", "tensorShape": {"dim": [{"size": "4"}]}}}, "dtype": {"type": "DT_INT32"}}}, {"name": "model_358/tf.nn.convolution_212/convolution/filter", "op": "Const", "attr": {"value": {"tensor": {"dtype": "DT_FLOAT", "tensorShape": {"dim": [{"size": "3"}, {"size": "3"}, {"size": "1"}, {"size": "1"}]}}}, "dtype": {"type": "DT_FLOAT"}}}, {"name": "model_358/tf.nn.convolution_213/convolution/filter", "op": "Const", "attr": {"value": {"tensor": {"dtype": "DT_FLOAT", "tensorShape": {"dim": [{"size": "3"}, {"size": "3"}, {"size": "1"}, {"size": "1"}]}}}, "dtype": {"type": "DT_FLOAT"}}}, {"name": "model_358/tf.nn.convolution_214/convolution/filter", "op": "Const", "attr": {"value": {"tensor": {"dtype": "DT_FLOAT", "tensorShape": {"dim": [{"size": "3"}, {"size": "3"}, {"size": "1"}, {"size": "1"}]}}}, "dtype": {"type": "DT_FLOAT"}}}, {"name": "model_358/tf.nn.convolution_215/convolution/filter", "op": "Const", "attr": {"value": {"tensor": {"dtype": "DT_FLOAT", "tensorShape": {"dim": [{"size": "3"}, {"size": "3"}, {"size": "1"}, {"size": "1"}]}}}, "dtype": {"type": "DT_FLOAT"}}}, {"name": "model_358/tf.nn.convolution_216/convolution/filter", "op": "Const", "attr": {"value": {"tensor": {"dtype": "DT_FLOAT", "tensorShape": {"dim": [{"size": "3"}, {"size": "3"}, {"size": "1"}, {"size": "1"}]}}}, "dtype": {"type": "DT_FLOAT"}}}, {"name": "model_358/tf.nn.convolution_217/convolution/filter", "op": "Const", "attr": {"value": {"tensor": {"dtype": "DT_FLOAT", "tensorShape": {"dim": [{"size": "3"}, {"size": "3"}, {"size": "1"}, {"size": "1"}]}}}, "dtype": {"type": "DT_FLOAT"}}}, {"name": "model_358/tf.nn.convolution_218/convolution/filter", "op": "Const", "attr": {"value": {"tensor": {"dtype": "DT_FLOAT", "tensorShape": {"dim": [{"size": "3"}, {"size": "3"}, {"size": "1"}, {"size": "1"}]}}}, "dtype": {"type": "DT_FLOAT"}}}, {"name": "model_358/tf.nn.convolution_219/convolution/filter", "op": "Const", "attr": {"value": {"tensor": {"dtype": "DT_FLOAT", "tensorShape": {"dim": [{"size": "3"}, {"size": "3"}, {"size": "1"}, {"size": "1"}]}}}, "dtype": {"type": "DT_FLOAT"}}}, {"name": "model_358/tf.nn.convolution_220/convolution/filter", "op": "Const", "attr": {"value": {"tensor": {"dtype": "DT_FLOAT", "tensorShape": {"dim": [{"size": "3"}, {"size": "3"}, {"size": "1"}, {"size": "1"}]}}}, "dtype": {"type": "DT_FLOAT"}}}, {"name": "model_358/tf.nn.convolution_221/convolution/filter", "op": "Const", "attr": {"value": {"tensor": {"dtype": "DT_FLOAT", "tensorShape": {"dim": [{"size": "3"}, {"size": "3"}, {"size": "1"}, {"size": "1"}]}}}, "dtype": {"type": "DT_FLOAT"}}}, {"name": "model_358/tf.nn.convolution_222/convolution/filter", "op": "Const", "attr": {"value": {"tensor": {"dtype": "DT_FLOAT", "tensorShape": {"dim": [{"size": "3"}, {"size": "3"}, {"size": "1"}, {"size": "1"}]}}}, "dtype": {"type": "DT_FLOAT"}}}, {"name": "model_358/tf.nn.convolution_223/convolution/filter", "op": "Const", "attr": {"value": {"tensor": {"dtype": "DT_FLOAT", "tensorShape": {"dim": [{"size": "3"}, {"size": "3"}, {"size": "1"}, {"size": "1"}]}}}, "dtype": {"type": "DT_FLOAT"}}}, {"name": "model_358/tf.nn.convolution_224/convolution/filter", "op": "Const", "attr": {"value": {"tensor": {"dtype": "DT_FLOAT", "tensorShape": {"dim": [{"size": "3"}, {"size": "3"}, {"size": "1"}, {"size": "1"}]}}}, "dtype": {"type": "DT_FLOAT"}}}, {"name": "model_358/tf.nn.convolution_225/convolution/filter", "op": "Const", "attr": {"value": {"tensor": {"dtype": "DT_FLOAT", "tensorShape": {"dim": [{"size": "3"}, {"size": "3"}, {"size": "1"}, {"size": "1"}]}}}, "dtype": {"type": "DT_FLOAT"}}}, {"name": "model_358/tf.nn.convolution_226/convolution/filter", "op": "Const", "attr": {"value": {"tensor": {"dtype": "DT_FLOAT", "tensorShape": {"dim": [{"size": "3"}, {"size": "3"}, {"size": "1"}, {"size": "1"}]}}}, "dtype": {"type": "DT_FLOAT"}}}, {"name": "model_358/tf.nn.convolution_227/convolution/filter", "op": "Const", "attr": {"value": {"tensor": {"dtype": "DT_FLOAT", "tensorShape": {"dim": [{"size": "3"}, {"size": "3"}, {"size": "1"}, {"size": "1"}]}}}, "dtype": {"type": "DT_FLOAT"}}}, {"name": "model_358/tf.nn.convolution_228/convolution/filter", "op": "Const", "attr": {"value": {"tensor": {"dtype": "DT_FLOAT", "tensorShape": {"dim": [{"size": "3"}, {"size": "3"}, {"size": "1"}, {"size": "1"}]}}}, "dtype": {"type": "DT_FLOAT"}}}, {"name": "model_358/tf.nn.convolution_229/convolution/filter", "op": "Const", "attr": {"value": {"tensor": {"dtype": "DT_FLOAT", "tensorShape": {"dim": [{"size": "3"}, {"size": "3"}, {"size": "1"}, {"size": "1"}]}}}, "dtype": {"type": "DT_FLOAT"}}}, {"name": "model_358/tf.nn.convolution_230/convolution/filter", "op": "Const", "attr": {"value": {"tensor": {"dtype": "DT_FLOAT", "tensorShape": {"dim": [{"size": "3"}, {"size": "3"}, {"size": "1"}, {"size": "1"}]}}}, "dtype": {"type": "DT_FLOAT"}}}, {"name": "model_358/tf.nn.convolution_231/convolution/filter", "op": "Const", "attr": {"value": {"tensor": {"dtype": "DT_FLOAT", "tensorShape": {"dim": [{"size": "3"}, {"size": "3"}, {"size": "1"}, {"size": "1"}]}}}, "dtype": {"type": "DT_FLOAT"}}}, {"name": "model_358/tf.nn.convolution_232/convolution/filter", "op": "Const", "attr": {"value": {"tensor": {"dtype": "DT_FLOAT", "tensorShape": {"dim": [{"size": "3"}, {"size": "3"}, {"size": "1"}, {"size": "1"}]}}}, "dtype": {"type": "DT_FLOAT"}}}, {"name": "model_358/tf.nn.convolution_233/convolution/filter", "op": "Const", "attr": {"value": {"tensor": {"dtype": "DT_FLOAT", "tensorShape": {"dim": [{"size": "3"}, {"size": "3"}, {"size": "1"}, {"size": "1"}]}}}, "dtype": {"type": "DT_FLOAT"}}}, {"name": "model_358/tf.nn.convolution_234/convolution/filter", "op": "Const", "attr": {"value": {"tensor": {"dtype": "DT_FLOAT", "tensorShape": {"dim": [{"size": "3"}, {"size": "3"}, {"size": "1"}, {"size": "1"}]}}}, "dtype": {"type": "DT_FLOAT"}}}, {"name": "model_358/tf.nn.convolution_235/convolution/filter", "op": "Const", "attr": {"value": {"tensor": {"dtype": "DT_FLOAT", "tensorShape": {"dim": [{"size": "3"}, {"size": "3"}, {"size": "1"}, {"size": "1"}]}}}, "dtype": {"type": "DT_FLOAT"}}}, {"name": "model_358/tf.nn.convolution_236/convolution/filter", "op": "Const", "attr": {"value": {"tensor": {"dtype": "DT_FLOAT", "tensorShape": {"dim": [{"size": "3"}, {"size": "3"}, {"size": "1"}, {"size": "1"}]}}}, "dtype": {"type": "DT_FLOAT"}}}, {"name": "model_358/tf.nn.convolution_237/convolution/filter", "op": "Const", "attr": {"value": {"tensor": {"dtype": "DT_FLOAT", "tensorShape": {"dim": [{"size": "3"}, {"size": "3"}, {"size": "1"}, {"size": "1"}]}}}, "dtype": {"type": "DT_FLOAT"}}}, {"name": "model_358/tf.nn.convolution_238/convolution/filter", "op": "Const", "attr": {"value": {"tensor": {"dtype": "DT_FLOAT", "tensorShape": {"dim": [{"size": "3"}, {"size": "3"}, {"size": "1"}, {"size": "1"}]}}}, "dtype": {"type": "DT_FLOAT"}}}, {"name": "model_358/tf.nn.convolution_239/convolution/filter", "op": "Const", "attr": {"value": {"tensor": {"dtype": "DT_FLOAT", "tensorShape": {"dim": [{"size": "3"}, {"size": "3"}, {"size": "1"}, {"size": "1"}]}}}, "dtype": {"type": "DT_FLOAT"}}}, {"name": "model_358/tf.nn.convolution_240/convolution/filter", "op": "Const", "attr": {"value": {"tensor": {"dtype": "DT_FLOAT", "tensorShape": {"dim": [{"size": "3"}, {"size": "3"}, {"size": "1"}, {"size": "1"}]}}}, "dtype": {"type": "DT_FLOAT"}}}, {"name": "model_358/tf.nn.convolution_241/convolution/filter", "op": "Const", "attr": {"value": {"tensor": {"dtype": "DT_FLOAT", "tensorShape": {"dim": [{"size": "3"}, {"size": "3"}, {"size": "1"}, {"size": "1"}]}}}, "dtype": {"type": "DT_FLOAT"}}}, {"name": "model_358/tf.nn.convolution_242/convolution/filter", "op": "Const", "attr": {"value": {"tensor": {"dtype": "DT_FLOAT", "tensorShape": {"dim": [{"size": "3"}, {"size": "3"}, {"size": "1"}, {"size": "1"}]}}}, "dtype": {"type": "DT_FLOAT"}}}, {"name": "model_358/tf.nn.convolution_243/convolution/filter", "op": "Const", "attr": {"value": {"tensor": {"dtype": "DT_FLOAT", "tensorShape": {"dim": [{"size": "3"}, {"size": "3"}, {"size": "1"}, {"size": "1"}]}}}, "dtype": {"type": "DT_FLOAT"}}}, {"name": "model_358/tf.nn.convolution_244/convolution/filter", "op": "Const", "attr": {"value": {"tensor": {"dtype": "DT_FLOAT", "tensorShape": {"dim": [{"size": "3"}, {"size": "3"}, {"size": "1"}, {"size": "1"}]}}}, "dtype": {"type": "DT_FLOAT"}}}, {"name": "model_358/tf.nn.convolution_245/convolution/filter", "op": "Const", "attr": {"value": {"tensor": {"dtype": "DT_FLOAT", "tensorShape": {"dim": [{"size": "3"}, {"size": "3"}, {"size": "1"}, {"size": "1"}]}}}, "dtype": {"type": "DT_FLOAT"}}}, {"name": "model_358/tf.nn.convolution_246/convolution/filter", "op": "Const", "attr": {"value": {"tensor": {"dtype": "DT_FLOAT", "tensorShape": {"dim": [{"size": "3"}, {"size": "3"}, {"size": "1"}, {"size": "1"}]}}}, "dtype": {"type": "DT_FLOAT"}}}, {"name": "model_358/tf.nn.convolution_247/convolution/filter", "op": "Const", "attr": {"value": {"tensor": {"dtype": "DT_FLOAT", "tensorShape": {"dim": [{"size": "3"}, {"size": "3"}, {"size": "1"}, {"size": "1"}]}}}, "dtype": {"type": "DT_FLOAT"}}}, {"name": "model_358/tf.nn.convolution_248/convolution/filter", "op": "Const", "attr": {"value": {"tensor": {"dtype": "DT_FLOAT", "tensorShape": {"dim": [{"size": "3"}, {"size": "3"}, {"size": "1"}, {"size": "1"}]}}}, "dtype": {"type": "DT_FLOAT"}}}, {"name": "model_358/tf.nn.convolution_249/convolution/filter", "op": "Const", "attr": {"value": {"tensor": {"dtype": "DT_FLOAT", "tensorShape": {"dim": [{"size": "3"}, {"size": "3"}, {"size": "1"}, {"size": "1"}]}}}, "dtype": {"type": "DT_FLOAT"}}}, {"name": "model_358/tf.nn.convolution_250/convolution/filter", "op": "Const", "attr": {"value": {"tensor": {"dtype": "DT_FLOAT", "tensorShape": {"dim": [{"size": "3"}, {"size": "3"}, {"size": "1"}, {"size": "1"}]}}}, "dtype": {"type": "DT_FLOAT"}}}, {"name": "model_358/tf.nn.convolution_251/convolution/filter", "op": "Const", "attr": {"value": {"tensor": {"dtype": "DT_FLOAT", "tensorShape": {"dim": [{"size": "3"}, {"size": "3"}, {"size": "1"}, {"size": "1"}]}}}, "dtype": {"type": "DT_FLOAT"}}}, {"name": "model_358/tf.nn.convolution_252/convolution/filter", "op": "Const", "attr": {"value": {"tensor": {"dtype": "DT_FLOAT", "tensorShape": {"dim": [{"size": "3"}, {"size": "3"}, {"size": "1"}, {"size": "1"}]}}}, "dtype": {"type": "DT_FLOAT"}}}, {"name": "model_358/tf.nn.convolution_253/convolution/filter", "op": "Const", "attr": {"value": {"tensor": {"dtype": "DT_FLOAT", "tensorShape": {"dim": [{"size": "3"}, {"size": "3"}, {"size": "1"}, {"size": "1"}]}}}, "dtype": {"type": "DT_FLOAT"}}}, {"name": "model_358/tf.nn.convolution_254/convolution/filter", "op": "Const", "attr": {"value": {"tensor": {"dtype": "DT_FLOAT", "tensorShape": {"dim": [{"size": "3"}, {"size": "3"}, {"size": "1"}, {"size": "1"}]}}}, "dtype": {"type": "DT_FLOAT"}}}, {"name": "model_358/tf.nn.convolution_255/convolution/filter", "op": "Const", "attr": {"value": {"tensor": {"dtype": "DT_FLOAT", "tensorShape": {"dim": [{"size": "3"}, {"size": "3"}, {"size": "1"}, {"size": "1"}]}}}, "dtype": {"type": "DT_FLOAT"}}}, {"name": "model_358/tf.nn.convolution_256/convolution/filter", "op": "Const", "attr": {"value": {"tensor": {"dtype": "DT_FLOAT", "tensorShape": {"dim": [{"size": "3"}, {"size": "3"}, {"size": "1"}, {"size": "1"}]}}}, "dtype": {"type": "DT_FLOAT"}}}, {"name": "model_358/tf.nn.convolution_257/convolution/filter", "op": "Const", "attr": {"value": {"tensor": {"dtype": "DT_FLOAT", "tensorShape": {"dim": [{"size": "3"}, {"size": "3"}, {"size": "1"}, {"size": "1"}]}}}, "dtype": {"type": "DT_FLOAT"}}}, {"name": "model_358/tf.nn.convolution_258/convolution/filter", "op": "Const", "attr": {"value": {"tensor": {"dtype": "DT_FLOAT", "tensorShape": {"dim": [{"size": "3"}, {"size": "3"}, {"size": "1"}, {"size": "1"}]}}}, "dtype": {"type": "DT_FLOAT"}}}, {"name": "model_358/tf.nn.convolution_259/convolution/filter", "op": "Const", "attr": {"value": {"tensor": {"dtype": "DT_FLOAT", "tensorShape": {"dim": [{"size": "3"}, {"size": "3"}, {"size": "1"}, {"size": "1"}]}}}, "dtype": {"type": "DT_FLOAT"}}}, {"name": "model_358/tf.nn.convolution_260/convolution/filter", "op": "Const", "attr": {"value": {"tensor": {"dtype": "DT_FLOAT", "tensorShape": {"dim": [{"size": "3"}, {"size": "3"}, {"size": "1"}, {"size": "1"}]}}}, "dtype": {"type": "DT_FLOAT"}}}, {"name": "model_358/tf.nn.convolution_261/convolution/filter", "op": "Const", "attr": {"value": {"tensor": {"dtype": "DT_FLOAT", "tensorShape": {"dim": [{"size": "3"}, {"size": "3"}, {"size": "1"}, {"size": "1"}]}}}, "dtype": {"type": "DT_FLOAT"}}}, {"name": "model_358/tf.nn.convolution_262/convolution/filter", "op": "Const", "attr": {"value": {"tensor": {"dtype": "DT_FLOAT", "tensorShape": {"dim": [{"size": "3"}, {"size": "3"}, {"size": "1"}, {"size": "1"}]}}}, "dtype": {"type": "DT_FLOAT"}}}, {"name": "model_358/tf.nn.convolution_263/convolution/filter", "op": "Const", "attr": {"value": {"tensor": {"dtype": "DT_FLOAT", "tensorShape": {"dim": [{"size": "3"}, {"size": "3"}, {"size": "1"}, {"size": "1"}]}}}, "dtype": {"type": "DT_FLOAT"}}}, {"name": "model_358/tf.nn.convolution_264/convolution/filter", "op": "Const", "attr": {"value": {"tensor": {"dtype": "DT_FLOAT", "tensorShape": {"dim": [{"size": "3"}, {"size": "3"}, {"size": "1"}, {"size": "1"}]}}}, "dtype": {"type": "DT_FLOAT"}}}, {"name": "model_358/tf.nn.convolution_265/convolution/filter", "op": "Const", "attr": {"value": {"tensor": {"dtype": "DT_FLOAT", "tensorShape": {"dim": [{"size": "3"}, {"size": "3"}, {"size": "1"}, {"size": "1"}]}}}, "dtype": {"type": "DT_FLOAT"}}}, {"name": "model_358/tf.nn.convolution_266/convolution/filter", "op": "Const", "attr": {"value": {"tensor": {"dtype": "DT_FLOAT", "tensorShape": {"dim": [{"size": "3"}, {"size": "3"}, {"size": "1"}, {"size": "1"}]}}}, "dtype": {"type": "DT_FLOAT"}}}, {"name": "model_358/tf.nn.convolution_267/convolution/filter", "op": "Const", "attr": {"value": {"tensor": {"dtype": "DT_FLOAT", "tensorShape": {"dim": [{"size": "3"}, {"size": "3"}, {"size": "1"}, {"size": "1"}]}}}, "dtype": {"type": "DT_FLOAT"}}}, {"name": "model_358/tf.nn.convolution_268/convolution/filter", "op": "Const", "attr": {"value": {"tensor": {"dtype": "DT_FLOAT", "tensorShape": {"dim": [{"size": "3"}, {"size": "3"}, {"size": "1"}, {"size": "1"}]}}}, "dtype": {"type": "DT_FLOAT"}}}, {"name": "model_358/tf.nn.convolution_269/convolution/filter", "op": "Const", "attr": {"value": {"tensor": {"dtype": "DT_FLOAT", "tensorShape": {"dim": [{"size": "3"}, {"size": "3"}, {"size": "1"}, {"size": "1"}]}}}, "dtype": {"type": "DT_FLOAT"}}}, {"name": "model_358/tf.nn.convolution_270/convolution/filter", "op": "Const", "attr": {"value": {"tensor": {"dtype": "DT_FLOAT", "tensorShape": {"dim": [{"size": "3"}, {"size": "3"}, {"size": "1"}, {"size": "1"}]}}}, "dtype": {"type": "DT_FLOAT"}}}, {"name": "model_358/tf.nn.convolution_271/convolution/filter", "op": "Const", "attr": {"value": {"tensor": {"dtype": "DT_FLOAT", "tensorShape": {"dim": [{"size": "3"}, {"size": "3"}, {"size": "1"}, {"size": "1"}]}}}, "dtype": {"type": "DT_FLOAT"}}}, {"name": "model_358/tf.nn.convolution_272/convolution/filter", "op": "Const", "attr": {"value": {"tensor": {"dtype": "DT_FLOAT", "tensorShape": {"dim": [{"size": "3"}, {"size": "3"}, {"size": "1"}, {"size": "1"}]}}}, "dtype": {"type": "DT_FLOAT"}}}, {"name": "model_358/tf.nn.convolution_273/convolution/filter", "op": "Const", "attr": {"value": {"tensor": {"dtype": "DT_FLOAT", "tensorShape": {"dim": [{"size": "3"}, {"size": "3"}, {"size": "1"}, {"size": "1"}]}}}, "dtype": {"type": "DT_FLOAT"}}}, {"name": "model_358/tf.nn.convolution_274/convolution/filter", "op": "Const", "attr": {"value": {"tensor": {"dtype": "DT_FLOAT", "tensorShape": {"dim": [{"size": "3"}, {"size": "3"}, {"size": "1"}, {"size": "1"}]}}}, "dtype": {"type": "DT_FLOAT"}}}, {"name": "model_358/tf.nn.convolution_275/convolution/filter", "op": "Const", "attr": {"value": {"tensor": {"dtype": "DT_FLOAT", "tensorShape": {"dim": [{"size": "3"}, {"size": "3"}, {"size": "1"}, {"size": "1"}]}}}, "dtype": {"type": "DT_FLOAT"}}}, {"name": "model_358/tf.nn.convolution_276/convolution/filter", "op": "Const", "attr": {"value": {"tensor": {"dtype": "DT_FLOAT", "tensorShape": {"dim": [{"size": "3"}, {"size": "3"}, {"size": "1"}, {"size": "1"}]}}}, "dtype": {"type": "DT_FLOAT"}}}, {"name": "model_358/tf.nn.convolution_277/convolution/filter", "op": "Const", "attr": {"value": {"tensor": {"dtype": "DT_FLOAT", "tensorShape": {"dim": [{"size": "3"}, {"size": "3"}, {"size": "1"}, {"size": "1"}]}}}, "dtype": {"type": "DT_FLOAT"}}}, {"name": "model_358/tf.nn.convolution_278/convolution/filter", "op": "Const", "attr": {"value": {"tensor": {"dtype": "DT_FLOAT", "tensorShape": {"dim": [{"size": "3"}, {"size": "3"}, {"size": "1"}, {"size": "1"}]}}}, "dtype": {"type": "DT_FLOAT"}}}, {"name": "model_358/tf.nn.convolution_279/convolution/filter", "op": "Const", "attr": {"value": {"tensor": {"dtype": "DT_FLOAT", "tensorShape": {"dim": [{"size": "3"}, {"size": "3"}, {"size": "1"}, {"size": "1"}]}}}, "dtype": {"type": "DT_FLOAT"}}}, {"name": "model_358/tf.nn.convolution_280/convolution/filter", "op": "Const", "attr": {"value": {"tensor": {"dtype": "DT_FLOAT", "tensorShape": {"dim": [{"size": "3"}, {"size": "3"}, {"size": "1"}, {"size": "1"}]}}}, "dtype": {"type": "DT_FLOAT"}}}, {"name": "model_358/tf.nn.convolution_281/convolution/filter", "op": "Const", "attr": {"value": {"tensor": {"dtype": "DT_FLOAT", "tensorShape": {"dim": [{"size": "3"}, {"size": "3"}, {"size": "1"}, {"size": "1"}]}}}, "dtype": {"type": "DT_FLOAT"}}}, {"name": "model_358/tf.nn.convolution_282/convolution/filter", "op": "Const", "attr": {"value": {"tensor": {"dtype": "DT_FLOAT", "tensorShape": {"dim": [{"size": "3"}, {"size": "3"}, {"size": "1"}, {"size": "1"}]}}}, "dtype": {"type": "DT_FLOAT"}}}, {"name": "model_358/tf.nn.convolution_283/convolution/filter", "op": "Const", "attr": {"value": {"tensor": {"dtype": "DT_FLOAT", "tensorShape": {"dim": [{"size": "3"}, {"size": "3"}, {"size": "1"}, {"size": "1"}]}}}, "dtype": {"type": "DT_FLOAT"}}}, {"name": "model_358/tf.nn.convolution_284/convolution/filter", "op": "Const", "attr": {"value": {"tensor": {"dtype": "DT_FLOAT", "tensorShape": {"dim": [{"size": "3"}, {"size": "3"}, {"size": "1"}, {"size": "1"}]}}}, "dtype": {"type": "DT_FLOAT"}}}, {"name": "model_358/tf.nn.convolution_285/convolution/filter", "op": "Const", "attr": {"value": {"tensor": {"dtype": "DT_FLOAT", "tensorShape": {"dim": [{"size": "3"}, {"size": "3"}, {"size": "1"}, {"size": "1"}]}}}, "dtype": {"type": "DT_FLOAT"}}}, {"name": "model_358/tf.nn.convolution_286/convolution/filter", "op": "Const", "attr": {"value": {"tensor": {"dtype": "DT_FLOAT", "tensorShape": {"dim": [{"size": "3"}, {"size": "3"}, {"size": "1"}, {"size": "1"}]}}}, "dtype": {"type": "DT_FLOAT"}}}, {"name": "model_358/tf.nn.convolution_287/convolution/filter", "op": "Const", "attr": {"value": {"tensor": {"dtype": "DT_FLOAT", "tensorShape": {"dim": [{"size": "3"}, {"size": "3"}, {"size": "1"}, {"size": "1"}]}}}, "dtype": {"type": "DT_FLOAT"}}}, {"name": "model_358/tf.nn.convolution_288/convolution/filter", "op": "Const", "attr": {"value": {"tensor": {"dtype": "DT_FLOAT", "tensorShape": {"dim": [{"size": "3"}, {"size": "3"}, {"size": "1"}, {"size": "1"}]}}}, "dtype": {"type": "DT_FLOAT"}}}, {"name": "model_358/tf.nn.convolution_289/convolution/filter", "op": "Const", "attr": {"value": {"tensor": {"dtype": "DT_FLOAT", "tensorShape": {"dim": [{"size": "3"}, {"size": "3"}, {"size": "1"}, {"size": "1"}]}}}, "dtype": {"type": "DT_FLOAT"}}}, {"name": "model_358/tf.nn.convolution_290/convolution/filter", "op": "Const", "attr": {"value": {"tensor": {"dtype": "DT_FLOAT", "tensorShape": {"dim": [{"size": "3"}, {"size": "3"}, {"size": "1"}, {"size": "1"}]}}}, "dtype": {"type": "DT_FLOAT"}}}, {"name": "model_358/tf.nn.convolution_291/convolution/filter", "op": "Const", "attr": {"value": {"tensor": {"dtype": "DT_FLOAT", "tensorShape": {"dim": [{"size": "3"}, {"size": "3"}, {"size": "1"}, {"size": "1"}]}}}, "dtype": {"type": "DT_FLOAT"}}}, {"name": "model_358/tf.nn.convolution_292/convolution/filter", "op": "Const", "attr": {"value": {"tensor": {"dtype": "DT_FLOAT", "tensorShape": {"dim": [{"size": "3"}, {"size": "3"}, {"size": "1"}, {"size": "1"}]}}}, "dtype": {"type": "DT_FLOAT"}}}, {"name": "model_358/tf.nn.convolution_293/convolution/filter", "op": "Const", "attr": {"value": {"tensor": {"dtype": "DT_FLOAT", "tensorShape": {"dim": [{"size": "3"}, {"size": "3"}, {"size": "1"}, {"size": "1"}]}}}, "dtype": {"type": "DT_FLOAT"}}}, {"name": "model_358/tf.nn.convolution_294/convolution/filter", "op": "Const", "attr": {"value": {"tensor": {"dtype": "DT_FLOAT", "tensorShape": {"dim": [{"size": "3"}, {"size": "3"}, {"size": "1"}, {"size": "1"}]}}}, "dtype": {"type": "DT_FLOAT"}}}, {"name": "model_358/tf.nn.convolution_295/convolution/filter", "op": "Const", "attr": {"value": {"tensor": {"dtype": "DT_FLOAT", "tensorShape": {"dim": [{"size": "3"}, {"size": "3"}, {"size": "1"}, {"size": "1"}]}}}, "dtype": {"type": "DT_FLOAT"}}}, {"name": "model_358/tf.nn.convolution_296/convolution/filter", "op": "Const", "attr": {"value": {"tensor": {"dtype": "DT_FLOAT", "tensorShape": {"dim": [{"size": "3"}, {"size": "3"}, {"size": "1"}, {"size": "1"}]}}}, "dtype": {"type": "DT_FLOAT"}}}, {"name": "model_358/tf.nn.convolution_297/convolution/filter", "op": "Const", "attr": {"value": {"tensor": {"dtype": "DT_FLOAT", "tensorShape": {"dim": [{"size": "3"}, {"size": "3"}, {"size": "1"}, {"size": "1"}]}}}, "dtype": {"type": "DT_FLOAT"}}}, {"name": "model_358/tf.nn.convolution_298/convolution/filter", "op": "Const", "attr": {"value": {"tensor": {"dtype": "DT_FLOAT", "tensorShape": {"dim": [{"size": "3"}, {"size": "3"}, {"size": "1"}, {"size": "1"}]}}}, "dtype": {"type": "DT_FLOAT"}}}, {"name": "model_358/tf.nn.convolution_299/convolution/filter", "op": "Const", "attr": {"value": {"tensor": {"dtype": "DT_FLOAT", "tensorShape": {"dim": [{"size": "3"}, {"size": "3"}, {"size": "1"}, {"size": "1"}]}}}, "dtype": {"type": "DT_FLOAT"}}}, {"name": "model_358/tf.nn.convolution_300/convolution/filter", "op": "Const", "attr": {"value": {"tensor": {"dtype": "DT_FLOAT", "tensorShape": {"dim": [{"size": "3"}, {"size": "3"}, {"size": "1"}, {"size": "1"}]}}}, "dtype": {"type": "DT_FLOAT"}}}, {"name": "model_358/tf.nn.convolution_301/convolution/filter", "op": "Const", "attr": {"value": {"tensor": {"dtype": "DT_FLOAT", "tensorShape": {"dim": [{"size": "3"}, {"size": "3"}, {"size": "1"}, {"size": "1"}]}}}, "dtype": {"type": "DT_FLOAT"}}}, {"name": "model_358/tf.nn.convolution_302/convolution/filter", "op": "Const", "attr": {"value": {"tensor": {"dtype": "DT_FLOAT", "tensorShape": {"dim": [{"size": "3"}, {"size": "3"}, {"size": "1"}, {"size": "1"}]}}}, "dtype": {"type": "DT_FLOAT"}}}, {"name": "model_358/tf.nn.convolution_303/convolution/filter", "op": "Const", "attr": {"value": {"tensor": {"dtype": "DT_FLOAT", "tensorShape": {"dim": [{"size": "3"}, {"size": "3"}, {"size": "1"}, {"size": "1"}]}}}, "dtype": {"type": "DT_FLOAT"}}}, {"name": "model_358/tf.nn.convolution_304/convolution/filter", "op": "Const", "attr": {"value": {"tensor": {"dtype": "DT_FLOAT", "tensorShape": {"dim": [{"size": "3"}, {"size": "3"}, {"size": "1"}, {"size": "1"}]}}}, "dtype": {"type": "DT_FLOAT"}}}, {"name": "model_358/tf.nn.convolution_305/convolution/filter", "op": "Const", "attr": {"value": {"tensor": {"dtype": "DT_FLOAT", "tensorShape": {"dim": [{"size": "3"}, {"size": "3"}, {"size": "1"}, {"size": "1"}]}}}, "dtype": {"type": "DT_FLOAT"}}}, {"name": "model_358/tf.nn.convolution_306/convolution/filter", "op": "Const", "attr": {"value": {"tensor": {"dtype": "DT_FLOAT", "tensorShape": {"dim": [{"size": "3"}, {"size": "3"}, {"size": "1"}, {"size": "1"}]}}}, "dtype": {"type": "DT_FLOAT"}}}, {"name": "model_358/tf.nn.convolution_307/convolution/filter", "op": "Const", "attr": {"value": {"tensor": {"dtype": "DT_FLOAT", "tensorShape": {"dim": [{"size": "3"}, {"size": "3"}, {"size": "1"}, {"size": "1"}]}}}, "dtype": {"type": "DT_FLOAT"}}}, {"name": "model_358/tf.nn.convolution_308/convolution/filter", "op": "Const", "attr": {"value": {"tensor": {"dtype": "DT_FLOAT", "tensorShape": {"dim": [{"size": "3"}, {"size": "3"}, {"size": "1"}, {"size": "1"}]}}}, "dtype": {"type": "DT_FLOAT"}}}, {"name": "model_358/tf.nn.convolution_309/convolution/filter", "op": "Const", "attr": {"value": {"tensor": {"dtype": "DT_FLOAT", "tensorShape": {"dim": [{"size": "3"}, {"size": "3"}, {"size": "1"}, {"size": "1"}]}}}, "dtype": {"type": "DT_FLOAT"}}}, {"name": "model_358/tf.nn.convolution_310/convolution/filter", "op": "Const", "attr": {"value": {"tensor": {"dtype": "DT_FLOAT", "tensorShape": {"dim": [{"size": "3"}, {"size": "3"}, {"size": "1"}, {"size": "1"}]}}}, "dtype": {"type": "DT_FLOAT"}}}, {"name": "model_358/tf.nn.convolution_311/convolution/filter", "op": "Const", "attr": {"value": {"tensor": {"dtype": "DT_FLOAT", "tensorShape": {"dim": [{"size": "3"}, {"size": "3"}, {"size": "1"}, {"size": "1"}]}}}, "dtype": {"type": "DT_FLOAT"}}}, {"name": "model_358/tf.nn.convolution_312/convolution/filter", "op": "Const", "attr": {"value": {"tensor": {"dtype": "DT_FLOAT", "tensorShape": {"dim": [{"size": "3"}, {"size": "3"}, {"size": "1"}, {"size": "1"}]}}}, "dtype": {"type": "DT_FLOAT"}}}, {"name": "model_358/tf.nn.convolution_313/convolution/filter", "op": "Const", "attr": {"value": {"tensor": {"dtype": "DT_FLOAT", "tensorShape": {"dim": [{"size": "3"}, {"size": "3"}, {"size": "1"}, {"size": "1"}]}}}, "dtype": {"type": "DT_FLOAT"}}}, {"name": "model_358/tf.nn.convolution_314/convolution/filter", "op": "Const", "attr": {"value": {"tensor": {"dtype": "DT_FLOAT", "tensorShape": {"dim": [{"size": "3"}, {"size": "3"}, {"size": "1"}, {"size": "1"}]}}}, "dtype": {"type": "DT_FLOAT"}}}, {"name": "model_358/tf.nn.convolution_315/convolution/filter", "op": "Const", "attr": {"value": {"tensor": {"dtype": "DT_FLOAT", "tensorShape": {"dim": [{"size": "3"}, {"size": "3"}, {"size": "1"}, {"size": "1"}]}}}, "dtype": {"type": "DT_FLOAT"}}}, {"name": "model_358/tf.nn.convolution_316/convolution/filter", "op": "Const", "attr": {"value": {"tensor": {"dtype": "DT_FLOAT", "tensorShape": {"dim": [{"size": "3"}, {"size": "3"}, {"size": "1"}, {"size": "1"}]}}}, "dtype": {"type": "DT_FLOAT"}}}, {"name": "model_358/tf.nn.convolution_317/convolution/filter", "op": "Const", "attr": {"value": {"tensor": {"dtype": "DT_FLOAT", "tensorShape": {"dim": [{"size": "3"}, {"size": "3"}, {"size": "1"}, {"size": "1"}]}}}, "dtype": {"type": "DT_FLOAT"}}}, {"name": "model_358/tf.nn.convolution_318/convolution/filter", "op": "Const", "attr": {"value": {"tensor": {"dtype": "DT_FLOAT", "tensorShape": {"dim": [{"size": "3"}, {"size": "3"}, {"size": "1"}, {"size": "1"}]}}}, "dtype": {"type": "DT_FLOAT"}}}, {"name": "model_358/tf.nn.convolution_319/convolution/filter", "op": "Const", "attr": {"value": {"tensor": {"dtype": "DT_FLOAT", "tensorShape": {"dim": [{"size": "3"}, {"size": "3"}, {"size": "1"}, {"size": "1"}]}}}, "dtype": {"type": "DT_FLOAT"}}}, {"name": "model_358/tf.nn.convolution_320/convolution/filter", "op": "Const", "attr": {"value": {"tensor": {"dtype": "DT_FLOAT", "tensorShape": {"dim": [{"size": "3"}, {"size": "3"}, {"size": "1"}, {"size": "1"}]}}}, "dtype": {"type": "DT_FLOAT"}}}, {"name": "model_358/tf.nn.convolution_321/convolution/filter", "op": "Const", "attr": {"value": {"tensor": {"dtype": "DT_FLOAT", "tensorShape": {"dim": [{"size": "3"}, {"size": "3"}, {"size": "1"}, {"size": "1"}]}}}, "dtype": {"type": "DT_FLOAT"}}}, {"name": "model_358/tf.nn.convolution_322/convolution/filter", "op": "Const", "attr": {"value": {"tensor": {"dtype": "DT_FLOAT", "tensorShape": {"dim": [{"size": "3"}, {"size": "3"}, {"size": "1"}, {"size": "1"}]}}}, "dtype": {"type": "DT_FLOAT"}}}, {"name": "model_358/tf.nn.convolution_323/convolution/filter", "op": "Const", "attr": {"value": {"tensor": {"dtype": "DT_FLOAT", "tensorShape": {"dim": [{"size": "3"}, {"size": "3"}, {"size": "1"}, {"size": "1"}]}}}, "dtype": {"type": "DT_FLOAT"}}}, {"name": "model_358/tf.nn.convolution_324/convolution/filter", "op": "Const", "attr": {"value": {"tensor": {"dtype": "DT_FLOAT", "tensorShape": {"dim": [{"size": "3"}, {"size": "3"}, {"size": "1"}, {"size": "1"}]}}}, "dtype": {"type": "DT_FLOAT"}}}, {"name": "model_358/tf.nn.convolution_325/convolution/filter", "op": "Const", "attr": {"value": {"tensor": {"dtype": "DT_FLOAT", "tensorShape": {"dim": [{"size": "3"}, {"size": "3"}, {"size": "1"}, {"size": "1"}]}}}, "dtype": {"type": "DT_FLOAT"}}}, {"name": "model_358/tf.nn.convolution_326/convolution/filter", "op": "Const", "attr": {"value": {"tensor": {"dtype": "DT_FLOAT", "tensorShape": {"dim": [{"size": "3"}, {"size": "3"}, {"size": "1"}, {"size": "1"}]}}}, "dtype": {"type": "DT_FLOAT"}}}, {"name": "model_358/tf.nn.convolution_327/convolution/filter", "op": "Const", "attr": {"value": {"tensor": {"dtype": "DT_FLOAT", "tensorShape": {"dim": [{"size": "3"}, {"size": "3"}, {"size": "1"}, {"size": "1"}]}}}, "dtype": {"type": "DT_FLOAT"}}}, {"name": "model_358/tf.nn.convolution_328/convolution/filter", "op": "Const", "attr": {"value": {"tensor": {"dtype": "DT_FLOAT", "tensorShape": {"dim": [{"size": "3"}, {"size": "3"}, {"size": "1"}, {"size": "1"}]}}}, "dtype": {"type": "DT_FLOAT"}}}, {"name": "model_358/tf.nn.convolution_329/convolution/filter", "op": "Const", "attr": {"value": {"tensor": {"dtype": "DT_FLOAT", "tensorShape": {"dim": [{"size": "3"}, {"size": "3"}, {"size": "1"}, {"size": "1"}]}}}, "dtype": {"type": "DT_FLOAT"}}}, {"name": "model_358/tf.nn.convolution_330/convolution/filter", "op": "Const", "attr": {"value": {"tensor": {"dtype": "DT_FLOAT", "tensorShape": {"dim": [{"size": "3"}, {"size": "3"}, {"size": "1"}, {"size": "1"}]}}}, "dtype": {"type": "DT_FLOAT"}}}, {"name": "model_358/tf.nn.convolution_331/convolution/filter", "op": "Const", "attr": {"value": {"tensor": {"dtype": "DT_FLOAT", "tensorShape": {"dim": [{"size": "3"}, {"size": "3"}, {"size": "1"}, {"size": "1"}]}}}, "dtype": {"type": "DT_FLOAT"}}}, {"name": "model_358/tf.nn.convolution_332/convolution/filter", "op": "Const", "attr": {"value": {"tensor": {"dtype": "DT_FLOAT", "tensorShape": {"dim": [{"size": "3"}, {"size": "3"}, {"size": "1"}, {"size": "1"}]}}}, "dtype": {"type": "DT_FLOAT"}}}, {"name": "model_358/tf.nn.convolution_333/convolution/filter", "op": "Const", "attr": {"value": {"tensor": {"dtype": "DT_FLOAT", "tensorShape": {"dim": [{"size": "3"}, {"size": "3"}, {"size": "1"}, {"size": "1"}]}}}, "dtype": {"type": "DT_FLOAT"}}}, {"name": "model_358/tf.nn.convolution_334/convolution/filter", "op": "Const", "attr": {"value": {"tensor": {"dtype": "DT_FLOAT", "tensorShape": {"dim": [{"size": "3"}, {"size": "3"}, {"size": "1"}, {"size": "1"}]}}}, "dtype": {"type": "DT_FLOAT"}}}, {"name": "model_358/tf.nn.convolution_335/convolution/filter", "op": "Const", "attr": {"value": {"tensor": {"dtype": "DT_FLOAT", "tensorShape": {"dim": [{"size": "3"}, {"size": "3"}, {"size": "1"}, {"size": "1"}]}}}, "dtype": {"type": "DT_FLOAT"}}}, {"name": "model_358/tf.nn.convolution_336/convolution/filter", "op": "Const", "attr": {"value": {"tensor": {"dtype": "DT_FLOAT", "tensorShape": {"dim": [{"size": "3"}, {"size": "3"}, {"size": "1"}, {"size": "1"}]}}}, "dtype": {"type": "DT_FLOAT"}}}, {"name": "model_358/tf.nn.convolution_337/convolution/filter", "op": "Const", "attr": {"value": {"tensor": {"dtype": "DT_FLOAT", "tensorShape": {"dim": [{"size": "3"}, {"size": "3"}, {"size": "1"}, {"size": "1"}]}}}, "dtype": {"type": "DT_FLOAT"}}}, {"name": "model_358/tf.nn.convolution_338/convolution/filter", "op": "Const", "attr": {"value": {"tensor": {"dtype": "DT_FLOAT", "tensorShape": {"dim": [{"size": "3"}, {"size": "3"}, {"size": "1"}, {"size": "1"}]}}}, "dtype": {"type": "DT_FLOAT"}}}, {"name": "model_358/tf.split_1/split/split_dim", "op": "Const", "attr": {"value": {"tensor": {"dtype": "DT_INT32", "tensorShape": {}}}, "dtype": {"type": "DT_INT32"}}}, {"name": "model_358/tf.strided_slice_17/ones_like/tensor", "op": "Const", "attr": {"value": {"tensor": {"dtype": "DT_INT64", "tensorShape": {"dim": [{"size": "4"}]}}}, "dtype": {"type": "DT_INT64"}}}, {"name": "model_358/tf.strided_slice_17/StridedSlice/end", "op": "Const", "attr": {"value": {"tensor": {"dtype": "DT_INT64", "tensorShape": {"dim": [{"size": "4"}]}}}, "dtype": {"type": "DT_INT64"}}}, {"name": "model_358/tf.strided_slice_17/ones_like", "op": "Const", "attr": {"value": {"tensor": {"dtype": "DT_INT64", "tensorShape": {"dim": [{"size": "4"}]}}}, "dtype": {"type": "DT_INT64"}}}, {"name": "model_358/tf.nn.convolution_191/convolution/filter", "op": "Const", "attr": {"value": {"tensor": {"dtype": "DT_FLOAT", "tensorShape": {"dim": [{"size": "1"}, {"size": "1"}, {"size": "64"}, {"size": "32"}]}}}, "dtype": {"type": "DT_FLOAT"}}}, {"name": "model_358/tf.math.add_94/Add/y", "op": "Const", "attr": {"value": {"tensor": {"dtype": "DT_FLOAT", "tensorShape": {"dim": [{"size": "32"}]}}}, "dtype": {"type": "DT_FLOAT"}}}, {"name": "model_358/tf.nn.convolution_194/convolution/filter", "op": "Const", "attr": {"value": {"tensor": {"dtype": "DT_FLOAT", "tensorShape": {"dim": [{"size": "3"}, {"size": "3"}, {"size": "32"}, {"size": "32"}]}}}, "dtype": {"type": "DT_FLOAT"}}}, {"name": "model_358/tf.math.add_97/Add/y", "op": "Const", "attr": {"value": {"tensor": {"dtype": "DT_FLOAT", "tensorShape": {"dim": [{"size": "32"}]}}}, "dtype": {"type": "DT_FLOAT"}}}, {"name": "model_358/tf.nn.convolution_196/convolution/filter", "op": "Const", "attr": {"value": {"tensor": {"dtype": "DT_FLOAT", "tensorShape": {"dim": [{"size": "3"}, {"size": "3"}, {"size": "32"}, {"size": "32"}]}}}, "dtype": {"type": "DT_FLOAT"}}}, {"name": "model_358/tf.math.add_99/Add/y", "op": "Const", "attr": {"value": {"tensor": {"dtype": "DT_FLOAT", "tensorShape": {"dim": [{"size": "32"}]}}}, "dtype": {"type": "DT_FLOAT"}}}, {"name": "model_358/tf.nn.convolution_197/convolution/filter", "op": "Const", "attr": {"value": {"tensor": {"dtype": "DT_FLOAT", "tensorShape": {"dim": [{"size": "3"}, {"size": "3"}, {"size": "32"}, {"size": "32"}]}}}, "dtype": {"type": "DT_FLOAT"}}}, {"name": "model_358/tf.math.add_102/Add/y", "op": "Const", "attr": {"value": {"tensor": {"dtype": "DT_FLOAT", "tensorShape": {"dim": [{"size": "32"}]}}}, "dtype": {"type": "DT_FLOAT"}}}, {"name": "model_358/tf.nn.convolution_198/convolution/filter", "op": "Const", "attr": {"value": {"tensor": {"dtype": "DT_FLOAT", "tensorShape": {"dim": [{"size": "3"}, {"size": "3"}, {"size": "32"}, {"size": "32"}]}}}, "dtype": {"type": "DT_FLOAT"}}}, {"name": "model_358/tf.math.add_103/Add/y", "op": "Const", "attr": {"value": {"tensor": {"dtype": "DT_FLOAT", "tensorShape": {"dim": [{"size": "32"}]}}}, "dtype": {"type": "DT_FLOAT"}}}, {"name": "model_358/tf.strided_slice_15/ones_like/tensor", "op": "Const", "attr": {"value": {"tensor": {"dtype": "DT_INT64", "tensorShape": {"dim": [{"size": "4"}]}}}, "dtype": {"type": "DT_INT64"}}}, {"name": "model_358/tf.strided_slice_15/StridedSlice/end", "op": "Const", "attr": {"value": {"tensor": {"dtype": "DT_INT64", "tensorShape": {"dim": [{"size": "4"}]}}}, "dtype": {"type": "DT_INT64"}}}, {"name": "model_358/tf.strided_slice_15/ones_like", "op": "Const", "attr": {"value": {"tensor": {"dtype": "DT_INT64", "tensorShape": {"dim": [{"size": "4"}]}}}, "dtype": {"type": "DT_INT64"}}}, {"name": "model_358/tf.nn.convolution_177/convolution/filter", "op": "Const", "attr": {"value": {"tensor": {"dtype": "DT_FLOAT", "tensorShape": {"dim": [{"size": "1"}, {"size": "1"}, {"size": "32"}, {"size": "16"}]}}}, "dtype": {"type": "DT_FLOAT"}}}, {"name": "model_358/tf.math.add_74/Add/y", "op": "Const", "attr": {"value": {"tensor": {"dtype": "DT_FLOAT", "tensorShape": {"dim": [{"size": "16"}]}}}, "dtype": {"type": "DT_FLOAT"}}}, {"name": "model_358/tf.nn.convolution_179/convolution/filter", "op": "Const", "attr": {"value": {"tensor": {"dtype": "DT_FLOAT", "tensorShape": {"dim": [{"size": "3"}, {"size": "3"}, {"size": "16"}, {"size": "16"}]}}}, "dtype": {"type": "DT_FLOAT"}}}, {"name": "model_358/tf.math.add_76/Add/y", "op": "Const", "attr": {"value": {"tensor": {"dtype": "DT_FLOAT", "tensorShape": {"dim": [{"size": "16"}]}}}, "dtype": {"type": "DT_FLOAT"}}}, {"name": "model_358/tf.nn.convolution_180/convolution/filter", "op": "Const", "attr": {"value": {"tensor": {"dtype": "DT_FLOAT", "tensorShape": {"dim": [{"size": "3"}, {"size": "3"}, {"size": "16"}, {"size": "16"}]}}}, "dtype": {"type": "DT_FLOAT"}}}, {"name": "model_358/tf.math.add_77/Add/y", "op": "Const", "attr": {"value": {"tensor": {"dtype": "DT_FLOAT", "tensorShape": {"dim": [{"size": "16"}]}}}, "dtype": {"type": "DT_FLOAT"}}}, {"name": "model_358/tf.nn.convolution_181/convolution/filter", "op": "Const", "attr": {"value": {"tensor": {"dtype": "DT_FLOAT", "tensorShape": {"dim": [{"size": "3"}, {"size": "3"}, {"size": "16"}, {"size": "16"}]}}}, "dtype": {"type": "DT_FLOAT"}}}, {"name": "model_358/tf.math.add_80/Add/y", "op": "Const", "attr": {"value": {"tensor": {"dtype": "DT_FLOAT", "tensorShape": {"dim": [{"size": "16"}]}}}, "dtype": {"type": "DT_FLOAT"}}}, {"name": "model_358/tf.nn.convolution_182/convolution/filter", "op": "Const", "attr": {"value": {"tensor": {"dtype": "DT_FLOAT", "tensorShape": {"dim": [{"size": "3"}, {"size": "3"}, {"size": "16"}, {"size": "16"}]}}}, "dtype": {"type": "DT_FLOAT"}}}, {"name": "model_358/tf.math.add_81/Add/y", "op": "Const", "attr": {"value": {"tensor": {"dtype": "DT_FLOAT", "tensorShape": {"dim": [{"size": "16"}]}}}, "dtype": {"type": "DT_FLOAT"}}}, {"name": "model_358/tf.image.resize_1/resize/size", "op": "Const", "attr": {"value": {"tensor": {"dtype": "DT_INT32", "tensorShape": {"dim": [{"size": "2"}]}}}, "dtype": {"type": "DT_INT32"}}}, {"name": "model_358/tf.concat_12/concat/axis", "op": "Const", "attr": {"value": {"tensor": {"dtype": "DT_INT32", "tensorShape": {}}}, "dtype": {"type": "DT_INT32"}}}, {"name": "model_358/tf.nn.convolution_176/convolution/filter", "op": "Const", "attr": {"value": {"tensor": {"dtype": "DT_FLOAT", "tensorShape": {"dim": [{"size": "1"}, {"size": "1"}, {"size": "256"}, {"size": "64"}]}}}, "dtype": {"type": "DT_FLOAT"}}}, {"name": "model_358/tf.math.add_73/Add/y", "op": "Const", "attr": {"value": {"tensor": {"dtype": "DT_FLOAT", "tensorShape": {"dim": [{"size": "64"}]}}}, "dtype": {"type": "DT_FLOAT"}}}, {"name": "model_358/tf.strided_slice_16/ones_like/tensor", "op": "Const", "attr": {"value": {"tensor": {"dtype": "DT_INT64", "tensorShape": {"dim": [{"size": "4"}]}}}, "dtype": {"type": "DT_INT64"}}}, {"name": "model_358/tf.strided_slice_16/StridedSlice/end", "op": "Const", "attr": {"value": {"tensor": {"dtype": "DT_INT64", "tensorShape": {"dim": [{"size": "4"}]}}}, "dtype": {"type": "DT_INT64"}}}, {"name": "model_358/tf.strided_slice_16/ones_like", "op": "Const", "attr": {"value": {"tensor": {"dtype": "DT_INT64", "tensorShape": {"dim": [{"size": "4"}]}}}, "dtype": {"type": "DT_INT64"}}}, {"name": "model_358/tf.nn.convolution_178/convolution/filter", "op": "Const", "attr": {"value": {"tensor": {"dtype": "DT_FLOAT", "tensorShape": {"dim": [{"size": "1"}, {"size": "1"}, {"size": "32"}, {"size": "16"}]}}}, "dtype": {"type": "DT_FLOAT"}}}, {"name": "model_358/tf.math.add_75/Add/y", "op": "Const", "attr": {"value": {"tensor": {"dtype": "DT_FLOAT", "tensorShape": {"dim": [{"size": "16"}]}}}, "dtype": {"type": "DT_FLOAT"}}}, {"name": "model_358/tf.concat_13/concat/axis", "op": "Const", "attr": {"value": {"tensor": {"dtype": "DT_INT32", "tensorShape": {}}}, "dtype": {"type": "DT_INT32"}}}, {"name": "model_358/tf.nn.convolution_183/convolution/filter", "op": "Const", "attr": {"value": {"tensor": {"dtype": "DT_FLOAT", "tensorShape": {"dim": [{"size": "1"}, {"size": "1"}, {"size": "32"}, {"size": "32"}]}}}, "dtype": {"type": "DT_FLOAT"}}}, {"name": "model_358/tf.math.add_84/Add/y", "op": "Const", "attr": {"value": {"tensor": {"dtype": "DT_FLOAT", "tensorShape": {"dim": [{"size": "32"}]}}}, "dtype": {"type": "DT_FLOAT"}}}, {"name": "model_358/tf.concat_14/concat/axis", "op": "Const", "attr": {"value": {"tensor": {"dtype": "DT_INT32", "tensorShape": {}}}, "dtype": {"type": "DT_INT32"}}}, {"name": "model_358/tf.nn.convolution_184/convolution/filter", "op": "Const", "attr": {"value": {"tensor": {"dtype": "DT_FLOAT", "tensorShape": {"dim": [{"size": "1"}, {"size": "1"}, {"size": "96"}, {"size": "64"}]}}}, "dtype": {"type": "DT_FLOAT"}}}, {"name": "model_358/tf.math.add_85/Add/y", "op": "Const", "attr": {"value": {"tensor": {"dtype": "DT_FLOAT", "tensorShape": {"dim": [{"size": "64"}]}}}, "dtype": {"type": "DT_FLOAT"}}}, {"name": "model_358/tf.compat.v1.pad_5/Pad/paddings", "op": "Const", "attr": {"value": {"tensor": {"dtype": "DT_INT32", "tensorShape": {"dim": [{"size": "4"}, {"size": "2"}]}}}, "dtype": {"type": "DT_INT32"}}}, {"name": "model_358/tf.nn.convolution_185/convolution/filter", "op": "Const", "attr": {"value": {"tensor": {"dtype": "DT_FLOAT", "tensorShape": {"dim": [{"size": "3"}, {"size": "3"}, {"size": "64"}, {"size": "64"}]}}}, "dtype": {"type": "DT_FLOAT"}}}, {"name": "model_358/tf.math.add_86/Add/y", "op": "Const", "attr": {"value": {"tensor": {"dtype": "DT_FLOAT", "tensorShape": {"dim": [{"size": "64"}]}}}, "dtype": {"type": "DT_FLOAT"}}}, {"name": "model_358/tf.strided_slice_13/ones_like/tensor", "op": "Const", "attr": {"value": {"tensor": {"dtype": "DT_INT64", "tensorShape": {"dim": [{"size": "4"}]}}}, "dtype": {"type": "DT_INT64"}}}, {"name": "model_358/tf.strided_slice_13/StridedSlice/end", "op": "Const", "attr": {"value": {"tensor": {"dtype": "DT_INT64", "tensorShape": {"dim": [{"size": "4"}]}}}, "dtype": {"type": "DT_INT64"}}}, {"name": "model_358/tf.strided_slice_13/ones_like", "op": "Const", "attr": {"value": {"tensor": {"dtype": "DT_INT64", "tensorShape": {"dim": [{"size": "4"}]}}}, "dtype": {"type": "DT_INT64"}}}, {"name": "model_358/tf.nn.convolution_168/convolution/filter", "op": "Const", "attr": {"value": {"tensor": {"dtype": "DT_FLOAT", "tensorShape": {"dim": [{"size": "1"}, {"size": "1"}, {"size": "64"}, {"size": "32"}]}}}, "dtype": {"type": "DT_FLOAT"}}}, {"name": "model_358/tf.math.add_61/Add/y", "op": "Const", "attr": {"value": {"tensor": {"dtype": "DT_FLOAT", "tensorShape": {"dim": [{"size": "32"}]}}}, "dtype": {"type": "DT_FLOAT"}}}, {"name": "model_358/tf.nn.convolution_170/convolution/filter", "op": "Const", "attr": {"value": {"tensor": {"dtype": "DT_FLOAT", "tensorShape": {"dim": [{"size": "3"}, {"size": "3"}, {"size": "32"}, {"size": "32"}]}}}, "dtype": {"type": "DT_FLOAT"}}}, {"name": "model_358/tf.math.add_63/Add/y", "op": "Const", "attr": {"value": {"tensor": {"dtype": "DT_FLOAT", "tensorShape": {"dim": [{"size": "32"}]}}}, "dtype": {"type": "DT_FLOAT"}}}, {"name": "model_358/tf.nn.convolution_171/convolution/filter", "op": "Const", "attr": {"value": {"tensor": {"dtype": "DT_FLOAT", "tensorShape": {"dim": [{"size": "3"}, {"size": "3"}, {"size": "32"}, {"size": "32"}]}}}, "dtype": {"type": "DT_FLOAT"}}}, {"name": "model_358/tf.math.add_64/Add/y", "op": "Const", "attr": {"value": {"tensor": {"dtype": "DT_FLOAT", "tensorShape": {"dim": [{"size": "32"}]}}}, "dtype": {"type": "DT_FLOAT"}}}, {"name": "model_358/tf.nn.convolution_172/convolution/filter", "op": "Const", "attr": {"value": {"tensor": {"dtype": "DT_FLOAT", "tensorShape": {"dim": [{"size": "3"}, {"size": "3"}, {"size": "32"}, {"size": "32"}]}}}, "dtype": {"type": "DT_FLOAT"}}}, {"name": "model_358/tf.math.add_67/Add/y", "op": "Const", "attr": {"value": {"tensor": {"dtype": "DT_FLOAT", "tensorShape": {"dim": [{"size": "32"}]}}}, "dtype": {"type": "DT_FLOAT"}}}, {"name": "model_358/tf.nn.convolution_173/convolution/filter", "op": "Const", "attr": {"value": {"tensor": {"dtype": "DT_FLOAT", "tensorShape": {"dim": [{"size": "3"}, {"size": "3"}, {"size": "32"}, {"size": "32"}]}}}, "dtype": {"type": "DT_FLOAT"}}}, {"name": "model_358/tf.math.add_68/Add/y", "op": "Const", "attr": {"value": {"tensor": {"dtype": "DT_FLOAT", "tensorShape": {"dim": [{"size": "32"}]}}}, "dtype": {"type": "DT_FLOAT"}}}, {"name": "model_358/tf.image.resize/resize/size", "op": "Const", "attr": {"value": {"tensor": {"dtype": "DT_INT32", "tensorShape": {"dim": [{"size": "2"}]}}}, "dtype": {"type": "DT_INT32"}}}, {"name": "model_358/tf.concat_9/concat/axis", "op": "Const", "attr": {"value": {"tensor": {"dtype": "DT_INT32", "tensorShape": {}}}, "dtype": {"type": "DT_INT32"}}}, {"name": "model_358/tf.nn.convolution_167/convolution/filter", "op": "Const", "attr": {"value": {"tensor": {"dtype": "DT_FLOAT", "tensorShape": {"dim": [{"size": "1"}, {"size": "1"}, {"size": "384"}, {"size": "128"}]}}}, "dtype": {"type": "DT_FLOAT"}}}, {"name": "model_358/tf.math.add_60/Add/y", "op": "Const", "attr": {"value": {"tensor": {"dtype": "DT_FLOAT", "tensorShape": {"dim": [{"size": "128"}]}}}, "dtype": {"type": "DT_FLOAT"}}}, {"name": "model_358/tf.strided_slice_14/ones_like/tensor", "op": "Const", "attr": {"value": {"tensor": {"dtype": "DT_INT64", "tensorShape": {"dim": [{"size": "4"}]}}}, "dtype": {"type": "DT_INT64"}}}, {"name": "model_358/tf.strided_slice_14/StridedSlice/end", "op": "Const", "attr": {"value": {"tensor": {"dtype": "DT_INT64", "tensorShape": {"dim": [{"size": "4"}]}}}, "dtype": {"type": "DT_INT64"}}}, {"name": "model_358/tf.strided_slice_14/ones_like", "op": "Const", "attr": {"value": {"tensor": {"dtype": "DT_INT64", "tensorShape": {"dim": [{"size": "4"}]}}}, "dtype": {"type": "DT_INT64"}}}, {"name": "model_358/tf.nn.convolution_169/convolution/filter", "op": "Const", "attr": {"value": {"tensor": {"dtype": "DT_FLOAT", "tensorShape": {"dim": [{"size": "1"}, {"size": "1"}, {"size": "64"}, {"size": "32"}]}}}, "dtype": {"type": "DT_FLOAT"}}}, {"name": "model_358/tf.math.add_62/Add/y", "op": "Const", "attr": {"value": {"tensor": {"dtype": "DT_FLOAT", "tensorShape": {"dim": [{"size": "32"}]}}}, "dtype": {"type": "DT_FLOAT"}}}, {"name": "model_358/tf.concat_10/concat/axis", "op": "Const", "attr": {"value": {"tensor": {"dtype": "DT_INT32", "tensorShape": {}}}, "dtype": {"type": "DT_INT32"}}}, {"name": "model_358/tf.nn.convolution_174/convolution/filter", "op": "Const", "attr": {"value": {"tensor": {"dtype": "DT_FLOAT", "tensorShape": {"dim": [{"size": "1"}, {"size": "1"}, {"size": "64"}, {"size": "64"}]}}}, "dtype": {"type": "DT_FLOAT"}}}, {"name": "model_358/tf.math.add_71/Add/y", "op": "Const", "attr": {"value": {"tensor": {"dtype": "DT_FLOAT", "tensorShape": {"dim": [{"size": "64"}]}}}, "dtype": {"type": "DT_FLOAT"}}}, {"name": "model_358/tf.concat_11/concat/axis", "op": "Const", "attr": {"value": {"tensor": {"dtype": "DT_INT32", "tensorShape": {}}}, "dtype": {"type": "DT_INT32"}}}, {"name": "model_358/tf.nn.convolution_175/convolution/filter", "op": "Const", "attr": {"value": {"tensor": {"dtype": "DT_FLOAT", "tensorShape": {"dim": [{"size": "1"}, {"size": "1"}, {"size": "192"}, {"size": "128"}]}}}, "dtype": {"type": "DT_FLOAT"}}}, {"name": "model_358/tf.math.add_72/Add/y", "op": "Const", "attr": {"value": {"tensor": {"dtype": "DT_FLOAT", "tensorShape": {"dim": [{"size": "128"}]}}}, "dtype": {"type": "DT_FLOAT"}}}, {"name": "model_358/tf.concat_15/concat/axis", "op": "Const", "attr": {"value": {"tensor": {"dtype": "DT_INT32", "tensorShape": {}}}, "dtype": {"type": "DT_INT32"}}}, {"name": "model_358/tf.nn.convolution_189/convolution/filter", "op": "Const", "attr": {"value": {"tensor": {"dtype": "DT_FLOAT", "tensorShape": {"dim": [{"size": "1"}, {"size": "1"}, {"size": "192"}, {"size": "128"}]}}}, "dtype": {"type": "DT_FLOAT"}}}, {"name": "model_358/tf.math.add_91/Add/y", "op": "Const", "attr": {"value": {"tensor": {"dtype": "DT_FLOAT", "tensorShape": {"dim": [{"size": "128"}]}}}, "dtype": {"type": "DT_FLOAT"}}}, {"name": "model_358/tf.strided_slice_18/ones_like/tensor", "op": "Const", "attr": {"value": {"tensor": {"dtype": "DT_INT64", "tensorShape": {"dim": [{"size": "4"}]}}}, "dtype": {"type": "DT_INT64"}}}, {"name": "model_358/tf.strided_slice_18/StridedSlice/end", "op": "Const", "attr": {"value": {"tensor": {"dtype": "DT_INT64", "tensorShape": {"dim": [{"size": "4"}]}}}, "dtype": {"type": "DT_INT64"}}}, {"name": "model_358/tf.strided_slice_18/ones_like", "op": "Const", "attr": {"value": {"tensor": {"dtype": "DT_INT64", "tensorShape": {"dim": [{"size": "4"}]}}}, "dtype": {"type": "DT_INT64"}}}, {"name": "model_358/tf.nn.convolution_192/convolution/filter", "op": "Const", "attr": {"value": {"tensor": {"dtype": "DT_FLOAT", "tensorShape": {"dim": [{"size": "1"}, {"size": "1"}, {"size": "64"}, {"size": "32"}]}}}, "dtype": {"type": "DT_FLOAT"}}}, {"name": "model_358/tf.math.add_95/Add/y", "op": "Const", "attr": {"value": {"tensor": {"dtype": "DT_FLOAT", "tensorShape": {"dim": [{"size": "32"}]}}}, "dtype": {"type": "DT_FLOAT"}}}, {"name": "model_358/tf.concat_16/concat/axis", "op": "Const", "attr": {"value": {"tensor": {"dtype": "DT_INT32", "tensorShape": {}}}, "dtype": {"type": "DT_INT32"}}}, {"name": "model_358/tf.nn.convolution_199/convolution/filter", "op": "Const", "attr": {"value": {"tensor": {"dtype": "DT_FLOAT", "tensorShape": {"dim": [{"size": "1"}, {"size": "1"}, {"size": "64"}, {"size": "64"}]}}}, "dtype": {"type": "DT_FLOAT"}}}, {"name": "model_358/tf.math.add_106/Add/y", "op": "Const", "attr": {"value": {"tensor": {"dtype": "DT_FLOAT", "tensorShape": {"dim": [{"size": "64"}]}}}, "dtype": {"type": "DT_FLOAT"}}}, {"name": "model_358/tf.concat_17/concat/axis", "op": "Const", "attr": {"value": {"tensor": {"dtype": "DT_INT32", "tensorShape": {}}}, "dtype": {"type": "DT_INT32"}}}, {"name": "model_358/tf.nn.convolution_200/convolution/filter", "op": "Const", "attr": {"value": {"tensor": {"dtype": "DT_FLOAT", "tensorShape": {"dim": [{"size": "1"}, {"size": "1"}, {"size": "192"}, {"size": "128"}]}}}, "dtype": {"type": "DT_FLOAT"}}}, {"name": "model_358/tf.math.add_107/Add/y", "op": "Const", "attr": {"value": {"tensor": {"dtype": "DT_FLOAT", "tensorShape": {"dim": [{"size": "128"}]}}}, "dtype": {"type": "DT_FLOAT"}}}, {"name": "model_358/tf.compat.v1.pad_6/Pad/paddings", "op": "Const", "attr": {"value": {"tensor": {"dtype": "DT_INT32", "tensorShape": {"dim": [{"size": "4"}, {"size": "2"}]}}}, "dtype": {"type": "DT_INT32"}}}, {"name": "model_358/tf.nn.convolution_201/convolution/filter", "op": "Const", "attr": {"value": {"tensor": {"dtype": "DT_FLOAT", "tensorShape": {"dim": [{"size": "3"}, {"size": "3"}, {"size": "128"}, {"size": "128"}]}}}, "dtype": {"type": "DT_FLOAT"}}}, {"name": "model_358/tf.math.add_108/Add/y", "op": "Const", "attr": {"value": {"tensor": {"dtype": "DT_FLOAT", "tensorShape": {"dim": [{"size": "128"}]}}}, "dtype": {"type": "DT_FLOAT"}}}, {"name": "model_358/tf.strided_slice_8/StridedSlice/begin", "op": "Const", "attr": {"value": {"tensor": {"dtype": "DT_INT32", "tensorShape": {"dim": [{"size": "4"}]}}}, "dtype": {"type": "DT_INT32"}}}, {"name": "model_358/tf.strided_slice_8/StridedSlice/end", "op": "Const", "attr": {"value": {"tensor": {"dtype": "DT_INT32", "tensorShape": {"dim": [{"size": "4"}]}}}, "dtype": {"type": "DT_INT32"}}}, {"name": "model_358/tf.strided_slice_8/ones_like", "op": "Const", "attr": {"value": {"tensor": {"dtype": "DT_INT32", "tensorShape": {"dim": [{"size": "4"}]}}}, "dtype": {"type": "DT_INT32"}}}, {"name": "model_358/tf.math.add_56/Add/y", "op": "Const", "attr": {"value": {"tensor": {"dtype": "DT_FLOAT", "tensorShape": {"dim": [{"size": "128"}]}}}, "dtype": {"type": "DT_FLOAT"}}}, {"name": "model_358/tf.math.add_49/Add/y", "op": "Const", "attr": {"value": {"tensor": {"dtype": "DT_FLOAT", "tensorShape": {"dim": [{"size": "128"}]}}}, "dtype": {"type": "DT_FLOAT"}}}, {"name": "model_358/tf.strided_slice_10/StridedSlice/begin", "op": "Const", "attr": {"value": {"tensor": {"dtype": "DT_INT32", "tensorShape": {"dim": [{"size": "4"}]}}}, "dtype": {"type": "DT_INT32"}}}, {"name": "model_358/tf.strided_slice_10/StridedSlice/end", "op": "Const", "attr": {"value": {"tensor": {"dtype": "DT_INT32", "tensorShape": {"dim": [{"size": "4"}]}}}, "dtype": {"type": "DT_INT32"}}}, {"name": "model_358/tf.strided_slice_10/ones_like", "op": "Const", "attr": {"value": {"tensor": {"dtype": "DT_INT32", "tensorShape": {"dim": [{"size": "4"}]}}}, "dtype": {"type": "DT_INT32"}}}, {"name": "model_358/tf.strided_slice_11/StridedSlice/begin", "op": "Const", "attr": {"value": {"tensor": {"dtype": "DT_INT32", "tensorShape": {"dim": [{"size": "4"}]}}}, "dtype": {"type": "DT_INT32"}}}, {"name": "model_358/tf.strided_slice_11/StridedSlice/end", "op": "Const", "attr": {"value": {"tensor": {"dtype": "DT_INT32", "tensorShape": {"dim": [{"size": "4"}]}}}, "dtype": {"type": "DT_INT32"}}}, {"name": "model_358/tf.strided_slice_11/ones_like", "op": "Const", "attr": {"value": {"tensor": {"dtype": "DT_INT32", "tensorShape": {"dim": [{"size": "4"}]}}}, "dtype": {"type": "DT_INT32"}}}, {"name": "model_358/tf.compat.v1.transpose_58/transpose/perm", "op": "Const", "attr": {"value": {"tensor": {"dtype": "DT_INT32", "tensorShape": {"dim": [{"size": "4"}]}}}, "dtype": {"type": "DT_INT32"}}}, {"name": "model_358/tf.compat.v1.transpose_59/transpose/perm", "op": "Const", "attr": {"value": {"tensor": {"dtype": "DT_INT32", "tensorShape": {"dim": [{"size": "4"}]}}}, "dtype": {"type": "DT_INT32"}}}, {"name": "model_358/tf.math.multiply_148/Mul/y", "op": "Const", "attr": {"value": {"tensor": {"dtype": "DT_FLOAT", "tensorShape": {}}}, "dtype": {"type": "DT_FLOAT"}}}, {"name": "model_358/tf.compat.v1.transpose_62/transpose/perm", "op": "Const", "attr": {"value": {"tensor": {"dtype": "DT_INT32", "tensorShape": {"dim": [{"size": "4"}]}}}, "dtype": {"type": "DT_INT32"}}}, {"name": "model_358/tf.reshape_31/Reshape/shape", "op": "Const", "attr": {"value": {"tensor": {"dtype": "DT_INT32", "tensorShape": {"dim": [{"size": "4"}]}}}, "dtype": {"type": "DT_INT32"}}}, {"name": "model_358/tf.compat.v1.transpose_111/transpose/perm", "op": "Const", "attr": {"value": {"tensor": {"dtype": "DT_INT32", "tensorShape": {"dim": [{"size": "4"}]}}}, "dtype": {"type": "DT_INT32"}}}, {"name": "model_358/tf.nn.convolution_35/convolution/filter", "op": "Const", "attr": {"value": {"tensor": {"dtype": "DT_FLOAT", "tensorShape": {"dim": [{"size": "3"}, {"size": "3"}, {"size": "1"}, {"size": "1"}]}}}, "dtype": {"type": "DT_FLOAT"}}}, {"name": "model_358/tf.nn.convolution_36/convolution/filter", "op": "Const", "attr": {"value": {"tensor": {"dtype": "DT_FLOAT", "tensorShape": {"dim": [{"size": "3"}, {"size": "3"}, {"size": "1"}, {"size": "1"}]}}}, "dtype": {"type": "DT_FLOAT"}}}, {"name": "model_358/tf.nn.convolution_37/convolution/filter", "op": "Const", "attr": {"value": {"tensor": {"dtype": "DT_FLOAT", "tensorShape": {"dim": [{"size": "3"}, {"size": "3"}, {"size": "1"}, {"size": "1"}]}}}, "dtype": {"type": "DT_FLOAT"}}}, {"name": "model_358/tf.nn.convolution_38/convolution/filter", "op": "Const", "attr": {"value": {"tensor": {"dtype": "DT_FLOAT", "tensorShape": {"dim": [{"size": "3"}, {"size": "3"}, {"size": "1"}, {"size": "1"}]}}}, "dtype": {"type": "DT_FLOAT"}}}, {"name": "model_358/tf.nn.convolution_39/convolution/filter", "op": "Const", "attr": {"value": {"tensor": {"dtype": "DT_FLOAT", "tensorShape": {"dim": [{"size": "3"}, {"size": "3"}, {"size": "1"}, {"size": "1"}]}}}, "dtype": {"type": "DT_FLOAT"}}}, {"name": "model_358/tf.nn.convolution_40/convolution/filter", "op": "Const", "attr": {"value": {"tensor": {"dtype": "DT_FLOAT", "tensorShape": {"dim": [{"size": "3"}, {"size": "3"}, {"size": "1"}, {"size": "1"}]}}}, "dtype": {"type": "DT_FLOAT"}}}, {"name": "model_358/tf.nn.convolution_41/convolution/filter", "op": "Const", "attr": {"value": {"tensor": {"dtype": "DT_FLOAT", "tensorShape": {"dim": [{"size": "3"}, {"size": "3"}, {"size": "1"}, {"size": "1"}]}}}, "dtype": {"type": "DT_FLOAT"}}}, {"name": "model_358/tf.nn.convolution_42/convolution/filter", "op": "Const", "attr": {"value": {"tensor": {"dtype": "DT_FLOAT", "tensorShape": {"dim": [{"size": "3"}, {"size": "3"}, {"size": "1"}, {"size": "1"}]}}}, "dtype": {"type": "DT_FLOAT"}}}, {"name": "model_358/tf.nn.convolution_43/convolution/filter", "op": "Const", "attr": {"value": {"tensor": {"dtype": "DT_FLOAT", "tensorShape": {"dim": [{"size": "3"}, {"size": "3"}, {"size": "1"}, {"size": "1"}]}}}, "dtype": {"type": "DT_FLOAT"}}}, {"name": "model_358/tf.nn.convolution_44/convolution/filter", "op": "Const", "attr": {"value": {"tensor": {"dtype": "DT_FLOAT", "tensorShape": {"dim": [{"size": "3"}, {"size": "3"}, {"size": "1"}, {"size": "1"}]}}}, "dtype": {"type": "DT_FLOAT"}}}, {"name": "model_358/tf.nn.convolution_45/convolution/filter", "op": "Const", "attr": {"value": {"tensor": {"dtype": "DT_FLOAT", "tensorShape": {"dim": [{"size": "3"}, {"size": "3"}, {"size": "1"}, {"size": "1"}]}}}, "dtype": {"type": "DT_FLOAT"}}}, {"name": "model_358/tf.nn.convolution_46/convolution/filter", "op": "Const", "attr": {"value": {"tensor": {"dtype": "DT_FLOAT", "tensorShape": {"dim": [{"size": "3"}, {"size": "3"}, {"size": "1"}, {"size": "1"}]}}}, "dtype": {"type": "DT_FLOAT"}}}, {"name": "model_358/tf.nn.convolution_47/convolution/filter", "op": "Const", "attr": {"value": {"tensor": {"dtype": "DT_FLOAT", "tensorShape": {"dim": [{"size": "3"}, {"size": "3"}, {"size": "1"}, {"size": "1"}]}}}, "dtype": {"type": "DT_FLOAT"}}}, {"name": "model_358/tf.nn.convolution_48/convolution/filter", "op": "Const", "attr": {"value": {"tensor": {"dtype": "DT_FLOAT", "tensorShape": {"dim": [{"size": "3"}, {"size": "3"}, {"size": "1"}, {"size": "1"}]}}}, "dtype": {"type": "DT_FLOAT"}}}, {"name": "model_358/tf.nn.convolution_49/convolution/filter", "op": "Const", "attr": {"value": {"tensor": {"dtype": "DT_FLOAT", "tensorShape": {"dim": [{"size": "3"}, {"size": "3"}, {"size": "1"}, {"size": "1"}]}}}, "dtype": {"type": "DT_FLOAT"}}}, {"name": "model_358/tf.nn.convolution_50/convolution/filter", "op": "Const", "attr": {"value": {"tensor": {"dtype": "DT_FLOAT", "tensorShape": {"dim": [{"size": "3"}, {"size": "3"}, {"size": "1"}, {"size": "1"}]}}}, "dtype": {"type": "DT_FLOAT"}}}, {"name": "model_358/tf.nn.convolution_51/convolution/filter", "op": "Const", "attr": {"value": {"tensor": {"dtype": "DT_FLOAT", "tensorShape": {"dim": [{"size": "3"}, {"size": "3"}, {"size": "1"}, {"size": "1"}]}}}, "dtype": {"type": "DT_FLOAT"}}}, {"name": "model_358/tf.nn.convolution_52/convolution/filter", "op": "Const", "attr": {"value": {"tensor": {"dtype": "DT_FLOAT", "tensorShape": {"dim": [{"size": "3"}, {"size": "3"}, {"size": "1"}, {"size": "1"}]}}}, "dtype": {"type": "DT_FLOAT"}}}, {"name": "model_358/tf.nn.convolution_53/convolution/filter", "op": "Const", "attr": {"value": {"tensor": {"dtype": "DT_FLOAT", "tensorShape": {"dim": [{"size": "3"}, {"size": "3"}, {"size": "1"}, {"size": "1"}]}}}, "dtype": {"type": "DT_FLOAT"}}}, {"name": "model_358/tf.nn.convolution_54/convolution/filter", "op": "Const", "attr": {"value": {"tensor": {"dtype": "DT_FLOAT", "tensorShape": {"dim": [{"size": "3"}, {"size": "3"}, {"size": "1"}, {"size": "1"}]}}}, "dtype": {"type": "DT_FLOAT"}}}, {"name": "model_358/tf.nn.convolution_55/convolution/filter", "op": "Const", "attr": {"value": {"tensor": {"dtype": "DT_FLOAT", "tensorShape": {"dim": [{"size": "3"}, {"size": "3"}, {"size": "1"}, {"size": "1"}]}}}, "dtype": {"type": "DT_FLOAT"}}}, {"name": "model_358/tf.nn.convolution_56/convolution/filter", "op": "Const", "attr": {"value": {"tensor": {"dtype": "DT_FLOAT", "tensorShape": {"dim": [{"size": "3"}, {"size": "3"}, {"size": "1"}, {"size": "1"}]}}}, "dtype": {"type": "DT_FLOAT"}}}, {"name": "model_358/tf.nn.convolution_57/convolution/filter", "op": "Const", "attr": {"value": {"tensor": {"dtype": "DT_FLOAT", "tensorShape": {"dim": [{"size": "3"}, {"size": "3"}, {"size": "1"}, {"size": "1"}]}}}, "dtype": {"type": "DT_FLOAT"}}}, {"name": "model_358/tf.nn.convolution_58/convolution/filter", "op": "Const", "attr": {"value": {"tensor": {"dtype": "DT_FLOAT", "tensorShape": {"dim": [{"size": "3"}, {"size": "3"}, {"size": "1"}, {"size": "1"}]}}}, "dtype": {"type": "DT_FLOAT"}}}, {"name": "model_358/tf.nn.convolution_59/convolution/filter", "op": "Const", "attr": {"value": {"tensor": {"dtype": "DT_FLOAT", "tensorShape": {"dim": [{"size": "3"}, {"size": "3"}, {"size": "1"}, {"size": "1"}]}}}, "dtype": {"type": "DT_FLOAT"}}}, {"name": "model_358/tf.nn.convolution_60/convolution/filter", "op": "Const", "attr": {"value": {"tensor": {"dtype": "DT_FLOAT", "tensorShape": {"dim": [{"size": "3"}, {"size": "3"}, {"size": "1"}, {"size": "1"}]}}}, "dtype": {"type": "DT_FLOAT"}}}, {"name": "model_358/tf.nn.convolution_61/convolution/filter", "op": "Const", "attr": {"value": {"tensor": {"dtype": "DT_FLOAT", "tensorShape": {"dim": [{"size": "3"}, {"size": "3"}, {"size": "1"}, {"size": "1"}]}}}, "dtype": {"type": "DT_FLOAT"}}}, {"name": "model_358/tf.nn.convolution_62/convolution/filter", "op": "Const", "attr": {"value": {"tensor": {"dtype": "DT_FLOAT", "tensorShape": {"dim": [{"size": "3"}, {"size": "3"}, {"size": "1"}, {"size": "1"}]}}}, "dtype": {"type": "DT_FLOAT"}}}, {"name": "model_358/tf.nn.convolution_63/convolution/filter", "op": "Const", "attr": {"value": {"tensor": {"dtype": "DT_FLOAT", "tensorShape": {"dim": [{"size": "3"}, {"size": "3"}, {"size": "1"}, {"size": "1"}]}}}, "dtype": {"type": "DT_FLOAT"}}}, {"name": "model_358/tf.nn.convolution_64/convolution/filter", "op": "Const", "attr": {"value": {"tensor": {"dtype": "DT_FLOAT", "tensorShape": {"dim": [{"size": "3"}, {"size": "3"}, {"size": "1"}, {"size": "1"}]}}}, "dtype": {"type": "DT_FLOAT"}}}, {"name": "model_358/tf.nn.convolution_65/convolution/filter", "op": "Const", "attr": {"value": {"tensor": {"dtype": "DT_FLOAT", "tensorShape": {"dim": [{"size": "3"}, {"size": "3"}, {"size": "1"}, {"size": "1"}]}}}, "dtype": {"type": "DT_FLOAT"}}}, {"name": "model_358/tf.nn.convolution_66/convolution/filter", "op": "Const", "attr": {"value": {"tensor": {"dtype": "DT_FLOAT", "tensorShape": {"dim": [{"size": "3"}, {"size": "3"}, {"size": "1"}, {"size": "1"}]}}}, "dtype": {"type": "DT_FLOAT"}}}, {"name": "model_358/tf.nn.convolution_67/convolution/filter", "op": "Const", "attr": {"value": {"tensor": {"dtype": "DT_FLOAT", "tensorShape": {"dim": [{"size": "3"}, {"size": "3"}, {"size": "1"}, {"size": "1"}]}}}, "dtype": {"type": "DT_FLOAT"}}}, {"name": "model_358/tf.nn.convolution_68/convolution/filter", "op": "Const", "attr": {"value": {"tensor": {"dtype": "DT_FLOAT", "tensorShape": {"dim": [{"size": "3"}, {"size": "3"}, {"size": "1"}, {"size": "1"}]}}}, "dtype": {"type": "DT_FLOAT"}}}, {"name": "model_358/tf.nn.convolution_69/convolution/filter", "op": "Const", "attr": {"value": {"tensor": {"dtype": "DT_FLOAT", "tensorShape": {"dim": [{"size": "3"}, {"size": "3"}, {"size": "1"}, {"size": "1"}]}}}, "dtype": {"type": "DT_FLOAT"}}}, {"name": "model_358/tf.nn.convolution_70/convolution/filter", "op": "Const", "attr": {"value": {"tensor": {"dtype": "DT_FLOAT", "tensorShape": {"dim": [{"size": "3"}, {"size": "3"}, {"size": "1"}, {"size": "1"}]}}}, "dtype": {"type": "DT_FLOAT"}}}, {"name": "model_358/tf.nn.convolution_71/convolution/filter", "op": "Const", "attr": {"value": {"tensor": {"dtype": "DT_FLOAT", "tensorShape": {"dim": [{"size": "3"}, {"size": "3"}, {"size": "1"}, {"size": "1"}]}}}, "dtype": {"type": "DT_FLOAT"}}}, {"name": "model_358/tf.nn.convolution_72/convolution/filter", "op": "Const", "attr": {"value": {"tensor": {"dtype": "DT_FLOAT", "tensorShape": {"dim": [{"size": "3"}, {"size": "3"}, {"size": "1"}, {"size": "1"}]}}}, "dtype": {"type": "DT_FLOAT"}}}, {"name": "model_358/tf.nn.convolution_73/convolution/filter", "op": "Const", "attr": {"value": {"tensor": {"dtype": "DT_FLOAT", "tensorShape": {"dim": [{"size": "3"}, {"size": "3"}, {"size": "1"}, {"size": "1"}]}}}, "dtype": {"type": "DT_FLOAT"}}}, {"name": "model_358/tf.nn.convolution_74/convolution/filter", "op": "Const", "attr": {"value": {"tensor": {"dtype": "DT_FLOAT", "tensorShape": {"dim": [{"size": "3"}, {"size": "3"}, {"size": "1"}, {"size": "1"}]}}}, "dtype": {"type": "DT_FLOAT"}}}, {"name": "model_358/tf.nn.convolution_75/convolution/filter", "op": "Const", "attr": {"value": {"tensor": {"dtype": "DT_FLOAT", "tensorShape": {"dim": [{"size": "3"}, {"size": "3"}, {"size": "1"}, {"size": "1"}]}}}, "dtype": {"type": "DT_FLOAT"}}}, {"name": "model_358/tf.nn.convolution_76/convolution/filter", "op": "Const", "attr": {"value": {"tensor": {"dtype": "DT_FLOAT", "tensorShape": {"dim": [{"size": "3"}, {"size": "3"}, {"size": "1"}, {"size": "1"}]}}}, "dtype": {"type": "DT_FLOAT"}}}, {"name": "model_358/tf.nn.convolution_77/convolution/filter", "op": "Const", "attr": {"value": {"tensor": {"dtype": "DT_FLOAT", "tensorShape": {"dim": [{"size": "3"}, {"size": "3"}, {"size": "1"}, {"size": "1"}]}}}, "dtype": {"type": "DT_FLOAT"}}}, {"name": "model_358/tf.nn.convolution_78/convolution/filter", "op": "Const", "attr": {"value": {"tensor": {"dtype": "DT_FLOAT", "tensorShape": {"dim": [{"size": "3"}, {"size": "3"}, {"size": "1"}, {"size": "1"}]}}}, "dtype": {"type": "DT_FLOAT"}}}, {"name": "model_358/tf.nn.convolution_79/convolution/filter", "op": "Const", "attr": {"value": {"tensor": {"dtype": "DT_FLOAT", "tensorShape": {"dim": [{"size": "3"}, {"size": "3"}, {"size": "1"}, {"size": "1"}]}}}, "dtype": {"type": "DT_FLOAT"}}}, {"name": "model_358/tf.nn.convolution_80/convolution/filter", "op": "Const", "attr": {"value": {"tensor": {"dtype": "DT_FLOAT", "tensorShape": {"dim": [{"size": "3"}, {"size": "3"}, {"size": "1"}, {"size": "1"}]}}}, "dtype": {"type": "DT_FLOAT"}}}, {"name": "model_358/tf.nn.convolution_81/convolution/filter", "op": "Const", "attr": {"value": {"tensor": {"dtype": "DT_FLOAT", "tensorShape": {"dim": [{"size": "3"}, {"size": "3"}, {"size": "1"}, {"size": "1"}]}}}, "dtype": {"type": "DT_FLOAT"}}}, {"name": "model_358/tf.nn.convolution_82/convolution/filter", "op": "Const", "attr": {"value": {"tensor": {"dtype": "DT_FLOAT", "tensorShape": {"dim": [{"size": "3"}, {"size": "3"}, {"size": "1"}, {"size": "1"}]}}}, "dtype": {"type": "DT_FLOAT"}}}, {"name": "model_358/tf.nn.convolution_83/convolution/filter", "op": "Const", "attr": {"value": {"tensor": {"dtype": "DT_FLOAT", "tensorShape": {"dim": [{"size": "3"}, {"size": "3"}, {"size": "1"}, {"size": "1"}]}}}, "dtype": {"type": "DT_FLOAT"}}}, {"name": "model_358/tf.nn.convolution_84/convolution/filter", "op": "Const", "attr": {"value": {"tensor": {"dtype": "DT_FLOAT", "tensorShape": {"dim": [{"size": "3"}, {"size": "3"}, {"size": "1"}, {"size": "1"}]}}}, "dtype": {"type": "DT_FLOAT"}}}, {"name": "model_358/tf.nn.convolution_85/convolution/filter", "op": "Const", "attr": {"value": {"tensor": {"dtype": "DT_FLOAT", "tensorShape": {"dim": [{"size": "3"}, {"size": "3"}, {"size": "1"}, {"size": "1"}]}}}, "dtype": {"type": "DT_FLOAT"}}}, {"name": "model_358/tf.nn.convolution_86/convolution/filter", "op": "Const", "attr": {"value": {"tensor": {"dtype": "DT_FLOAT", "tensorShape": {"dim": [{"size": "3"}, {"size": "3"}, {"size": "1"}, {"size": "1"}]}}}, "dtype": {"type": "DT_FLOAT"}}}, {"name": "model_358/tf.nn.convolution_87/convolution/filter", "op": "Const", "attr": {"value": {"tensor": {"dtype": "DT_FLOAT", "tensorShape": {"dim": [{"size": "3"}, {"size": "3"}, {"size": "1"}, {"size": "1"}]}}}, "dtype": {"type": "DT_FLOAT"}}}, {"name": "model_358/tf.nn.convolution_88/convolution/filter", "op": "Const", "attr": {"value": {"tensor": {"dtype": "DT_FLOAT", "tensorShape": {"dim": [{"size": "3"}, {"size": "3"}, {"size": "1"}, {"size": "1"}]}}}, "dtype": {"type": "DT_FLOAT"}}}, {"name": "model_358/tf.nn.convolution_89/convolution/filter", "op": "Const", "attr": {"value": {"tensor": {"dtype": "DT_FLOAT", "tensorShape": {"dim": [{"size": "3"}, {"size": "3"}, {"size": "1"}, {"size": "1"}]}}}, "dtype": {"type": "DT_FLOAT"}}}, {"name": "model_358/tf.nn.convolution_90/convolution/filter", "op": "Const", "attr": {"value": {"tensor": {"dtype": "DT_FLOAT", "tensorShape": {"dim": [{"size": "3"}, {"size": "3"}, {"size": "1"}, {"size": "1"}]}}}, "dtype": {"type": "DT_FLOAT"}}}, {"name": "model_358/tf.nn.convolution_91/convolution/filter", "op": "Const", "attr": {"value": {"tensor": {"dtype": "DT_FLOAT", "tensorShape": {"dim": [{"size": "3"}, {"size": "3"}, {"size": "1"}, {"size": "1"}]}}}, "dtype": {"type": "DT_FLOAT"}}}, {"name": "model_358/tf.nn.convolution_92/convolution/filter", "op": "Const", "attr": {"value": {"tensor": {"dtype": "DT_FLOAT", "tensorShape": {"dim": [{"size": "3"}, {"size": "3"}, {"size": "1"}, {"size": "1"}]}}}, "dtype": {"type": "DT_FLOAT"}}}, {"name": "model_358/tf.nn.convolution_93/convolution/filter", "op": "Const", "attr": {"value": {"tensor": {"dtype": "DT_FLOAT", "tensorShape": {"dim": [{"size": "3"}, {"size": "3"}, {"size": "1"}, {"size": "1"}]}}}, "dtype": {"type": "DT_FLOAT"}}}, {"name": "model_358/tf.nn.convolution_94/convolution/filter", "op": "Const", "attr": {"value": {"tensor": {"dtype": "DT_FLOAT", "tensorShape": {"dim": [{"size": "3"}, {"size": "3"}, {"size": "1"}, {"size": "1"}]}}}, "dtype": {"type": "DT_FLOAT"}}}, {"name": "model_358/tf.nn.convolution_95/convolution/filter", "op": "Const", "attr": {"value": {"tensor": {"dtype": "DT_FLOAT", "tensorShape": {"dim": [{"size": "3"}, {"size": "3"}, {"size": "1"}, {"size": "1"}]}}}, "dtype": {"type": "DT_FLOAT"}}}, {"name": "model_358/tf.nn.convolution_96/convolution/filter", "op": "Const", "attr": {"value": {"tensor": {"dtype": "DT_FLOAT", "tensorShape": {"dim": [{"size": "3"}, {"size": "3"}, {"size": "1"}, {"size": "1"}]}}}, "dtype": {"type": "DT_FLOAT"}}}, {"name": "model_358/tf.nn.convolution_97/convolution/filter", "op": "Const", "attr": {"value": {"tensor": {"dtype": "DT_FLOAT", "tensorShape": {"dim": [{"size": "3"}, {"size": "3"}, {"size": "1"}, {"size": "1"}]}}}, "dtype": {"type": "DT_FLOAT"}}}, {"name": "model_358/tf.nn.convolution_98/convolution/filter", "op": "Const", "attr": {"value": {"tensor": {"dtype": "DT_FLOAT", "tensorShape": {"dim": [{"size": "3"}, {"size": "3"}, {"size": "1"}, {"size": "1"}]}}}, "dtype": {"type": "DT_FLOAT"}}}, {"name": "model_358/tf.nn.convolution_99/convolution/filter", "op": "Const", "attr": {"value": {"tensor": {"dtype": "DT_FLOAT", "tensorShape": {"dim": [{"size": "3"}, {"size": "3"}, {"size": "1"}, {"size": "1"}]}}}, "dtype": {"type": "DT_FLOAT"}}}, {"name": "model_358/tf.nn.convolution_100/convolution/filter", "op": "Const", "attr": {"value": {"tensor": {"dtype": "DT_FLOAT", "tensorShape": {"dim": [{"size": "3"}, {"size": "3"}, {"size": "1"}, {"size": "1"}]}}}, "dtype": {"type": "DT_FLOAT"}}}, {"name": "model_358/tf.nn.convolution_101/convolution/filter", "op": "Const", "attr": {"value": {"tensor": {"dtype": "DT_FLOAT", "tensorShape": {"dim": [{"size": "3"}, {"size": "3"}, {"size": "1"}, {"size": "1"}]}}}, "dtype": {"type": "DT_FLOAT"}}}, {"name": "model_358/tf.nn.convolution_102/convolution/filter", "op": "Const", "attr": {"value": {"tensor": {"dtype": "DT_FLOAT", "tensorShape": {"dim": [{"size": "3"}, {"size": "3"}, {"size": "1"}, {"size": "1"}]}}}, "dtype": {"type": "DT_FLOAT"}}}, {"name": "model_358/tf.nn.convolution_103/convolution/filter", "op": "Const", "attr": {"value": {"tensor": {"dtype": "DT_FLOAT", "tensorShape": {"dim": [{"size": "3"}, {"size": "3"}, {"size": "1"}, {"size": "1"}]}}}, "dtype": {"type": "DT_FLOAT"}}}, {"name": "model_358/tf.nn.convolution_104/convolution/filter", "op": "Const", "attr": {"value": {"tensor": {"dtype": "DT_FLOAT", "tensorShape": {"dim": [{"size": "3"}, {"size": "3"}, {"size": "1"}, {"size": "1"}]}}}, "dtype": {"type": "DT_FLOAT"}}}, {"name": "model_358/tf.nn.convolution_105/convolution/filter", "op": "Const", "attr": {"value": {"tensor": {"dtype": "DT_FLOAT", "tensorShape": {"dim": [{"size": "3"}, {"size": "3"}, {"size": "1"}, {"size": "1"}]}}}, "dtype": {"type": "DT_FLOAT"}}}, {"name": "model_358/tf.nn.convolution_106/convolution/filter", "op": "Const", "attr": {"value": {"tensor": {"dtype": "DT_FLOAT", "tensorShape": {"dim": [{"size": "3"}, {"size": "3"}, {"size": "1"}, {"size": "1"}]}}}, "dtype": {"type": "DT_FLOAT"}}}, {"name": "model_358/tf.nn.convolution_107/convolution/filter", "op": "Const", "attr": {"value": {"tensor": {"dtype": "DT_FLOAT", "tensorShape": {"dim": [{"size": "3"}, {"size": "3"}, {"size": "1"}, {"size": "1"}]}}}, "dtype": {"type": "DT_FLOAT"}}}, {"name": "model_358/tf.nn.convolution_108/convolution/filter", "op": "Const", "attr": {"value": {"tensor": {"dtype": "DT_FLOAT", "tensorShape": {"dim": [{"size": "3"}, {"size": "3"}, {"size": "1"}, {"size": "1"}]}}}, "dtype": {"type": "DT_FLOAT"}}}, {"name": "model_358/tf.nn.convolution_109/convolution/filter", "op": "Const", "attr": {"value": {"tensor": {"dtype": "DT_FLOAT", "tensorShape": {"dim": [{"size": "3"}, {"size": "3"}, {"size": "1"}, {"size": "1"}]}}}, "dtype": {"type": "DT_FLOAT"}}}, {"name": "model_358/tf.nn.convolution_110/convolution/filter", "op": "Const", "attr": {"value": {"tensor": {"dtype": "DT_FLOAT", "tensorShape": {"dim": [{"size": "3"}, {"size": "3"}, {"size": "1"}, {"size": "1"}]}}}, "dtype": {"type": "DT_FLOAT"}}}, {"name": "model_358/tf.nn.convolution_111/convolution/filter", "op": "Const", "attr": {"value": {"tensor": {"dtype": "DT_FLOAT", "tensorShape": {"dim": [{"size": "3"}, {"size": "3"}, {"size": "1"}, {"size": "1"}]}}}, "dtype": {"type": "DT_FLOAT"}}}, {"name": "model_358/tf.nn.convolution_112/convolution/filter", "op": "Const", "attr": {"value": {"tensor": {"dtype": "DT_FLOAT", "tensorShape": {"dim": [{"size": "3"}, {"size": "3"}, {"size": "1"}, {"size": "1"}]}}}, "dtype": {"type": "DT_FLOAT"}}}, {"name": "model_358/tf.nn.convolution_113/convolution/filter", "op": "Const", "attr": {"value": {"tensor": {"dtype": "DT_FLOAT", "tensorShape": {"dim": [{"size": "3"}, {"size": "3"}, {"size": "1"}, {"size": "1"}]}}}, "dtype": {"type": "DT_FLOAT"}}}, {"name": "model_358/tf.nn.convolution_114/convolution/filter", "op": "Const", "attr": {"value": {"tensor": {"dtype": "DT_FLOAT", "tensorShape": {"dim": [{"size": "3"}, {"size": "3"}, {"size": "1"}, {"size": "1"}]}}}, "dtype": {"type": "DT_FLOAT"}}}, {"name": "model_358/tf.nn.convolution_115/convolution/filter", "op": "Const", "attr": {"value": {"tensor": {"dtype": "DT_FLOAT", "tensorShape": {"dim": [{"size": "3"}, {"size": "3"}, {"size": "1"}, {"size": "1"}]}}}, "dtype": {"type": "DT_FLOAT"}}}, {"name": "model_358/tf.nn.convolution_116/convolution/filter", "op": "Const", "attr": {"value": {"tensor": {"dtype": "DT_FLOAT", "tensorShape": {"dim": [{"size": "3"}, {"size": "3"}, {"size": "1"}, {"size": "1"}]}}}, "dtype": {"type": "DT_FLOAT"}}}, {"name": "model_358/tf.nn.convolution_117/convolution/filter", "op": "Const", "attr": {"value": {"tensor": {"dtype": "DT_FLOAT", "tensorShape": {"dim": [{"size": "3"}, {"size": "3"}, {"size": "1"}, {"size": "1"}]}}}, "dtype": {"type": "DT_FLOAT"}}}, {"name": "model_358/tf.nn.convolution_118/convolution/filter", "op": "Const", "attr": {"value": {"tensor": {"dtype": "DT_FLOAT", "tensorShape": {"dim": [{"size": "3"}, {"size": "3"}, {"size": "1"}, {"size": "1"}]}}}, "dtype": {"type": "DT_FLOAT"}}}, {"name": "model_358/tf.nn.convolution_119/convolution/filter", "op": "Const", "attr": {"value": {"tensor": {"dtype": "DT_FLOAT", "tensorShape": {"dim": [{"size": "3"}, {"size": "3"}, {"size": "1"}, {"size": "1"}]}}}, "dtype": {"type": "DT_FLOAT"}}}, {"name": "model_358/tf.nn.convolution_120/convolution/filter", "op": "Const", "attr": {"value": {"tensor": {"dtype": "DT_FLOAT", "tensorShape": {"dim": [{"size": "3"}, {"size": "3"}, {"size": "1"}, {"size": "1"}]}}}, "dtype": {"type": "DT_FLOAT"}}}, {"name": "model_358/tf.nn.convolution_121/convolution/filter", "op": "Const", "attr": {"value": {"tensor": {"dtype": "DT_FLOAT", "tensorShape": {"dim": [{"size": "3"}, {"size": "3"}, {"size": "1"}, {"size": "1"}]}}}, "dtype": {"type": "DT_FLOAT"}}}, {"name": "model_358/tf.nn.convolution_122/convolution/filter", "op": "Const", "attr": {"value": {"tensor": {"dtype": "DT_FLOAT", "tensorShape": {"dim": [{"size": "3"}, {"size": "3"}, {"size": "1"}, {"size": "1"}]}}}, "dtype": {"type": "DT_FLOAT"}}}, {"name": "model_358/tf.nn.convolution_123/convolution/filter", "op": "Const", "attr": {"value": {"tensor": {"dtype": "DT_FLOAT", "tensorShape": {"dim": [{"size": "3"}, {"size": "3"}, {"size": "1"}, {"size": "1"}]}}}, "dtype": {"type": "DT_FLOAT"}}}, {"name": "model_358/tf.nn.convolution_124/convolution/filter", "op": "Const", "attr": {"value": {"tensor": {"dtype": "DT_FLOAT", "tensorShape": {"dim": [{"size": "3"}, {"size": "3"}, {"size": "1"}, {"size": "1"}]}}}, "dtype": {"type": "DT_FLOAT"}}}, {"name": "model_358/tf.nn.convolution_125/convolution/filter", "op": "Const", "attr": {"value": {"tensor": {"dtype": "DT_FLOAT", "tensorShape": {"dim": [{"size": "3"}, {"size": "3"}, {"size": "1"}, {"size": "1"}]}}}, "dtype": {"type": "DT_FLOAT"}}}, {"name": "model_358/tf.nn.convolution_126/convolution/filter", "op": "Const", "attr": {"value": {"tensor": {"dtype": "DT_FLOAT", "tensorShape": {"dim": [{"size": "3"}, {"size": "3"}, {"size": "1"}, {"size": "1"}]}}}, "dtype": {"type": "DT_FLOAT"}}}, {"name": "model_358/tf.nn.convolution_127/convolution/filter", "op": "Const", "attr": {"value": {"tensor": {"dtype": "DT_FLOAT", "tensorShape": {"dim": [{"size": "3"}, {"size": "3"}, {"size": "1"}, {"size": "1"}]}}}, "dtype": {"type": "DT_FLOAT"}}}, {"name": "model_358/tf.nn.convolution_128/convolution/filter", "op": "Const", "attr": {"value": {"tensor": {"dtype": "DT_FLOAT", "tensorShape": {"dim": [{"size": "3"}, {"size": "3"}, {"size": "1"}, {"size": "1"}]}}}, "dtype": {"type": "DT_FLOAT"}}}, {"name": "model_358/tf.nn.convolution_129/convolution/filter", "op": "Const", "attr": {"value": {"tensor": {"dtype": "DT_FLOAT", "tensorShape": {"dim": [{"size": "3"}, {"size": "3"}, {"size": "1"}, {"size": "1"}]}}}, "dtype": {"type": "DT_FLOAT"}}}, {"name": "model_358/tf.nn.convolution_130/convolution/filter", "op": "Const", "attr": {"value": {"tensor": {"dtype": "DT_FLOAT", "tensorShape": {"dim": [{"size": "3"}, {"size": "3"}, {"size": "1"}, {"size": "1"}]}}}, "dtype": {"type": "DT_FLOAT"}}}, {"name": "model_358/tf.nn.convolution_131/convolution/filter", "op": "Const", "attr": {"value": {"tensor": {"dtype": "DT_FLOAT", "tensorShape": {"dim": [{"size": "3"}, {"size": "3"}, {"size": "1"}, {"size": "1"}]}}}, "dtype": {"type": "DT_FLOAT"}}}, {"name": "model_358/tf.nn.convolution_132/convolution/filter", "op": "Const", "attr": {"value": {"tensor": {"dtype": "DT_FLOAT", "tensorShape": {"dim": [{"size": "3"}, {"size": "3"}, {"size": "1"}, {"size": "1"}]}}}, "dtype": {"type": "DT_FLOAT"}}}, {"name": "model_358/tf.nn.convolution_133/convolution/filter", "op": "Const", "attr": {"value": {"tensor": {"dtype": "DT_FLOAT", "tensorShape": {"dim": [{"size": "3"}, {"size": "3"}, {"size": "1"}, {"size": "1"}]}}}, "dtype": {"type": "DT_FLOAT"}}}, {"name": "model_358/tf.nn.convolution_134/convolution/filter", "op": "Const", "attr": {"value": {"tensor": {"dtype": "DT_FLOAT", "tensorShape": {"dim": [{"size": "3"}, {"size": "3"}, {"size": "1"}, {"size": "1"}]}}}, "dtype": {"type": "DT_FLOAT"}}}, {"name": "model_358/tf.nn.convolution_135/convolution/filter", "op": "Const", "attr": {"value": {"tensor": {"dtype": "DT_FLOAT", "tensorShape": {"dim": [{"size": "3"}, {"size": "3"}, {"size": "1"}, {"size": "1"}]}}}, "dtype": {"type": "DT_FLOAT"}}}, {"name": "model_358/tf.nn.convolution_136/convolution/filter", "op": "Const", "attr": {"value": {"tensor": {"dtype": "DT_FLOAT", "tensorShape": {"dim": [{"size": "3"}, {"size": "3"}, {"size": "1"}, {"size": "1"}]}}}, "dtype": {"type": "DT_FLOAT"}}}, {"name": "model_358/tf.nn.convolution_137/convolution/filter", "op": "Const", "attr": {"value": {"tensor": {"dtype": "DT_FLOAT", "tensorShape": {"dim": [{"size": "3"}, {"size": "3"}, {"size": "1"}, {"size": "1"}]}}}, "dtype": {"type": "DT_FLOAT"}}}, {"name": "model_358/tf.nn.convolution_138/convolution/filter", "op": "Const", "attr": {"value": {"tensor": {"dtype": "DT_FLOAT", "tensorShape": {"dim": [{"size": "3"}, {"size": "3"}, {"size": "1"}, {"size": "1"}]}}}, "dtype": {"type": "DT_FLOAT"}}}, {"name": "model_358/tf.nn.convolution_139/convolution/filter", "op": "Const", "attr": {"value": {"tensor": {"dtype": "DT_FLOAT", "tensorShape": {"dim": [{"size": "3"}, {"size": "3"}, {"size": "1"}, {"size": "1"}]}}}, "dtype": {"type": "DT_FLOAT"}}}, {"name": "model_358/tf.nn.convolution_140/convolution/filter", "op": "Const", "attr": {"value": {"tensor": {"dtype": "DT_FLOAT", "tensorShape": {"dim": [{"size": "3"}, {"size": "3"}, {"size": "1"}, {"size": "1"}]}}}, "dtype": {"type": "DT_FLOAT"}}}, {"name": "model_358/tf.nn.convolution_141/convolution/filter", "op": "Const", "attr": {"value": {"tensor": {"dtype": "DT_FLOAT", "tensorShape": {"dim": [{"size": "3"}, {"size": "3"}, {"size": "1"}, {"size": "1"}]}}}, "dtype": {"type": "DT_FLOAT"}}}, {"name": "model_358/tf.nn.convolution_142/convolution/filter", "op": "Const", "attr": {"value": {"tensor": {"dtype": "DT_FLOAT", "tensorShape": {"dim": [{"size": "3"}, {"size": "3"}, {"size": "1"}, {"size": "1"}]}}}, "dtype": {"type": "DT_FLOAT"}}}, {"name": "model_358/tf.nn.convolution_143/convolution/filter", "op": "Const", "attr": {"value": {"tensor": {"dtype": "DT_FLOAT", "tensorShape": {"dim": [{"size": "3"}, {"size": "3"}, {"size": "1"}, {"size": "1"}]}}}, "dtype": {"type": "DT_FLOAT"}}}, {"name": "model_358/tf.nn.convolution_144/convolution/filter", "op": "Const", "attr": {"value": {"tensor": {"dtype": "DT_FLOAT", "tensorShape": {"dim": [{"size": "3"}, {"size": "3"}, {"size": "1"}, {"size": "1"}]}}}, "dtype": {"type": "DT_FLOAT"}}}, {"name": "model_358/tf.nn.convolution_145/convolution/filter", "op": "Const", "attr": {"value": {"tensor": {"dtype": "DT_FLOAT", "tensorShape": {"dim": [{"size": "3"}, {"size": "3"}, {"size": "1"}, {"size": "1"}]}}}, "dtype": {"type": "DT_FLOAT"}}}, {"name": "model_358/tf.nn.convolution_146/convolution/filter", "op": "Const", "attr": {"value": {"tensor": {"dtype": "DT_FLOAT", "tensorShape": {"dim": [{"size": "3"}, {"size": "3"}, {"size": "1"}, {"size": "1"}]}}}, "dtype": {"type": "DT_FLOAT"}}}, {"name": "model_358/tf.nn.convolution_147/convolution/filter", "op": "Const", "attr": {"value": {"tensor": {"dtype": "DT_FLOAT", "tensorShape": {"dim": [{"size": "3"}, {"size": "3"}, {"size": "1"}, {"size": "1"}]}}}, "dtype": {"type": "DT_FLOAT"}}}, {"name": "model_358/tf.nn.convolution_148/convolution/filter", "op": "Const", "attr": {"value": {"tensor": {"dtype": "DT_FLOAT", "tensorShape": {"dim": [{"size": "3"}, {"size": "3"}, {"size": "1"}, {"size": "1"}]}}}, "dtype": {"type": "DT_FLOAT"}}}, {"name": "model_358/tf.nn.convolution_149/convolution/filter", "op": "Const", "attr": {"value": {"tensor": {"dtype": "DT_FLOAT", "tensorShape": {"dim": [{"size": "3"}, {"size": "3"}, {"size": "1"}, {"size": "1"}]}}}, "dtype": {"type": "DT_FLOAT"}}}, {"name": "model_358/tf.nn.convolution_150/convolution/filter", "op": "Const", "attr": {"value": {"tensor": {"dtype": "DT_FLOAT", "tensorShape": {"dim": [{"size": "3"}, {"size": "3"}, {"size": "1"}, {"size": "1"}]}}}, "dtype": {"type": "DT_FLOAT"}}}, {"name": "model_358/tf.nn.convolution_151/convolution/filter", "op": "Const", "attr": {"value": {"tensor": {"dtype": "DT_FLOAT", "tensorShape": {"dim": [{"size": "3"}, {"size": "3"}, {"size": "1"}, {"size": "1"}]}}}, "dtype": {"type": "DT_FLOAT"}}}, {"name": "model_358/tf.nn.convolution_152/convolution/filter", "op": "Const", "attr": {"value": {"tensor": {"dtype": "DT_FLOAT", "tensorShape": {"dim": [{"size": "3"}, {"size": "3"}, {"size": "1"}, {"size": "1"}]}}}, "dtype": {"type": "DT_FLOAT"}}}, {"name": "model_358/tf.nn.convolution_153/convolution/filter", "op": "Const", "attr": {"value": {"tensor": {"dtype": "DT_FLOAT", "tensorShape": {"dim": [{"size": "3"}, {"size": "3"}, {"size": "1"}, {"size": "1"}]}}}, "dtype": {"type": "DT_FLOAT"}}}, {"name": "model_358/tf.nn.convolution_154/convolution/filter", "op": "Const", "attr": {"value": {"tensor": {"dtype": "DT_FLOAT", "tensorShape": {"dim": [{"size": "3"}, {"size": "3"}, {"size": "1"}, {"size": "1"}]}}}, "dtype": {"type": "DT_FLOAT"}}}, {"name": "model_358/tf.nn.convolution_155/convolution/filter", "op": "Const", "attr": {"value": {"tensor": {"dtype": "DT_FLOAT", "tensorShape": {"dim": [{"size": "3"}, {"size": "3"}, {"size": "1"}, {"size": "1"}]}}}, "dtype": {"type": "DT_FLOAT"}}}, {"name": "model_358/tf.nn.convolution_156/convolution/filter", "op": "Const", "attr": {"value": {"tensor": {"dtype": "DT_FLOAT", "tensorShape": {"dim": [{"size": "3"}, {"size": "3"}, {"size": "1"}, {"size": "1"}]}}}, "dtype": {"type": "DT_FLOAT"}}}, {"name": "model_358/tf.nn.convolution_157/convolution/filter", "op": "Const", "attr": {"value": {"tensor": {"dtype": "DT_FLOAT", "tensorShape": {"dim": [{"size": "3"}, {"size": "3"}, {"size": "1"}, {"size": "1"}]}}}, "dtype": {"type": "DT_FLOAT"}}}, {"name": "model_358/tf.nn.convolution_158/convolution/filter", "op": "Const", "attr": {"value": {"tensor": {"dtype": "DT_FLOAT", "tensorShape": {"dim": [{"size": "3"}, {"size": "3"}, {"size": "1"}, {"size": "1"}]}}}, "dtype": {"type": "DT_FLOAT"}}}, {"name": "model_358/tf.nn.convolution_159/convolution/filter", "op": "Const", "attr": {"value": {"tensor": {"dtype": "DT_FLOAT", "tensorShape": {"dim": [{"size": "3"}, {"size": "3"}, {"size": "1"}, {"size": "1"}]}}}, "dtype": {"type": "DT_FLOAT"}}}, {"name": "model_358/tf.nn.convolution_160/convolution/filter", "op": "Const", "attr": {"value": {"tensor": {"dtype": "DT_FLOAT", "tensorShape": {"dim": [{"size": "3"}, {"size": "3"}, {"size": "1"}, {"size": "1"}]}}}, "dtype": {"type": "DT_FLOAT"}}}, {"name": "model_358/tf.nn.convolution_161/convolution/filter", "op": "Const", "attr": {"value": {"tensor": {"dtype": "DT_FLOAT", "tensorShape": {"dim": [{"size": "3"}, {"size": "3"}, {"size": "1"}, {"size": "1"}]}}}, "dtype": {"type": "DT_FLOAT"}}}, {"name": "model_358/tf.split/split/split_dim", "op": "Const", "attr": {"value": {"tensor": {"dtype": "DT_INT32", "tensorShape": {}}}, "dtype": {"type": "DT_INT32"}}}, {"name": "model_358/tf.nn.convolution_31/convolution/filter", "op": "Const", "attr": {"value": {"tensor": {"dtype": "DT_FLOAT", "tensorShape": {"dim": [{"size": "1"}, {"size": "1"}, {"size": "256"}, {"size": "128"}]}}}, "dtype": {"type": "DT_FLOAT"}}}, {"name": "model_358/tf.math.add_43/Add/y", "op": "Const", "attr": {"value": {"tensor": {"dtype": "DT_FLOAT", "tensorShape": {"dim": [{"size": "128"}]}}}, "dtype": {"type": "DT_FLOAT"}}}, {"name": "model_358/tf.concat_6/concat/axis", "op": "Const", "attr": {"value": {"tensor": {"dtype": "DT_INT32", "tensorShape": {}}}, "dtype": {"type": "DT_INT32"}}}, {"name": "model_358/tf.nn.convolution_32/convolution/filter", "op": "Const", "attr": {"value": {"tensor": {"dtype": "DT_FLOAT", "tensorShape": {"dim": [{"size": "1"}, {"size": "1"}, {"size": "512"}, {"size": "256"}]}}}, "dtype": {"type": "DT_FLOAT"}}}, {"name": "model_358/tf.math.add_44/Add/y", "op": "Const", "attr": {"value": {"tensor": {"dtype": "DT_FLOAT", "tensorShape": {"dim": [{"size": "256"}]}}}, "dtype": {"type": "DT_FLOAT"}}}, {"name": "model_358/tf.strided_slice_6/ones_like/tensor", "op": "Const", "attr": {"value": {"tensor": {"dtype": "DT_INT64", "tensorShape": {"dim": [{"size": "4"}]}}}, "dtype": {"type": "DT_INT64"}}}, {"name": "model_358/tf.strided_slice_6/StridedSlice/end", "op": "Const", "attr": {"value": {"tensor": {"dtype": "DT_INT64", "tensorShape": {"dim": [{"size": "4"}]}}}, "dtype": {"type": "DT_INT64"}}}, {"name": "model_358/tf.strided_slice_6/ones_like", "op": "Const", "attr": {"value": {"tensor": {"dtype": "DT_INT64", "tensorShape": {"dim": [{"size": "4"}]}}}, "dtype": {"type": "DT_INT64"}}}, {"name": "model_358/tf.nn.convolution_23/convolution/filter", "op": "Const", "attr": {"value": {"tensor": {"dtype": "DT_FLOAT", "tensorShape": {"dim": [{"size": "1"}, {"size": "1"}, {"size": "128"}, {"size": "64"}]}}}, "dtype": {"type": "DT_FLOAT"}}}, {"name": "model_358/tf.math.add_31/Add/y", "op": "Const", "attr": {"value": {"tensor": {"dtype": "DT_FLOAT", "tensorShape": {"dim": [{"size": "64"}]}}}, "dtype": {"type": "DT_FLOAT"}}}, {"name": "model_358/tf.nn.convolution_25/convolution/filter", "op": "Const", "attr": {"value": {"tensor": {"dtype": "DT_FLOAT", "tensorShape": {"dim": [{"size": "3"}, {"size": "3"}, {"size": "64"}, {"size": "64"}]}}}, "dtype": {"type": "DT_FLOAT"}}}, {"name": "model_358/tf.math.add_33/Add/y", "op": "Const", "attr": {"value": {"tensor": {"dtype": "DT_FLOAT", "tensorShape": {"dim": [{"size": "64"}]}}}, "dtype": {"type": "DT_FLOAT"}}}, {"name": "model_358/tf.nn.convolution_26/convolution/filter", "op": "Const", "attr": {"value": {"tensor": {"dtype": "DT_FLOAT", "tensorShape": {"dim": [{"size": "3"}, {"size": "3"}, {"size": "64"}, {"size": "64"}]}}}, "dtype": {"type": "DT_FLOAT"}}}, {"name": "model_358/tf.math.add_34/Add/y", "op": "Const", "attr": {"value": {"tensor": {"dtype": "DT_FLOAT", "tensorShape": {"dim": [{"size": "64"}]}}}, "dtype": {"type": "DT_FLOAT"}}}, {"name": "model_358/tf.nn.convolution_27/convolution/filter", "op": "Const", "attr": {"value": {"tensor": {"dtype": "DT_FLOAT", "tensorShape": {"dim": [{"size": "3"}, {"size": "3"}, {"size": "64"}, {"size": "64"}]}}}, "dtype": {"type": "DT_FLOAT"}}}, {"name": "model_358/tf.math.add_37/Add/y", "op": "Const", "attr": {"value": {"tensor": {"dtype": "DT_FLOAT", "tensorShape": {"dim": [{"size": "64"}]}}}, "dtype": {"type": "DT_FLOAT"}}}, {"name": "model_358/tf.nn.convolution_28/convolution/filter", "op": "Const", "attr": {"value": {"tensor": {"dtype": "DT_FLOAT", "tensorShape": {"dim": [{"size": "3"}, {"size": "3"}, {"size": "64"}, {"size": "64"}]}}}, "dtype": {"type": "DT_FLOAT"}}}, {"name": "model_358/tf.math.add_38/Add/y", "op": "Const", "attr": {"value": {"tensor": {"dtype": "DT_FLOAT", "tensorShape": {"dim": [{"size": "64"}]}}}, "dtype": {"type": "DT_FLOAT"}}}, {"name": "model_358/tf.strided_slice_4/ones_like/tensor", "op": "Const", "attr": {"value": {"tensor": {"dtype": "DT_INT64", "tensorShape": {"dim": [{"size": "4"}]}}}, "dtype": {"type": "DT_INT64"}}}, {"name": "model_358/tf.strided_slice_4/StridedSlice/end", "op": "Const", "attr": {"value": {"tensor": {"dtype": "DT_INT64", "tensorShape": {"dim": [{"size": "4"}]}}}, "dtype": {"type": "DT_INT64"}}}, {"name": "model_358/tf.strided_slice_4/ones_like", "op": "Const", "attr": {"value": {"tensor": {"dtype": "DT_INT64", "tensorShape": {"dim": [{"size": "4"}]}}}, "dtype": {"type": "DT_INT64"}}}, {"name": "model_358/tf.nn.convolution_13/convolution/filter", "op": "Const", "attr": {"value": {"tensor": {"dtype": "DT_FLOAT", "tensorShape": {"dim": [{"size": "1"}, {"size": "1"}, {"size": "64"}, {"size": "32"}]}}}, "dtype": {"type": "DT_FLOAT"}}}, {"name": "model_358/tf.math.add_17/Add/y", "op": "Const", "attr": {"value": {"tensor": {"dtype": "DT_FLOAT", "tensorShape": {"dim": [{"size": "32"}]}}}, "dtype": {"type": "DT_FLOAT"}}}, {"name": "model_358/tf.nn.convolution_15/convolution/filter", "op": "Const", "attr": {"value": {"tensor": {"dtype": "DT_FLOAT", "tensorShape": {"dim": [{"size": "3"}, {"size": "3"}, {"size": "32"}, {"size": "32"}]}}}, "dtype": {"type": "DT_FLOAT"}}}, {"name": "model_358/tf.math.add_19/Add/y", "op": "Const", "attr": {"value": {"tensor": {"dtype": "DT_FLOAT", "tensorShape": {"dim": [{"size": "32"}]}}}, "dtype": {"type": "DT_FLOAT"}}}, {"name": "model_358/tf.nn.convolution_16/convolution/filter", "op": "Const", "attr": {"value": {"tensor": {"dtype": "DT_FLOAT", "tensorShape": {"dim": [{"size": "3"}, {"size": "3"}, {"size": "32"}, {"size": "32"}]}}}, "dtype": {"type": "DT_FLOAT"}}}, {"name": "model_358/tf.math.add_20/Add/y", "op": "Const", "attr": {"value": {"tensor": {"dtype": "DT_FLOAT", "tensorShape": {"dim": [{"size": "32"}]}}}, "dtype": {"type": "DT_FLOAT"}}}, {"name": "model_358/tf.nn.convolution_17/convolution/filter", "op": "Const", "attr": {"value": {"tensor": {"dtype": "DT_FLOAT", "tensorShape": {"dim": [{"size": "3"}, {"size": "3"}, {"size": "32"}, {"size": "32"}]}}}, "dtype": {"type": "DT_FLOAT"}}}, {"name": "model_358/tf.math.add_23/Add/y", "op": "Const", "attr": {"value": {"tensor": {"dtype": "DT_FLOAT", "tensorShape": {"dim": [{"size": "32"}]}}}, "dtype": {"type": "DT_FLOAT"}}}, {"name": "model_358/tf.nn.convolution_18/convolution/filter", "op": "Const", "attr": {"value": {"tensor": {"dtype": "DT_FLOAT", "tensorShape": {"dim": [{"size": "3"}, {"size": "3"}, {"size": "32"}, {"size": "32"}]}}}, "dtype": {"type": "DT_FLOAT"}}}, {"name": "model_358/tf.math.add_24/Add/y", "op": "Const", "attr": {"value": {"tensor": {"dtype": "DT_FLOAT", "tensorShape": {"dim": [{"size": "32"}]}}}, "dtype": {"type": "DT_FLOAT"}}}, {"name": "model_358/tf.strided_slice_2/ones_like/tensor", "op": "Const", "attr": {"value": {"tensor": {"dtype": "DT_INT64", "tensorShape": {"dim": [{"size": "4"}]}}}, "dtype": {"type": "DT_INT64"}}}, {"name": "model_358/tf.strided_slice_2/StridedSlice/end", "op": "Const", "attr": {"value": {"tensor": {"dtype": "DT_INT64", "tensorShape": {"dim": [{"size": "4"}]}}}, "dtype": {"type": "DT_INT64"}}}, {"name": "model_358/tf.strided_slice_2/ones_like", "op": "Const", "attr": {"value": {"tensor": {"dtype": "DT_INT64", "tensorShape": {"dim": [{"size": "4"}]}}}, "dtype": {"type": "DT_INT64"}}}, {"name": "model_358/tf.strided_slice/ones_like/tensor", "op": "Const", "attr": {"value": {"tensor": {"dtype": "DT_INT64", "tensorShape": {"dim": [{"size": "4"}]}}}, "dtype": {"type": "DT_INT64"}}}, {"name": "model_358/tf.strided_slice/StridedSlice/end", "op": "Const", "attr": {"value": {"tensor": {"dtype": "DT_INT64", "tensorShape": {"dim": [{"size": "4"}]}}}, "dtype": {"type": "DT_INT64"}}}, {"name": "model_358/tf.strided_slice/ones_like", "op": "Const", "attr": {"value": {"tensor": {"dtype": "DT_INT64", "tensorShape": {"dim": [{"size": "4"}]}}}, "dtype": {"type": "DT_INT64"}}}, {"name": "model_358/tf.compat.v1.pad/Pad/paddings", "op": "Const", "attr": {"value": {"tensor": {"dtype": "DT_INT32", "tensorShape": {"dim": [{"size": "4"}, {"size": "2"}]}}}, "dtype": {"type": "DT_INT32"}}}, {"name": "model_358/tf.nn.convolution/convolution/filter", "op": "Const", "attr": {"value": {"tensor": {"dtype": "DT_FLOAT", "tensorShape": {"dim": [{"size": "3"}, {"size": "3"}, {"size": "3"}, {"size": "16"}]}}}, "dtype": {"type": "DT_FLOAT"}}}, {"name": "model_358/tf.math.add/Add/y", "op": "Const", "attr": {"value": {"tensor": {"dtype": "DT_FLOAT", "tensorShape": {"dim": [{"size": "16"}]}}}, "dtype": {"type": "DT_FLOAT"}}}, {"name": "model_358/tf.compat.v1.pad_1/Pad/paddings", "op": "Const", "attr": {"value": {"tensor": {"dtype": "DT_INT32", "tensorShape": {"dim": [{"size": "4"}, {"size": "2"}]}}}, "dtype": {"type": "DT_INT32"}}}, {"name": "model_358/tf.nn.convolution_1/convolution/filter", "op": "Const", "attr": {"value": {"tensor": {"dtype": "DT_FLOAT", "tensorShape": {"dim": [{"size": "3"}, {"size": "3"}, {"size": "16"}, {"size": "32"}]}}}, "dtype": {"type": "DT_FLOAT"}}}, {"name": "model_358/tf.math.add_1/Add/y", "op": "Const", "attr": {"value": {"tensor": {"dtype": "DT_FLOAT", "tensorShape": {"dim": [{"size": "32"}]}}}, "dtype": {"type": "DT_FLOAT"}}}, {"name": "model_358/tf.nn.convolution_2/convolution/filter", "op": "Const", "attr": {"value": {"tensor": {"dtype": "DT_FLOAT", "tensorShape": {"dim": [{"size": "1"}, {"size": "1"}, {"size": "32"}, {"size": "32"}]}}}, "dtype": {"type": "DT_FLOAT"}}}, {"name": "model_358/tf.math.add_2/Add/y", "op": "Const", "attr": {"value": {"tensor": {"dtype": "DT_FLOAT", "tensorShape": {"dim": [{"size": "32"}]}}}, "dtype": {"type": "DT_FLOAT"}}}, {"name": "model_358/tf.strided_slice_1/ones_like/tensor", "op": "Const", "attr": {"value": {"tensor": {"dtype": "DT_INT64", "tensorShape": {"dim": [{"size": "4"}]}}}, "dtype": {"type": "DT_INT64"}}}, {"name": "model_358/tf.strided_slice_1/StridedSlice/end", "op": "Const", "attr": {"value": {"tensor": {"dtype": "DT_INT64", "tensorShape": {"dim": [{"size": "4"}]}}}, "dtype": {"type": "DT_INT64"}}}, {"name": "model_358/tf.strided_slice_1/ones_like", "op": "Const", "attr": {"value": {"tensor": {"dtype": "DT_INT64", "tensorShape": {"dim": [{"size": "4"}]}}}, "dtype": {"type": "DT_INT64"}}}, {"name": "model_358/tf.nn.convolution_3/convolution/filter", "op": "Const", "attr": {"value": {"tensor": {"dtype": "DT_FLOAT", "tensorShape": {"dim": [{"size": "3"}, {"size": "3"}, {"size": "16"}, {"size": "8"}]}}}, "dtype": {"type": "DT_FLOAT"}}}, {"name": "model_358/tf.math.add_3/Add/y", "op": "Const", "attr": {"value": {"tensor": {"dtype": "DT_FLOAT", "tensorShape": {"dim": [{"size": "8"}]}}}, "dtype": {"type": "DT_FLOAT"}}}, {"name": "model_358/tf.nn.convolution_4/convolution/filter", "op": "Const", "attr": {"value": {"tensor": {"dtype": "DT_FLOAT", "tensorShape": {"dim": [{"size": "3"}, {"size": "3"}, {"size": "8"}, {"size": "16"}]}}}, "dtype": {"type": "DT_FLOAT"}}}, {"name": "model_358/tf.math.add_4/Add/y", "op": "Const", "attr": {"value": {"tensor": {"dtype": "DT_FLOAT", "tensorShape": {"dim": [{"size": "16"}]}}}, "dtype": {"type": "DT_FLOAT"}}}, {"name": "model_358/tf.concat/concat/axis", "op": "Const", "attr": {"value": {"tensor": {"dtype": "DT_INT32", "tensorShape": {}}}, "dtype": {"type": "DT_INT32"}}}, {"name": "model_358/tf.nn.convolution_5/convolution/filter", "op": "Const", "attr": {"value": {"tensor": {"dtype": "DT_FLOAT", "tensorShape": {"dim": [{"size": "1"}, {"size": "1"}, {"size": "48"}, {"size": "64"}]}}}, "dtype": {"type": "DT_FLOAT"}}}, {"name": "model_358/tf.math.add_7/Add/y", "op": "Const", "attr": {"value": {"tensor": {"dtype": "DT_FLOAT", "tensorShape": {"dim": [{"size": "64"}]}}}, "dtype": {"type": "DT_FLOAT"}}}, {"name": "model_358/tf.compat.v1.pad_2/Pad/paddings", "op": "Const", "attr": {"value": {"tensor": {"dtype": "DT_INT32", "tensorShape": {"dim": [{"size": "4"}, {"size": "2"}]}}}, "dtype": {"type": "DT_INT32"}}}, {"name": "model_358/tf.nn.convolution_6/convolution/filter", "op": "Const", "attr": {"value": {"tensor": {"dtype": "DT_FLOAT", "tensorShape": {"dim": [{"size": "3"}, {"size": "3"}, {"size": "64"}, {"size": "64"}]}}}, "dtype": {"type": "DT_FLOAT"}}}, {"name": "model_358/tf.math.add_8/Add/y", "op": "Const", "attr": {"value": {"tensor": {"dtype": "DT_FLOAT", "tensorShape": {"dim": [{"size": "64"}]}}}, "dtype": {"type": "DT_FLOAT"}}}, {"name": "model_358/tf.nn.convolution_7/convolution/filter", "op": "Const", "attr": {"value": {"tensor": {"dtype": "DT_FLOAT", "tensorShape": {"dim": [{"size": "1"}, {"size": "1"}, {"size": "64"}, {"size": "64"}]}}}, "dtype": {"type": "DT_FLOAT"}}}, {"name": "model_358/tf.math.add_9/Add/y", "op": "Const", "attr": {"value": {"tensor": {"dtype": "DT_FLOAT", "tensorShape": {"dim": [{"size": "64"}]}}}, "dtype": {"type": "DT_FLOAT"}}}, {"name": "model_358/tf.strided_slice_3/ones_like/tensor", "op": "Const", "attr": {"value": {"tensor": {"dtype": "DT_INT64", "tensorShape": {"dim": [{"size": "4"}]}}}, "dtype": {"type": "DT_INT64"}}}, {"name": "model_358/tf.strided_slice_3/StridedSlice/end", "op": "Const", "attr": {"value": {"tensor": {"dtype": "DT_INT64", "tensorShape": {"dim": [{"size": "4"}]}}}, "dtype": {"type": "DT_INT64"}}}, {"name": "model_358/tf.strided_slice_3/ones_like", "op": "Const", "attr": {"value": {"tensor": {"dtype": "DT_INT64", "tensorShape": {"dim": [{"size": "4"}]}}}, "dtype": {"type": "DT_INT64"}}}, {"name": "model_358/tf.nn.convolution_8/convolution/filter", "op": "Const", "attr": {"value": {"tensor": {"dtype": "DT_FLOAT", "tensorShape": {"dim": [{"size": "3"}, {"size": "3"}, {"size": "32"}, {"size": "16"}]}}}, "dtype": {"type": "DT_FLOAT"}}}, {"name": "model_358/tf.math.add_10/Add/y", "op": "Const", "attr": {"value": {"tensor": {"dtype": "DT_FLOAT", "tensorShape": {"dim": [{"size": "16"}]}}}, "dtype": {"type": "DT_FLOAT"}}}, {"name": "model_358/tf.nn.convolution_9/convolution/filter", "op": "Const", "attr": {"value": {"tensor": {"dtype": "DT_FLOAT", "tensorShape": {"dim": [{"size": "3"}, {"size": "3"}, {"size": "16"}, {"size": "32"}]}}}, "dtype": {"type": "DT_FLOAT"}}}, {"name": "model_358/tf.math.add_11/Add/y", "op": "Const", "attr": {"value": {"tensor": {"dtype": "DT_FLOAT", "tensorShape": {"dim": [{"size": "32"}]}}}, "dtype": {"type": "DT_FLOAT"}}}, {"name": "model_358/tf.concat_1/concat/axis", "op": "Const", "attr": {"value": {"tensor": {"dtype": "DT_INT32", "tensorShape": {}}}, "dtype": {"type": "DT_INT32"}}}, {"name": "model_358/tf.nn.convolution_10/convolution/filter", "op": "Const", "attr": {"value": {"tensor": {"dtype": "DT_FLOAT", "tensorShape": {"dim": [{"size": "1"}, {"size": "1"}, {"size": "96"}, {"size": "128"}]}}}, "dtype": {"type": "DT_FLOAT"}}}, {"name": "model_358/tf.math.add_14/Add/y", "op": "Const", "attr": {"value": {"tensor": {"dtype": "DT_FLOAT", "tensorShape": {"dim": [{"size": "128"}]}}}, "dtype": {"type": "DT_FLOAT"}}}, {"name": "model_358/tf.compat.v1.pad_3/Pad/paddings", "op": "Const", "attr": {"value": {"tensor": {"dtype": "DT_INT32", "tensorShape": {"dim": [{"size": "4"}, {"size": "2"}]}}}, "dtype": {"type": "DT_INT32"}}}, {"name": "model_358/tf.nn.convolution_11/convolution/filter", "op": "Const", "attr": {"value": {"tensor": {"dtype": "DT_FLOAT", "tensorShape": {"dim": [{"size": "3"}, {"size": "3"}, {"size": "128"}, {"size": "128"}]}}}, "dtype": {"type": "DT_FLOAT"}}}, {"name": "model_358/tf.math.add_15/Add/y", "op": "Const", "attr": {"value": {"tensor": {"dtype": "DT_FLOAT", "tensorShape": {"dim": [{"size": "128"}]}}}, "dtype": {"type": "DT_FLOAT"}}}, {"name": "model_358/tf.nn.convolution_12/convolution/filter", "op": "Const", "attr": {"value": {"tensor": {"dtype": "DT_FLOAT", "tensorShape": {"dim": [{"size": "1"}, {"size": "1"}, {"size": "128"}, {"size": "128"}]}}}, "dtype": {"type": "DT_FLOAT"}}}, {"name": "model_358/tf.math.add_16/Add/y", "op": "Const", "attr": {"value": {"tensor": {"dtype": "DT_FLOAT", "tensorShape": {"dim": [{"size": "128"}]}}}, "dtype": {"type": "DT_FLOAT"}}}, {"name": "model_358/tf.strided_slice_5/ones_like/tensor", "op": "Const", "attr": {"value": {"tensor": {"dtype": "DT_INT64", "tensorShape": {"dim": [{"size": "4"}]}}}, "dtype": {"type": "DT_INT64"}}}, {"name": "model_358/tf.strided_slice_5/StridedSlice/end", "op": "Const", "attr": {"value": {"tensor": {"dtype": "DT_INT64", "tensorShape": {"dim": [{"size": "4"}]}}}, "dtype": {"type": "DT_INT64"}}}, {"name": "model_358/tf.strided_slice_5/ones_like", "op": "Const", "attr": {"value": {"tensor": {"dtype": "DT_INT64", "tensorShape": {"dim": [{"size": "4"}]}}}, "dtype": {"type": "DT_INT64"}}}, {"name": "model_358/tf.nn.convolution_14/convolution/filter", "op": "Const", "attr": {"value": {"tensor": {"dtype": "DT_FLOAT", "tensorShape": {"dim": [{"size": "1"}, {"size": "1"}, {"size": "64"}, {"size": "32"}]}}}, "dtype": {"type": "DT_FLOAT"}}}, {"name": "model_358/tf.math.add_18/Add/y", "op": "Const", "attr": {"value": {"tensor": {"dtype": "DT_FLOAT", "tensorShape": {"dim": [{"size": "32"}]}}}, "dtype": {"type": "DT_FLOAT"}}}, {"name": "model_358/tf.concat_2/concat/axis", "op": "Const", "attr": {"value": {"tensor": {"dtype": "DT_INT32", "tensorShape": {}}}, "dtype": {"type": "DT_INT32"}}}, {"name": "model_358/tf.nn.convolution_19/convolution/filter", "op": "Const", "attr": {"value": {"tensor": {"dtype": "DT_FLOAT", "tensorShape": {"dim": [{"size": "1"}, {"size": "1"}, {"size": "64"}, {"size": "64"}]}}}, "dtype": {"type": "DT_FLOAT"}}}, {"name": "model_358/tf.math.add_27/Add/y", "op": "Const", "attr": {"value": {"tensor": {"dtype": "DT_FLOAT", "tensorShape": {"dim": [{"size": "64"}]}}}, "dtype": {"type": "DT_FLOAT"}}}, {"name": "model_358/tf.concat_3/concat/axis", "op": "Const", "attr": {"value": {"tensor": {"dtype": "DT_INT32", "tensorShape": {}}}, "dtype": {"type": "DT_INT32"}}}, {"name": "model_358/tf.nn.convolution_20/convolution/filter", "op": "Const", "attr": {"value": {"tensor": {"dtype": "DT_FLOAT", "tensorShape": {"dim": [{"size": "1"}, {"size": "1"}, {"size": "192"}, {"size": "128"}]}}}, "dtype": {"type": "DT_FLOAT"}}}, {"name": "model_358/tf.math.add_28/Add/y", "op": "Const", "attr": {"value": {"tensor": {"dtype": "DT_FLOAT", "tensorShape": {"dim": [{"size": "128"}]}}}, "dtype": {"type": "DT_FLOAT"}}}, {"name": "model_358/tf.compat.v1.pad_4/Pad/paddings", "op": "Const", "attr": {"value": {"tensor": {"dtype": "DT_INT32", "tensorShape": {"dim": [{"size": "4"}, {"size": "2"}]}}}, "dtype": {"type": "DT_INT32"}}}, {"name": "model_358/tf.nn.convolution_21/convolution/filter", "op": "Const", "attr": {"value": {"tensor": {"dtype": "DT_FLOAT", "tensorShape": {"dim": [{"size": "3"}, {"size": "3"}, {"size": "128"}, {"size": "256"}]}}}, "dtype": {"type": "DT_FLOAT"}}}, {"name": "model_358/tf.math.add_29/Add/y", "op": "Const", "attr": {"value": {"tensor": {"dtype": "DT_FLOAT", "tensorShape": {"dim": [{"size": "256"}]}}}, "dtype": {"type": "DT_FLOAT"}}}, {"name": "model_358/tf.nn.convolution_22/convolution/filter", "op": "Const", "attr": {"value": {"tensor": {"dtype": "DT_FLOAT", "tensorShape": {"dim": [{"size": "1"}, {"size": "1"}, {"size": "256"}, {"size": "256"}]}}}, "dtype": {"type": "DT_FLOAT"}}}, {"name": "model_358/tf.math.add_30/Add/y", "op": "Const", "attr": {"value": {"tensor": {"dtype": "DT_FLOAT", "tensorShape": {"dim": [{"size": "256"}]}}}, "dtype": {"type": "DT_FLOAT"}}}, {"name": "model_358/tf.strided_slice_7/ones_like/tensor", "op": "Const", "attr": {"value": {"tensor": {"dtype": "DT_INT64", "tensorShape": {"dim": [{"size": "4"}]}}}, "dtype": {"type": "DT_INT64"}}}, {"name": "model_358/tf.strided_slice_7/StridedSlice/end", "op": "Const", "attr": {"value": {"tensor": {"dtype": "DT_INT64", "tensorShape": {"dim": [{"size": "4"}]}}}, "dtype": {"type": "DT_INT64"}}}, {"name": "model_358/tf.strided_slice_7/ones_like", "op": "Const", "attr": {"value": {"tensor": {"dtype": "DT_INT64", "tensorShape": {"dim": [{"size": "4"}]}}}, "dtype": {"type": "DT_INT64"}}}, {"name": "model_358/tf.nn.convolution_24/convolution/filter", "op": "Const", "attr": {"value": {"tensor": {"dtype": "DT_FLOAT", "tensorShape": {"dim": [{"size": "1"}, {"size": "1"}, {"size": "128"}, {"size": "64"}]}}}, "dtype": {"type": "DT_FLOAT"}}}, {"name": "model_358/tf.math.add_32/Add/y", "op": "Const", "attr": {"value": {"tensor": {"dtype": "DT_FLOAT", "tensorShape": {"dim": [{"size": "64"}]}}}, "dtype": {"type": "DT_FLOAT"}}}, {"name": "model_358/tf.concat_4/concat/axis", "op": "Const", "attr": {"value": {"tensor": {"dtype": "DT_INT32", "tensorShape": {}}}, "dtype": {"type": "DT_INT32"}}}, {"name": "model_358/tf.nn.convolution_29/convolution/filter", "op": "Const", "attr": {"value": {"tensor": {"dtype": "DT_FLOAT", "tensorShape": {"dim": [{"size": "1"}, {"size": "1"}, {"size": "128"}, {"size": "128"}]}}}, "dtype": {"type": "DT_FLOAT"}}}, {"name": "model_358/tf.math.add_41/Add/y", "op": "Const", "attr": {"value": {"tensor": {"dtype": "DT_FLOAT", "tensorShape": {"dim": [{"size": "128"}]}}}, "dtype": {"type": "DT_FLOAT"}}}, {"name": "model_358/tf.concat_5/concat/axis", "op": "Const", "attr": {"value": {"tensor": {"dtype": "DT_INT32", "tensorShape": {}}}, "dtype": {"type": "DT_INT32"}}}, {"name": "model_358/tf.nn.convolution_30/convolution/filter", "op": "Const", "attr": {"value": {"tensor": {"dtype": "DT_FLOAT", "tensorShape": {"dim": [{"size": "1"}, {"size": "1"}, {"size": "384"}, {"size": "256"}]}}}, "dtype": {"type": "DT_FLOAT"}}}, {"name": "model_358/tf.math.add_42/Add/y", "op": "Const", "attr": {"value": {"tensor": {"dtype": "DT_FLOAT", "tensorShape": {"dim": [{"size": "256"}]}}}, "dtype": {"type": "DT_FLOAT"}}}, {"name": "model_358/tf.nn.convolution_33/convolution/filter", "op": "Const", "attr": {"value": {"tensor": {"dtype": "DT_FLOAT", "tensorShape": {"dim": [{"size": "1"}, {"size": "1"}, {"size": "256"}, {"size": "256"}]}}}, "dtype": {"type": "DT_FLOAT"}}}, {"name": "model_358/tf.math.add_47/Add/y", "op": "Const", "attr": {"value": {"tensor": {"dtype": "DT_FLOAT", "tensorShape": {"dim": [{"size": "256"}]}}}, "dtype": {"type": "DT_FLOAT"}}}, {"name": "model_358/tf.strided_slice_9/StridedSlice/begin", "op": "Const", "attr": {"value": {"tensor": {"dtype": "DT_INT32", "tensorShape": {"dim": [{"size": "4"}]}}}, "dtype": {"type": "DT_INT32"}}}, {"name": "model_358/tf.strided_slice_9/StridedSlice/end", "op": "Const", "attr": {"value": {"tensor": {"dtype": "DT_INT32", "tensorShape": {"dim": [{"size": "4"}]}}}, "dtype": {"type": "DT_INT32"}}}, {"name": "model_358/tf.strided_slice_9/ones_like", "op": "Const", "attr": {"value": {"tensor": {"dtype": "DT_INT32", "tensorShape": {"dim": [{"size": "4"}]}}}, "dtype": {"type": "DT_INT32"}}}, {"name": "model_358/tf.nn.convolution_34/convolution/filter", "op": "Const", "attr": {"value": {"tensor": {"dtype": "DT_FLOAT", "tensorShape": {"dim": [{"size": "1"}, {"size": "1"}, {"size": "128"}, {"size": "256"}]}}}, "dtype": {"type": "DT_FLOAT"}}}, {"name": "model_358/tf.math.add_48/Add/y", "op": "Const", "attr": {"value": {"tensor": {"dtype": "DT_FLOAT", "tensorShape": {"dim": [{"size": "256"}]}}}, "dtype": {"type": "DT_FLOAT"}}}, {"name": "model_358/tf.compat.v1.transpose_42/transpose/perm", "op": "Const", "attr": {"value": {"tensor": {"dtype": "DT_INT32", "tensorShape": {"dim": [{"size": "4"}]}}}, "dtype": {"type": "DT_INT32"}}}, {"name": "model_358/tf.reshape_2/Reshape/shape", "op": "Const", "attr": {"value": {"tensor": {"dtype": "DT_INT32", "tensorShape": {"dim": [{"size": "4"}]}}}, "dtype": {"type": "DT_INT32"}}}, {"name": "model_358/tf.strided_slice_12/StridedSlice/begin", "op": "Const", "attr": {"value": {"tensor": {"dtype": "DT_INT32", "tensorShape": {"dim": [{"size": "4"}]}}}, "dtype": {"type": "DT_INT32"}}}, {"name": "model_358/tf.strided_slice_12/StridedSlice/end", "op": "Const", "attr": {"value": {"tensor": {"dtype": "DT_INT32", "tensorShape": {"dim": [{"size": "4"}]}}}, "dtype": {"type": "DT_INT32"}}}, {"name": "model_358/tf.strided_slice_12/ones_like", "op": "Const", "attr": {"value": {"tensor": {"dtype": "DT_INT32", "tensorShape": {"dim": [{"size": "4"}]}}}, "dtype": {"type": "DT_INT32"}}}, {"name": "model_358/tf.reshape_5/Reshape/shape", "op": "Const", "attr": {"value": {"tensor": {"dtype": "DT_INT32", "tensorShape": {"dim": [{"size": "4"}]}}}, "dtype": {"type": "DT_INT32"}}}, {"name": "model_358/tf.compat.v1.transpose_60/transpose/perm", "op": "Const", "attr": {"value": {"tensor": {"dtype": "DT_INT32", "tensorShape": {"dim": [{"size": "4"}]}}}, "dtype": {"type": "DT_INT32"}}}, {"name": "model_358/tf.nn.convolution_162/convolution/filter", "op": "Const", "attr": {"value": {"tensor": {"dtype": "DT_FLOAT", "tensorShape": {"dim": [{"size": "3"}, {"size": "3"}, {"size": "1"}, {"size": "1"}]}}}, "dtype": {"type": "DT_FLOAT"}}}, {"name": "model_358/tf.concat_7/concat/axis", "op": "Const", "attr": {"value": {"tensor": {"dtype": "DT_INT32", "tensorShape": {}}}, "dtype": {"type": "DT_INT32"}}}, {"name": "model_358/tf.nn.convolution_163/convolution/filter", "op": "Const", "attr": {"value": {"tensor": {"dtype": "DT_FLOAT", "tensorShape": {"dim": [{"size": "1"}, {"size": "1"}, {"size": "128"}, {"size": "128"}]}}}, "dtype": {"type": "DT_FLOAT"}}}, {"name": "model_358/tf.math.add_52/Add/y", "op": "Const", "attr": {"value": {"tensor": {"dtype": "DT_FLOAT", "tensorShape": {"dim": [{"size": "128"}]}}}, "dtype": {"type": "DT_FLOAT"}}}, {"name": "model_358/tf.nn.convolution_164/convolution/filter", "op": "Const", "attr": {"value": {"tensor": {"dtype": "DT_FLOAT", "tensorShape": {"dim": [{"size": "1"}, {"size": "1"}, {"size": "128"}, {"size": "256"}]}}}, "dtype": {"type": "DT_FLOAT"}}}, {"name": "model_358/tf.math.add_55/Add/y", "op": "Const", "attr": {"value": {"tensor": {"dtype": "DT_FLOAT", "tensorShape": {"dim": [{"size": "256"}]}}}, "dtype": {"type": "DT_FLOAT"}}}, {"name": "model_358/tf.nn.convolution_165/convolution/filter", "op": "Const", "attr": {"value": {"tensor": {"dtype": "DT_FLOAT", "tensorShape": {"dim": [{"size": "1"}, {"size": "1"}, {"size": "256"}, {"size": "128"}]}}}, "dtype": {"type": "DT_FLOAT"}}}, {"name": "model_358/tf.concat_8/concat/axis", "op": "Const", "attr": {"value": {"tensor": {"dtype": "DT_INT32", "tensorShape": {}}}, "dtype": {"type": "DT_INT32"}}}, {"name": "model_358/tf.nn.convolution_166/convolution/filter", "op": "Const", "attr": {"value": {"tensor": {"dtype": "DT_FLOAT", "tensorShape": {"dim": [{"size": "1"}, {"size": "1"}, {"size": "256"}, {"size": "256"}]}}}, "dtype": {"type": "DT_FLOAT"}}}, {"name": "model_358/tf.math.add_59/Add/y", "op": "Const", "attr": {"value": {"tensor": {"dtype": "DT_FLOAT", "tensorShape": {"dim": [{"size": "256"}]}}}, "dtype": {"type": "DT_FLOAT"}}}, {"name": "model_358/tf.concat_18/concat/axis", "op": "Const", "attr": {"value": {"tensor": {"dtype": "DT_INT32", "tensorShape": {}}}, "dtype": {"type": "DT_INT32"}}}, {"name": "model_358/tf.nn.convolution_205/convolution/filter", "op": "Const", "attr": {"value": {"tensor": {"dtype": "DT_FLOAT", "tensorShape": {"dim": [{"size": "1"}, {"size": "1"}, {"size": "384"}, {"size": "256"}]}}}, "dtype": {"type": "DT_FLOAT"}}}, {"name": "model_358/tf.math.add_113/Add/y", "op": "Const", "attr": {"value": {"tensor": {"dtype": "DT_FLOAT", "tensorShape": {"dim": [{"size": "256"}]}}}, "dtype": {"type": "DT_FLOAT"}}}, {"name": "model_358/tf.strided_slice_20/ones_like/tensor", "op": "Const", "attr": {"value": {"tensor": {"dtype": "DT_INT64", "tensorShape": {"dim": [{"size": "4"}]}}}, "dtype": {"type": "DT_INT64"}}}, {"name": "model_358/tf.strided_slice_20/StridedSlice/end", "op": "Const", "attr": {"value": {"tensor": {"dtype": "DT_INT64", "tensorShape": {"dim": [{"size": "4"}]}}}, "dtype": {"type": "DT_INT64"}}}, {"name": "model_358/tf.strided_slice_20/ones_like", "op": "Const", "attr": {"value": {"tensor": {"dtype": "DT_INT64", "tensorShape": {"dim": [{"size": "4"}]}}}, "dtype": {"type": "DT_INT64"}}}, {"name": "model_358/tf.nn.convolution_207/convolution/filter", "op": "Const", "attr": {"value": {"tensor": {"dtype": "DT_FLOAT", "tensorShape": {"dim": [{"size": "3"}, {"size": "3"}, {"size": "128"}, {"size": "64"}]}}}, "dtype": {"type": "DT_FLOAT"}}}, {"name": "model_358/tf.math.add_116/Add/y", "op": "Const", "attr": {"value": {"tensor": {"dtype": "DT_FLOAT", "tensorShape": {"dim": [{"size": "64"}]}}}, "dtype": {"type": "DT_FLOAT"}}}, {"name": "model_358/tf.nn.convolution_209/convolution/filter", "op": "Const", "attr": {"value": {"tensor": {"dtype": "DT_FLOAT", "tensorShape": {"dim": [{"size": "3"}, {"size": "3"}, {"size": "64"}, {"size": "128"}]}}}, "dtype": {"type": "DT_FLOAT"}}}, {"name": "model_358/tf.math.add_118/Add/y", "op": "Const", "attr": {"value": {"tensor": {"dtype": "DT_FLOAT", "tensorShape": {"dim": [{"size": "128"}]}}}, "dtype": {"type": "DT_FLOAT"}}}, {"name": "model_358/tf.nn.convolution_211/convolution/filter", "op": "Const", "attr": {"value": {"tensor": {"dtype": "DT_FLOAT", "tensorShape": {"dim": [{"size": "1"}, {"size": "1"}, {"size": "128"}, {"size": "256"}]}}}, "dtype": {"type": "DT_FLOAT"}}}, {"name": "model_358/tf.math.add_122/Add/y", "op": "Const", "attr": {"value": {"tensor": {"dtype": "DT_FLOAT", "tensorShape": {"dim": [{"size": "256"}]}}}, "dtype": {"type": "DT_FLOAT"}}}, {"name": "model_358/tf.compat.v1.transpose_282/transpose/perm", "op": "Const", "attr": {"value": {"tensor": {"dtype": "DT_INT32", "tensorShape": {"dim": [{"size": "4"}]}}}, "dtype": {"type": "DT_INT32"}}}, {"name": "model_358/tf.reshape_161/Reshape/shape", "op": "Const", "attr": {"value": {"tensor": {"dtype": "DT_INT32", "tensorShape": {"dim": [{"size": "4"}]}}}, "dtype": {"type": "DT_INT32"}}}, {"name": "model_358/tf.strided_slice_23/StridedSlice/begin", "op": "Const", "attr": {"value": {"tensor": {"dtype": "DT_INT32", "tensorShape": {"dim": [{"size": "4"}]}}}, "dtype": {"type": "DT_INT32"}}}, {"name": "model_358/tf.strided_slice_23/StridedSlice/end", "op": "Const", "attr": {"value": {"tensor": {"dtype": "DT_INT32", "tensorShape": {"dim": [{"size": "4"}]}}}, "dtype": {"type": "DT_INT32"}}}, {"name": "model_358/tf.strided_slice_23/ones_like", "op": "Const", "attr": {"value": {"tensor": {"dtype": "DT_INT32", "tensorShape": {"dim": [{"size": "4"}]}}}, "dtype": {"type": "DT_INT32"}}}, {"name": "model_358/tf.reshape_187/Reshape/shape", "op": "Const", "attr": {"value": {"tensor": {"dtype": "DT_INT32", "tensorShape": {"dim": [{"size": "4"}]}}}, "dtype": {"type": "DT_INT32"}}}, {"name": "model_358/tf.compat.v1.transpose_344/transpose/perm", "op": "Const", "attr": {"value": {"tensor": {"dtype": "DT_INT32", "tensorShape": {"dim": [{"size": "4"}]}}}, "dtype": {"type": "DT_INT32"}}}, {"name": "model_358/tf.nn.convolution_339/convolution/filter", "op": "Const", "attr": {"value": {"tensor": {"dtype": "DT_FLOAT", "tensorShape": {"dim": [{"size": "3"}, {"size": "3"}, {"size": "1"}, {"size": "1"}]}}}, "dtype": {"type": "DT_FLOAT"}}}, {"name": "model_358/tf.concat_19/concat/axis", "op": "Const", "attr": {"value": {"tensor": {"dtype": "DT_INT32", "tensorShape": {}}}, "dtype": {"type": "DT_INT32"}}}, {"name": "model_358/tf.nn.convolution_340/convolution/filter", "op": "Const", "attr": {"value": {"tensor": {"dtype": "DT_FLOAT", "tensorShape": {"dim": [{"size": "1"}, {"size": "1"}, {"size": "128"}, {"size": "128"}]}}}, "dtype": {"type": "DT_FLOAT"}}}, {"name": "model_358/tf.nn.convolution_341/convolution/filter", "op": "Const", "attr": {"value": {"tensor": {"dtype": "DT_FLOAT", "tensorShape": {"dim": [{"size": "1"}, {"size": "1"}, {"size": "128"}, {"size": "256"}]}}}, "dtype": {"type": "DT_FLOAT"}}}, {"name": "model_358/tf.math.add_129/Add/y", "op": "Const", "attr": {"value": {"tensor": {"dtype": "DT_FLOAT", "tensorShape": {"dim": [{"size": "256"}]}}}, "dtype": {"type": "DT_FLOAT"}}}, {"name": "model_358/tf.nn.convolution_342/convolution/filter", "op": "Const", "attr": {"value": {"tensor": {"dtype": "DT_FLOAT", "tensorShape": {"dim": [{"size": "1"}, {"size": "1"}, {"size": "256"}, {"size": "128"}]}}}, "dtype": {"type": "DT_FLOAT"}}}, {"name": "model_358/tf.concat_20/concat/axis", "op": "Const", "attr": {"value": {"tensor": {"dtype": "DT_INT32", "tensorShape": {}}}, "dtype": {"type": "DT_INT32"}}}, {"name": "model_358/tf.nn.convolution_343/convolution/filter", "op": "Const", "attr": {"value": {"tensor": {"dtype": "DT_FLOAT", "tensorShape": {"dim": [{"size": "1"}, {"size": "1"}, {"size": "384"}, {"size": "256"}]}}}, "dtype": {"type": "DT_FLOAT"}}}, {"name": "model_358/tf.math.add_133/Add/y", "op": "Const", "attr": {"value": {"tensor": {"dtype": "DT_FLOAT", "tensorShape": {"dim": [{"size": "256"}]}}}, "dtype": {"type": "DT_FLOAT"}}}, {"name": "model_358/tf.compat.v1.nn.depthwise_conv2d_4/depthwise/filter_in", "op": "Const", "attr": {"value": {"tensor": {"dtype": "DT_FLOAT", "tensorShape": {"dim": [{"size": "3"}, {"size": "3"}, {"size": "256"}, {"size": "1"}]}}}, "dtype": {"type": "DT_FLOAT"}}}, {"name": "model_358/tf.math.add_135/Add/y", "op": "Const", "attr": {"value": {"tensor": {"dtype": "DT_FLOAT", "tensorShape": {"dim": [{"size": "256"}]}}}, "dtype": {"type": "DT_FLOAT"}}}, {"name": "model_358/tf.nn.convolution_346/convolution/filter", "op": "Const", "attr": {"value": {"tensor": {"dtype": "DT_FLOAT", "tensorShape": {"dim": [{"size": "1"}, {"size": "1"}, {"size": "256"}, {"size": "64"}]}}}, "dtype": {"type": "DT_FLOAT"}}}, {"name": "model_358/tf.math.add_137/Add/y", "op": "Const", "attr": {"value": {"tensor": {"dtype": "DT_FLOAT", "tensorShape": {"dim": [{"size": "64"}]}}}, "dtype": {"type": "DT_FLOAT"}}}, {"name": "model_358/tf.compat.v1.nn.depthwise_conv2d_5/depthwise/filter_in", "op": "Const", "attr": {"value": {"tensor": {"dtype": "DT_FLOAT", "tensorShape": {"dim": [{"size": "3"}, {"size": "3"}, {"size": "64"}, {"size": "1"}]}}}, "dtype": {"type": "DT_FLOAT"}}}, {"name": "model_358/tf.math.add_139/Add/y", "op": "Const", "attr": {"value": {"tensor": {"dtype": "DT_FLOAT", "tensorShape": {"dim": [{"size": "64"}]}}}, "dtype": {"type": "DT_FLOAT"}}}, {"name": "model_358/tf.nn.convolution_348/convolution/filter", "op": "Const", "attr": {"value": {"tensor": {"dtype": "DT_FLOAT", "tensorShape": {"dim": [{"size": "1"}, {"size": "1"}, {"size": "64"}, {"size": "64"}]}}}, "dtype": {"type": "DT_FLOAT"}}}, {"name": "model_358/tf.math.add_140/Add/y", "op": "Const", "attr": {"value": {"tensor": {"dtype": "DT_FLOAT", "tensorShape": {"dim": [{"size": "64"}]}}}, "dtype": {"type": "DT_FLOAT"}}}, {"name": "model_358/tf.nn.convolution_349/convolution/filter", "op": "Const", "attr": {"value": {"tensor": {"dtype": "DT_FLOAT", "tensorShape": {"dim": [{"size": "1"}, {"size": "1"}, {"size": "64"}, {"size": "59"}]}}}, "dtype": {"type": "DT_FLOAT"}}}, {"name": "model_358/tf.math.add_142/Add/y", "op": "Const", "attr": {"value": {"tensor": {"dtype": "DT_FLOAT", "tensorShape": {"dim": [{"size": "59"}]}}}, "dtype": {"type": "DT_FLOAT"}}}, {"name": "model_358/tf.compat.v1.transpose_436/transpose/perm", "op": "Const", "attr": {"value": {"tensor": {"dtype": "DT_INT32", "tensorShape": {"dim": [{"size": "4"}]}}}, "dtype": {"type": "DT_INT32"}}}, {"name": "model_358/tf.reshape_265/Reshape/shape", "op": "Const", "attr": {"value": {"tensor": {"dtype": "DT_INT32", "tensorShape": {"dim": [{"size": "3"}]}}}, "dtype": {"type": "DT_INT32"}}}, {"name": "model_358/tf.concat_27/concat/axis", "op": "Const", "attr": {"value": {"tensor": {"dtype": "DT_INT32", "tensorShape": {}}}, "dtype": {"type": "DT_INT32"}}}, {"name": "model_358/tf.concat_28/concat/axis", "op": "Const", "attr": {"value": {"tensor": {"dtype": "DT_INT32", "tensorShape": {}}}, "dtype": {"type": "DT_INT32"}}}, {"name": "model_358/tf.compat.v1.transpose_462/transpose/perm", "op": "Const", "attr": {"value": {"tensor": {"dtype": "DT_INT32", "tensorShape": {"dim": [{"size": "3"}]}}}, "dtype": {"type": "DT_INT32"}}}, {"name": "model_358/tf.strided_slice_27/StridedSlice/begin", "op": "Const", "attr": {"value": {"tensor": {"dtype": "DT_INT32", "tensorShape": {"dim": [{"size": "3"}]}}}, "dtype": {"type": "DT_INT32"}}}, {"name": "model_358/tf.strided_slice_27/StridedSlice/end", "op": "Const", "attr": {"value": {"tensor": {"dtype": "DT_INT32", "tensorShape": {"dim": [{"size": "3"}]}}}, "dtype": {"type": "DT_INT32"}}}, {"name": "model_358/tf.strided_slice_27/ones_like", "op": "Const", "attr": {"value": {"tensor": {"dtype": "DT_INT32", "tensorShape": {"dim": [{"size": "3"}]}}}, "dtype": {"type": "DT_INT32"}}}, {"name": "model_358/tf.math.reduce_max_1/Max/reduction_indices", "op": "Const", "attr": {"value": {"tensor": {"dtype": "DT_INT32", "tensorShape": {"dim": [{"size": "1"}]}}}, "dtype": {"type": "DT_INT32"}}}, {"name": "model_358/tf.math.top_k/TopKV2/k", "op": "Const", "attr": {"value": {"tensor": {"dtype": "DT_INT32", "tensorShape": {}}}, "dtype": {"type": "DT_INT32"}}}, {"name": "x", "op": "Placeholder", "attr": {"shape": {"shape": {"dim": [{"size": "1"}, {"size": "640"}, {"size": "640"}, {"size": "3"}]}}, "dtype": {"type": "DT_FLOAT"}}}, {"name": "model_358/tf.compat.v1.pad/Pad", "op": "Pad", "input": ["x", "model_358/tf.compat.v1.pad/Pad/paddings"], "attr": {"Tpaddings": {"type": "DT_INT32"}, "T": {"type": "DT_FLOAT"}}}, {"name": "model_358/tf.math.add/Add", "op": "_FusedConv2D", "input": ["model_358/tf.compat.v1.pad/Pad", "model_358/tf.nn.convolution/convolution/filter", "model_358/tf.math.add/Add/y"], "device": "/device:CPU:0", "attr": {"num_host_args": {"i": "0"}, "data_format": {"s": "TkhXQw=="}, "filter_format": {"s": "SFdJTw=="}, "strides": {"list": {"i": ["1", "2", "2", "1"]}}, "num_args": {"i": "1"}, "fused_ops": {"list": {"s": ["Qmlhc0FkZA=="]}}, "TArgs": {"list": {"type": ["DT_FLOAT"]}}, "padding": {"s": "VkFMSUQ="}, "use_cudnn_on_gpu": {"b": true}, "leakyrelu_alpha": {"f": 0.2}, "epsilon": {"f": 0.0}, "T": {"type": "DT_FLOAT"}, "explicit_paddings": {"list": {}}, "dilations": {"list": {"i": ["1", "1", "1", "1"]}}}}, {"name": "model_358/tf.math.sigmoid/Sigmoid", "op": "Sigmoid", "input": ["model_358/tf.math.add/Add"], "attr": {"T": {"type": "DT_FLOAT"}}}, {"name": "model_358/tf.math.multiply_3/Mul", "op": "Mul", "input": ["model_358/tf.math.add/Add", "model_358/tf.math.sigmoid/Sigmoid"], "attr": {"T": {"type": "DT_FLOAT"}}}, {"name": "model_358/tf.compat.v1.pad_1/Pad", "op": "Pad", "input": ["model_358/tf.math.multiply_3/Mul", "model_358/tf.compat.v1.pad_1/Pad/paddings"], "attr": {"Tpaddings": {"type": "DT_INT32"}, "T": {"type": "DT_FLOAT"}}}, {"name": "model_358/tf.math.add_1/Add", "op": "_FusedConv2D", "input": ["model_358/tf.compat.v1.pad_1/Pad", "model_358/tf.nn.convolution_1/convolution/filter", "model_358/tf.math.add_1/Add/y"], "device": "/device:CPU:0", "attr": {"num_host_args": {"i": "0"}, "data_format": {"s": "TkhXQw=="}, "filter_format": {"s": "SFdJTw=="}, "fused_ops": {"list": {"s": ["Qmlhc0FkZA=="]}}, "num_args": {"i": "1"}, "strides": {"list": {"i": ["1", "2", "2", "1"]}}, "TArgs": {"list": {"type": ["DT_FLOAT"]}}, "padding": {"s": "VkFMSUQ="}, "use_cudnn_on_gpu": {"b": true}, "leakyrelu_alpha": {"f": 0.2}, "epsilon": {"f": 0.0}, "T": {"type": "DT_FLOAT"}, "explicit_paddings": {"list": {}}, "dilations": {"list": {"i": ["1", "1", "1", "1"]}}}}, {"name": "model_358/tf.math.sigmoid_1/Sigmoid", "op": "Sigmoid", "input": ["model_358/tf.math.add_1/Add"], "attr": {"T": {"type": "DT_FLOAT"}}}, {"name": "model_358/tf.math.multiply_7/Mul", "op": "Mul", "input": ["model_358/tf.math.add_1/Add", "model_358/tf.math.sigmoid_1/Sigmoid"], "attr": {"T": {"type": "DT_FLOAT"}}}, {"name": "model_358/tf.math.add_2/Add", "op": "_FusedConv2D", "input": ["model_358/tf.math.multiply_7/Mul", "model_358/tf.nn.convolution_2/convolution/filter", "model_358/tf.math.add_2/Add/y"], "device": "/device:CPU:0", "attr": {"num_host_args": {"i": "0"}, "data_format": {"s": "TkhXQw=="}, "filter_format": {"s": "SFdJTw=="}, "fused_ops": {"list": {"s": ["Qmlhc0FkZA=="]}}, "num_args": {"i": "1"}, "strides": {"list": {"i": ["1", "1", "1", "1"]}}, "TArgs": {"list": {"type": ["DT_FLOAT"]}}, "padding": {"s": "U0FNRQ=="}, "use_cudnn_on_gpu": {"b": true}, "leakyrelu_alpha": {"f": 0.2}, "epsilon": {"f": 0.0}, "T": {"type": "DT_FLOAT"}, "explicit_paddings": {"list": {}}, "dilations": {"list": {"i": ["1", "1", "1", "1"]}}}}, {"name": "model_358/tf.math.sigmoid_2/Sigmoid", "op": "Sigmoid", "input": ["model_358/tf.math.add_2/Add"], "attr": {"T": {"type": "DT_FLOAT"}}}, {"name": "model_358/tf.math.multiply_11/Mul", "op": "Mul", "input": ["model_358/tf.math.add_2/Add", "model_358/tf.math.sigmoid_2/Sigmoid"], "attr": {"T": {"type": "DT_FLOAT"}}}, {"name": "model_358/tf.strided_slice/StridedSlice", "op": "StridedSlice", "input": ["model_358/tf.math.multiply_11/Mul", "model_358/tf.strided_slice/ones_like/tensor", "model_358/tf.strided_slice/StridedSlice/end", "model_358/tf.strided_slice/ones_like"], "attr": {"shrink_axis_mask": {"i": "0"}, "Index": {"type": "DT_INT64"}, "new_axis_mask": {"i": "0"}, "begin_mask": {"i": "15"}, "T": {"type": "DT_FLOAT"}, "end_mask": {"i": "7"}, "ellipsis_mask": {"i": "0"}}}, {"name": "model_358/tf.strided_slice_1/StridedSlice", "op": "StridedSlice", "input": ["model_358/tf.math.multiply_11/Mul", "model_358/tf.strided_slice_1/ones_like/tensor", "model_358/tf.strided_slice_1/StridedSlice/end", "model_358/tf.strided_slice_1/ones_like"], "attr": {"shrink_axis_mask": {"i": "0"}, "new_axis_mask": {"i": "0"}, "Index": {"type": "DT_INT64"}, "begin_mask": {"i": "7"}, "T": {"type": "DT_FLOAT"}, "end_mask": {"i": "7"}, "ellipsis_mask": {"i": "0"}}}, {"name": "model_358/tf.math.add_3/Add", "op": "_FusedConv2D", "input": ["model_358/tf.strided_slice_1/StridedSlice", "model_358/tf.nn.convolution_3/convolution/filter", "model_358/tf.math.add_3/Add/y"], "device": "/device:CPU:0", "attr": {"num_host_args": {"i": "0"}, "data_format": {"s": "TkhXQw=="}, "filter_format": {"s": "SFdJTw=="}, "fused_ops": {"list": {"s": ["Qmlhc0FkZA=="]}}, "num_args": {"i": "1"}, "strides": {"list": {"i": ["1", "1", "1", "1"]}}, "TArgs": {"list": {"type": ["DT_FLOAT"]}}, "padding": {"s": "U0FNRQ=="}, "use_cudnn_on_gpu": {"b": true}, "leakyrelu_alpha": {"f": 0.2}, "epsilon": {"f": 0.0}, "T": {"type": "DT_FLOAT"}, "explicit_paddings": {"list": {}}, "dilations": {"list": {"i": ["1", "1", "1", "1"]}}}}, {"name": "model_358/tf.math.sigmoid_3/Sigmoid", "op": "Sigmoid", "input": ["model_358/tf.math.add_3/Add"], "attr": {"T": {"type": "DT_FLOAT"}}}, {"name": "model_358/tf.math.multiply_15/Mul", "op": "Mul", "input": ["model_358/tf.math.add_3/Add", "model_358/tf.math.sigmoid_3/Sigmoid"], "attr": {"T": {"type": "DT_FLOAT"}}}, {"name": "model_358/tf.math.add_4/Add", "op": "_FusedConv2D", "input": ["model_358/tf.math.multiply_15/Mul", "model_358/tf.nn.convolution_4/convolution/filter", "model_358/tf.math.add_4/Add/y"], "device": "/device:CPU:0", "attr": {"num_host_args": {"i": "0"}, "data_format": {"s": "TkhXQw=="}, "filter_format": {"s": "SFdJTw=="}, "strides": {"list": {"i": ["1", "1", "1", "1"]}}, "num_args": {"i": "1"}, "fused_ops": {"list": {"s": ["Qmlhc0FkZA=="]}}, "TArgs": {"list": {"type": ["DT_FLOAT"]}}, "padding": {"s": "U0FNRQ=="}, "use_cudnn_on_gpu": {"b": true}, "leakyrelu_alpha": {"f": 0.2}, "epsilon": {"f": 0.0}, "T": {"type": "DT_FLOAT"}, "exp…
ape": [3, 3, 1, 1], "dtype": "float32", "quantization": {"dtype": "uint8", "min": -0.6355619421338333, "scale": 0.002522071198943783, "original_dtype": "float32"}}, {"name": "model_358/tf.nn.convolution_71/convolution/filter", "shape": [3, 3, 1, 1], "dtype": "float32", "quantization": {"dtype": "uint8", "min": -0.3311393955612884, "scale": 0.0014587638570981868, "original_dtype": "float32"}}, {"name": "model_358/tf.nn.convolution_72/convolution/filter", "shape": [3, 3, 1, 1], "dtype": "float32", "quantization": {"dtype": "uint8", "min": -0.6441257070092594, "scale": 0.002683857112538581, "original_dtype": "float32"}}, {"name": "model_358/tf.nn.convolution_73/convolution/filter", "shape": [3, 3, 1, 1], "dtype": "float32", "quantization": {"dtype": "uint8", "min": -0.7252996843235165, "scale": 0.003520872253997653, "original_dtype": "float32"}}, {"name": "model_358/tf.nn.convolution_74/convolution/filter", "shape": [3, 3, 1, 1], "dtype": "float32", "quantization": {"dtype": "uint8", "min": -0.6696280241012573, "scale": 0.002598025279083088, "original_dtype": "float32"}}, {"name": "model_358/tf.nn.convolution_75/convolution/filter", "shape": [3, 3, 1, 1], "dtype": "float32", "quantization": {"dtype": "uint8", "min": -0.6017830413638376, "scale": 0.0024970250678997413, "original_dtype": "float32"}}, {"name": "model_358/tf.nn.convolution_76/convolution/filter", "shape": [3, 3, 1, 1], "dtype": "float32", "quantization": {"dtype": "uint8", "min": -0.7752166029577162, "scale": 0.0032435841127937915, "original_dtype": "float32"}}, {"name": "model_358/tf.nn.convolution_77/convolution/filter", "shape": [3, 3, 1, 1], "dtype": "float32", "quantization": {"dtype": "uint8", "min": -0.7237678818842943, "scale": 0.0031468168777578015, "original_dtype": "float32"}}, {"name": "model_358/tf.nn.convolution_78/convolution/filter", "shape": [3, 3, 1, 1], "dtype": "float32", "quantization": {"dtype": "uint8", "min": -0.7462904495935814, "scale": 0.0030966408696829102, "original_dtype": "float32"}}, {"name": "model_358/tf.nn.convolution_79/convolution/filter", "shape": [3, 3, 1, 1], "dtype": "float32", "quantization": {"dtype": "uint8", "min": -0.605894676026176, "scale": 0.0030600741213443233, "original_dtype": "float32"}}, {"name": "model_358/tf.nn.convolution_80/convolution/filter", "shape": [3, 3, 1, 1], "dtype": "float32", "quantization": {"dtype": "uint8", "min": -0.7260062080972335, "scale": 0.0034571724195106355, "original_dtype": "float32"}}, {"name": "model_358/tf.nn.convolution_81/convolution/filter", "shape": [3, 3, 1, 1], "dtype": "float32", "quantization": {"dtype": "uint8", "min": -0.6894325357587898, "scale": 0.0029089980411763283, "original_dtype": "float32"}}, {"name": "model_358/tf.nn.convolution_82/convolution/filter", "shape": [3, 3, 1, 1], "dtype": "float32", "quantization": {"dtype": "uint8", "min": -0.656800596094599, "scale": 0.003142586584184684, "original_dtype": "float32"}}, {"name": "model_358/tf.nn.convolution_83/convolution/filter", "shape": [3, 3, 1, 1], "dtype": "float32", "quantization": {"dtype": "uint8", "min": -0.729283806681633, "scale": 0.003456321358680725, "original_dtype": "float32"}}, {"name": "model_358/tf.nn.convolution_84/convolution/filter", "shape": [3, 3, 1, 1], "dtype": "float32", "quantization": {"dtype": "uint8", "min": -0.6363505626426024, "scale": 0.0026404587661518772, "original_dtype": "float32"}}, {"name": "model_358/tf.nn.convolution_85/convolution/filter", "shape": [3, 3, 1, 1], "dtype": "float32", "quantization": {"dtype": "uint8", "min": -0.7204962898703182, "scale": 0.0040027571659462125, "original_dtype": "float32"}}, {"name": "model_358/tf.nn.convolution_86/convolution/filter", "shape": [3, 3, 1, 1], "dtype": "float32", "quantization": {"dtype": "uint8", "min": -0.603188078660591, "scale": 0.0027669177920210597, "original_dtype": "float32"}}, {"name": "model_358/tf.nn.convolution_87/convolution/filter", "shape": [3, 3, 1, 1], "dtype": "float32", "quantization": {"dtype": "uint8", "min": -0.6690147273680743, "scale": 0.0037167484853781905, "original_dtype": "float32"}}, {"name": "model_358/tf.nn.convolution_88/convolution/filter", "shape": [3, 3, 1, 1], "dtype": "float32", "quantization": {"dtype": "uint8", "min": -0.6143988561980865, "scale": 0.002603384983890197, "original_dtype": "float32"}}, {"name": "model_358/tf.nn.convolution_89/convolution/filter", "shape": [3, 3, 1, 1], "dtype": "float32", "quantization": {"dtype": "uint8", "min": -0.7481132469925226, "scale": 0.0035966983028486665, "original_dtype": "float32"}}, {"name": "model_358/tf.nn.convolution_90/convolution/filter", "shape": [3, 3, 1, 1], "dtype": "float32", "quantization": {"dtype": "uint8", "min": -0.7562384260635749, "scale": 0.0034689836057962154, "original_dtype": "float32"}}, {"name": "model_358/tf.nn.convolution_91/convolution/filter", "shape": [3, 3, 1, 1], "dtype": "float32", "quantization": {"dtype": "uint8", "min": -0.6362379875837588, "scale": 0.002742405118895512, "original_dtype": "float32"}}, {"name": "model_358/tf.nn.convolution_92/convolution/filter", "shape": [3, 3, 1, 1], "dtype": "float32", "quantization": {"dtype": "uint8", "min": -0.6475691359417112, "scale": 0.002743937016702166, "original_dtype": "float32"}}, {"name": "model_358/tf.nn.convolution_93/convolution/filter", "shape": [3, 3, 1, 1], "dtype": "float32", "quantization": {"dtype": "uint8", "min": -0.6363735544002231, "scale": 0.0025557170859446714, "original_dtype": "float32"}}, {"name": "model_358/tf.nn.convolution_94/convolution/filter", "shape": [3, 3, 1, 1], "dtype": "float32", "quantization": {"dtype": "uint8", "min": -0.5462309766049479, "scale": 0.0024169512239156986, "original_dtype": "float32"}}, {"name": "model_358/tf.nn.convolution_95/convolution/filter", "shape": [3, 3, 1, 1], "dtype": "float32", "quantization": {"dtype": "uint8", "min": -0.3104165329104837, "scale": 0.001236719254623441, "original_dtype": "float32"}}, {"name": "model_358/tf.nn.convolution_96/convolution/filter", "shape": [3, 3, 1, 1], "dtype": "float32", "quantization": {"dtype": "uint8", "min": -0.6366739576938105, "scale": 0.0025672337003782683, "original_dtype": "float32"}}, {"name": "model_358/tf.nn.convolution_97/convolution/filter", "shape": [3, 3, 1, 1], "dtype": "float32", "quantization": {"dtype": "uint8", "min": -0.5816812905318597, "scale": 0.0026560789522002727, "original_dtype": "float32"}}, {"name": "model_358/tf.nn.convolution_98/convolution/filter", "shape": [3, 3, 1, 1], "dtype": "float32", "quantization": {"dtype": "uint8", "min": -0.7584001351805295, "scale": 0.003991579658844892, "original_dtype": "float32"}}, {"name": "model_358/tf.nn.convolution_99/convolution/filter", "shape": [3, 3, 1, 1], "dtype": "float32", "quantization": {"dtype": "uint8", "min": -0.6352239412419936, "scale": 0.004071948341294831, "original_dtype": "float32"}}, {"name": "model_358/tf.nn.convolution_100/convolution/filter", "shape": [3, 3, 1, 1], "dtype": "float32", "quantization": {"dtype": "uint8", "min": -0.4804645014744179, "scale": 0.004953242283241422, "original_dtype": "float32"}}, {"name": "model_358/tf.nn.convolution_101/convolution/filter", "shape": [3, 3, 1, 1], "dtype": "float32", "quantization": {"dtype": "uint8", "min": -0.15104813517308702, "scale": 0.0006773458976371615, "original_dtype": "float32"}}, {"name": "model_358/tf.nn.convolution_102/convolution/filter", "shape": [3, 3, 1, 1], "dtype": "float32", "quantization": {"dtype": "uint8", "min": -0.5386548640681248, "scale": 0.0035437820004481893, "original_dtype": "float32"}}, {"name": "model_358/tf.nn.convolution_103/convolution/filter", "shape": [3, 3, 1, 1], "dtype": "float32", "quantization": {"dtype": "uint8", "min": -0.3416942027123535, "scale": 0.0015186409009437934, "original_dtype": "float32"}}, {"name": "model_358/tf.nn.convolution_104/convolution/filter", "shape": [3, 3, 1, 1], "dtype": "float32", "quantization": {"dtype": "uint8", "min": -1.0588382959365845, "scale": 0.005190383803610708, "original_dtype": "float32"}}, {"name": "model_358/tf.nn.convolution_105/convolution/filter", "shape": [3, 3, 1, 1], "dtype": "float32", "quantization": {"dtype": "uint8", "min": -2.1645319377674777, "scale": 0.013279337041518267, "original_dtype": "float32"}}, {"name": "model_358/tf.nn.convolution_106/convolution/filter", "shape": [3, 3, 1, 1], "dtype": "float32", "quantization": {"dtype": "uint8", "min": -0.30628708636059476, "scale": 0.0014179957701879388, "original_dtype": "float32"}}, {"name": "model_358/tf.nn.convolution_107/convolution/filter", "shape": [3, 3, 1, 1], "dtype": "float32", "quantization": {"dtype": "uint8", "min": -2.481000485373478, "scale": 0.013410813434451234, "original_dtype": "float32"}}, {"name": "model_358/tf.nn.convolution_108/convolution/filter", "shape": [3, 3, 1, 1], "dtype": "float32", "quantization": {"dtype": "uint8", "min": -0.30613627467377513, "scale": 0.0012546568634171113, "original_dtype": "float32"}}, {"name": "model_358/tf.nn.convolution_109/convolution/filter", "shape": [3, 3, 1, 1], "dtype": "float32", "quantization": {"dtype": "uint8", "min": -0.24079799900452295, "scale": 0.0012223248680432637, "original_dtype": "float32"}}, {"name": "model_358/tf.nn.convolution_110/convolution/filter", "shape": [3, 3, 1, 1], "dtype": "float32", "quantization": {"dtype": "uint8", "min": -0.2989488666621493, "scale": 0.0012404517288885865, "original_dtype": "float32"}}, {"name": "model_358/tf.nn.convolution_111/convolution/filter", "shape": [3, 3, 1, 1], "dtype": "float32", "quantization": {"dtype": "uint8", "min": -0.2729906269440464, "scale": 0.0011327411906391967, "original_dtype": "float32"}}, {"name": "model_358/tf.nn.convolution_112/convolution/filter", "shape": [3, 3, 1, 1], "dtype": "float32", "quantization": {"dtype": "uint8", "min": -0.3301458917558193, "scale": 0.001387167612419409, "original_dtype": "float32"}}, {"name": "model_358/tf.nn.convolution_113/convolution/filter", "shape": [3, 3, 1, 1], "dtype": "float32", "quantization": {"dtype": "uint8", "min": -0.265699425164391, "scale": 0.0011070809381849625, "original_dtype": "float32"}}, {"name": "model_358/tf.nn.convolution_114/convolution/filter", "shape": [3, 3, 1, 1], "dtype": "float32", "quantization": {"dtype": "uint8", "min": -0.3005084526962509, "scale": 0.0012469230402334063, "original_dtype": "float32"}}, {"name": "model_358/tf.nn.convolution_115/convolution/filter", "shape": [3, 3, 1, 1], "dtype": "float32", "quantization": {"dtype": "uint8", "min": -0.2623404439976987, "scale": 0.0010795903045172784, "original_dtype": "float32"}}, {"name": "model_358/tf.nn.convolution_116/convolution/filter", "shape": [3, 3, 1, 1], "dtype": "float32", "quantization": {"dtype": "uint8", "min": -0.2897761027018229, "scale": 0.0012175466500076594, "original_dtype": "float32"}}, {"name": "model_358/tf.nn.convolution_117/convolution/filter", "shape": [3, 3, 1, 1], "dtype": "float32", "quantization": {"dtype": "uint8", "min": -0.3108195101513582, "scale": 0.001295081292297326, "original_dtype": "float32"}}, {"name": "model_358/tf.nn.convolution_118/convolution/filter", "shape": [3, 3, 1, 1], "dtype": "float32", "quantization": {"dtype": "uint8", "min": -1.5630046208699544, "scale": 0.015174802144368489, "original_dtype": "float32"}}, {"name": "model_358/tf.nn.convolution_119/convolution/filter", "shape": [3, 3, 1, 1], "dtype": "float32", "quantization": {"dtype": "uint8", "min": -0.3423874385070567, "scale": 0.0014951416528692432, "original_dtype": "float32"}}, {"name": "model_358/tf.nn.convolution_120/convolution/filter", "shape": [3, 3, 1, 1], "dtype": "float32", "quantization": {"dtype": "uint8", "min": -0.348244788998044, "scale": 0.0013874294382392191, "original_dtype": "float32"}}, {"name": "model_358/tf.nn.convolution_121/convolution/filter", "shape": [3, 3, 1, 1], "dtype": "float32", "quantization": {"dtype": "uint8", "min": -0.26784542391222776, "scale": 0.0010671132426781982, "original_dtype": "float32"}}, {"name": "model_358/tf.nn.convolution_122/convolution/filter", "shape": [3, 3, 1, 1], "dtype": "float32", "quantization": {"dtype": "uint8", "min": -0.3271916312950791, "scale": 0.001324662474878863, "original_dtype": "float32"}}, {"name": "model_358/tf.nn.convolution_123/convolution/filter", "shape": [3, 3, 1, 1], "dtype": "float32", "quantization": {"dtype": "uint8", "min": -0.3074851614587447, "scale": 0.0012811881727447696, "original_dtype": "float32"}}, {"name": "model_358/tf.nn.convolution_124/convolution/filter", "shape": [3, 3, 1, 1], "dtype": "float32", "quantization": {"dtype": "uint8", "min": -0.318077171199462, "scale": 0.001507474745021147, "original_dtype": "float32"}}, {"name": "model_358/tf.nn.convolution_125/convolution/filter", "shape": [3, 3, 1, 1], "dtype": "float32", "quantization": {"dtype": "uint8", "min": -0.3257553211906377, "scale": 0.0014101961956304663, "original_dtype": "float32"}}, {"name": "model_358/tf.nn.convolution_126/convolution/filter", "shape": [3, 3, 1, 1], "dtype": "float32", "quantization": {"dtype": "uint8", "min": -0.2731582656612291, "scale": 0.0010926330626449164, "original_dtype": "float32"}}, {"name": "model_358/tf.nn.convolution_127/convolution/filter", "shape": [3, 3, 1, 1], "dtype": "float32", "quantization": {"dtype": "uint8", "min": -0.4615473326514749, "scale": 0.004273586413439582, "original_dtype": "float32"}}, {"name": "model_358/tf.nn.convolution_128/convolution/filter", "shape": [3, 3, 1, 1], "dtype": "float32", "quantization": {"dtype": "uint8", "min": -0.26645394195528593, "scale": 0.001268828295025171, "original_dtype": "float32"}}, {"name": "model_358/tf.nn.convolution_129/convolution/filter", "shape": [3, 3, 1, 1], "dtype": "float32", "quantization": {"dtype": "uint8", "min": -0.35278544846703025, "scale": 0.0014517919690001245, "original_dtype": "float32"}}, {"name": "model_358/tf.nn.convolution_130/convolution/filter", "shape": [3, 3, 1, 1], "dtype": "float32", "quantization": {"dtype": "uint8", "min": -0.43547067922704363, "scale": 0.00362892232689203, "original_dtype": "float32"}}, {"name": "model_358/tf.nn.convolution_131/convolution/filter", "shape": [3, 3, 1, 1], "dtype": "float32", "quantization": {"dtype": "uint8", "min": -0.3512398132908286, "scale": 0.001433631890982974, "original_dtype": "float32"}}, {"name": "model_358/tf.nn.convolution_132/convolution/filter", "shape": [3, 3, 1, 1], "dtype": "float32", "quantization": {"dtype": "uint8", "min": -0.6174346273436266, "scale": 0.0032668498801250085, "original_dtype": "float32"}}, {"name": "model_358/tf.nn.convolution_133/convolution/filter", "shape": [3, 3, 1, 1], "dtype": "float32", "quantization": {"dtype": "uint8", "min": -0.23612294565228853, "scale": 0.0009838456068845356, "original_dtype": "float32"}}, {"name": "model_358/tf.nn.convolution_134/convolution/filter", "shape": [3, 3, 1, 1], "dtype": "float32", "quantization": {"dtype": "uint8", "min": -0.41028440992037457, "scale": 0.0016746302445729575, "original_dtype": "float32"}}, {"name": "model_358/tf.nn.convolution_135/convolution/filter", "shape": [3, 3, 1, 1], "dtype": "float32", "quantization": {"dtype": "uint8", "min": -0.2602896783791948, "scale": 0.001020743836781156, "original_dtype": "float32"}}, {"name": "model_358/tf.nn.convolution_136/convolution/filter", "shape": [3, 3, 1, 1], "dtype": "float32", "quantization": {"dtype": "uint8", "min": -0.26928984375999254, "scale": 0.0011362440664978589, "original_dtype": "float32"}}, {"name": "model_358/tf.nn.convolution_137/convolution/filter", "shape": [3, 3, 1, 1], "dtype": "float32", "quantization": {"dtype": "uint8", "min": -0.2982591129401151, "scale": 0.0012223734136889962, "original_dtype": "float32"}}, {"name": "model_358/tf.nn.convolution_138/convolution/filter", "shape": [3, 3, 1, 1], "dtype": "float32", "quantization": {"dtype": "uint8", "min": -0.3651254212155061, "scale": 0.0015213559217312756, "original_dtype": "float32"}}, {"name": "model_358/tf.nn.convolution_139/convolution/filter", "shape": [3, 3, 1, 1], "dtype": "float32", "quantization": {"dtype": "uint8", "min": -0.2547803358193122, "scale": 0.001093477836134387, "original_dtype": "float32"}}, {"name": "model_358/tf.nn.convolution_140/convolution/filter", "shape": [3, 3, 1, 1], "dtype": "float32", "quantization": {"dtype": "uint8", "min": -0.6339136537383584, "scale": 0.006037272892746271, "original_dtype": "float32"}}, {"name": "model_358/tf.nn.convolution_141/convolution/filter", "shape": [3, 3, 1, 1], "dtype": "float32", "quantization": {"dtype": "uint8", "min": -0.4225476371014819, "scale": 0.0016901905484059277, "original_dtype": "float32"}}, {"name": "model_358/tf.nn.convolution_142/convolution/filter", "shape": [3, 3, 1, 1], "dtype": "float32", "quantization": {"dtype": "uint8", "min": -0.23009838654714473, "scale": 0.0010092034497681786, "original_dtype": "float32"}}, {"name": "model_358/tf.nn.convolution_143/convolution/filter", "shape": [3, 3, 1, 1], "dtype": "float32", "quantization": {"dtype": "uint8", "min": -0.26581832380855785, "scale": 0.0015103313852758969, "original_dtype": "float32"}}, {"name": "model_358/tf.nn.convolution_144/convolution/filter", "shape": [3, 3, 1, 1], "dtype": "float32", "quantization": {"dtype": "uint8", "min": -0.12369816145476172, "scale": 0.000570037610390607, "original_dtype": "float32"}}, {"name": "model_358/tf.nn.convolution_145/convolution/filter", "shape": [3, 3, 1, 1], "dtype": "float32", "quantization": {"dtype": "uint8", "min": -0.29088922388413374, "scale": 0.0015150480410631964, "original_dtype": "float32"}}, {"name": "model_358/tf.nn.convolution_146/convolution/filter", "shape": [3, 3, 1, 1], "dtype": "float32", "quantization": {"dtype": "uint8", "min": -0.27617972993894535, "scale": 0.0010959513092815292, "original_dtype": "float32"}}, {"name": "model_358/tf.nn.convolution_147/convolution/filter", "shape": [3, 3, 1, 1], "dtype": "float32", "quantization": {"dtype": "uint8", "min": -0.39073078231338193, "scale": 0.0015883365134690321, "original_dtype": "float32"}}, {"name": "model_358/tf.nn.convolution_148/convolution/filter", "shape": [3, 3, 1, 1], "dtype": "float32", "quantization": {"dtype": "uint8", "min": -0.40978648323638767, "scale": 0.0035633607237946755, "original_dtype": "float32"}}, {"name": "model_358/tf.nn.convolution_149/convolution/filter", "shape": [3, 3, 1, 1], "dtype": "float32", "quantization": {"dtype": "uint8", "min": -0.42217213024987893, "scale": 0.0017091989078942466, "original_dtype": "float32"}}, {"name": "model_358/tf.nn.convolution_150/convolution/filter", "shape": [3, 3, 1, 1], "dtype": "float32", "quantization": {"dtype": "uint8", "min": -0.38483393488853584, "scale": 0.0016516477892211839, "original_dtype": "float32"}}, {"name": "model_358/tf.nn.convolution_151/convolution/filter", "shape": [3, 3, 1, 1], "dtype": "float32", "quantization": {"dtype": "uint8", "min": -0.32028234004974365, "scale": 0.0012477680310314777, "original_dtype": "float32"}}, {"name": "model_358/tf.nn.convolution_152/convolution/filter", "shape": [3, 3, 1, 1], "dtype": "float32", "quantization": {"dtype": "uint8", "min": -0.26638436007368216, "scale": 0.001057080793943183, "original_dtype": "float32"}}, {"name": "model_358/tf.nn.convolution_153/convolution/filter", "shape": [3, 3, 1, 1], "dtype": "float32", "quantization": {"dtype": "uint8", "min": -1.3740620024064008, "scale": 0.01387941416572122, "original_dtype": "float32"}}, {"name": "model_358/tf.nn.convolution_154/convolution/filter", "shape": [3, 3, 1, 1], "dtype": "float32", "quantization": {"dtype": "uint8", "min": -2.2473517670350915, "scale": 0.010909474597257727, "original_dtype": "float32"}}, {"name": "model_358/tf.nn.convolution_155/convolution/filter", "shape": [3, 3, 1, 1], "dtype": "float32", "quantization": {"dtype": "uint8", "min": -0.6571246048983406, "scale": 0.007640983777887681, "original_dtype": "float32"}}, {"name": "model_358/tf.nn.convolution_156/convolution/filter", "shape": [3, 3, 1, 1], "dtype": "float32", "quantization": {"dtype": "uint8", "min": -1.2717025551141476, "scale": 0.011997193916171205, "original_dtype": "float32"}}, {"name": "model_358/tf.nn.convolution_157/convolution/filter", "shape": [3, 3, 1, 1], "dtype": "float32", "quantization": {"dtype": "uint8", "min": -2.0489558332106648, "scale": 0.013134332264170927, "original_dtype": "float32"}}, {"name": "model_358/tf.nn.convolution_158/convolution/filter", "shape": [3, 3, 1, 1], "dtype": "float32", "quantization": {"dtype": "uint8", "min": -0.3538888096809387, "scale": 0.001367361118615258, "original_dtype": "float32"}}, {"name": "model_358/tf.nn.convolution_159/convolution/filter", "shape": [3, 3, 1, 1], "dtype": "float32", "quantization": {"dtype": "uint8", "min": -0.27299344647748797, "scale": 0.0011567518918537626, "original_dtype": "float32"}}, {"name": "model_358/tf.nn.convolution_160/convolution/filter", "shape": [3, 3, 1, 1], "dtype": "float32", "quantization": {"dtype": "uint8", "min": -0.3521065459970166, "scale": 0.0014313274227520999, "original_dtype": "float32"}}, {"name": "model_358/tf.nn.convolution_161/convolution/filter", "shape": [3, 3, 1, 1], "dtype": "float32", "quantization": {"dtype": "uint8", "min": -0.30106277123970143, "scale": 0.0013321361559278824, "original_dtype": "float32"}}, {"name": "model_358/tf.split/split/split_dim", "shape": [], "dtype": "int32"}, {"name": "model_358/tf.nn.convolution_31/convolution/filter", "shape": [1, 1, 256, 128], "dtype": "float32", "quantization": {"dtype": "uint8", "min": -1.7200576080995447, "scale": 0.013651250857932895, "original_dtype": "float32"}}, {"name": "model_358/tf.math.add_43/Add/y", "shape": [128], "dtype": "float32", "quantization": {"dtype": "uint8", "min": -2.9546799192241595, "scale": 0.027874338860605277, "original_dtype": "float32"}}, {"name": "model_358/tf.concat_6/concat/axis", "shape": [], "dtype": "int32"}, {"name": "model_358/tf.nn.convolution_32/convolution/filter", "shape": [1, 1, 512, 256], "dtype": "float32", "quantization": {"dtype": "uint8", "min": -1.3893164735214383, "scale": 0.008523413947984284, "original_dtype": "float32"}}, {"name": "model_358/tf.math.add_44/Add/y", "shape": [256], "dtype": "float32", "quantization": {"dtype": "uint8", "min": -7.976442224839155, "scale": 0.0531762814989277, "original_dtype": "float32"}}, {"name": "model_358/tf.strided_slice_6/ones_like/tensor", "shape": [4], "dtype": "int32"}, {"name": "model_358/tf.strided_slice_6/StridedSlice/end", "shape": [4], "dtype": "int32"}, {"name": "model_358/tf.strided_slice_6/ones_like", "shape": [4], "dtype": "int32"}, {"name": "model_358/tf.nn.convolution_23/convolution/filter", "shape": [1, 1, 128, 64], "dtype": "float32", "quantization": {"dtype": "uint8", "min": -0.8896212867662019, "scale": 0.006688881855384976, "original_dtype": "float32"}}, {"name": "model_358/tf.math.add_31/Add/y", "shape": [64], "dtype": "float32", "quantization": {"dtype": "uint8", "min": -1.5848434167749743, "scale": 0.01015925267163445, "original_dtype": "float32"}}, {"name": "model_358/tf.nn.convolution_25/convolution/filter", "shape": [3, 3, 64, 64], "dtype": "float32", "quantization": {"dtype": "uint8", "min": -1.6579534493240655, "scale": 0.01036220905827541, "original_dtype": "float32"}}, {"name": "model_358/tf.math.add_33/Add/y", "shape": [64], "dtype": "float32", "quantization": {"dtype": "uint8", "min": -2.0084877818238502, "scale": 0.01702108289681229, "original_dtype": "float32"}}, {"name": "model_358/tf.nn.convolution_26/convolution/filter", "shape": [3, 3, 64, 64], "dtype": "float32", "quantization": {"dtype": "uint8", "min": -1.2077802545884078, "scale": 0.008216192208084406, "original_dtype": "float32"}}, {"name": "model_358/tf.math.add_34/Add/y", "shape": [64], "dtype": "float32", "quantization": {"dtype": "uint8", "min": -1.0600649684083228, "scale": 0.012326336841957242, "original_dtype": "float32"}}, {"name": "model_358/tf.nn.convolution_27/convolution/filter", "shape": [3, 3, 64, 64], "dtype": "float32", "quantization": {"dtype": "uint8", "min": -0.4859369379632613, "scale": 0.004153307162079157, "original_dtype": "float32"}}, {"name": "model_358/tf.math.add_37/Add/y", "shape": [64], "dtype": "float32", "quantization": {"dtype": "uint8", "min": -0.9638093885253458, "scale": 0.010829318972194897, "original_dtype": "float32"}}, {"name": "model_358/tf.nn.convolution_28/convolution/filter", "shape": [3, 3, 64, 64], "dtype": "float32", "quantization": {"dtype": "uint8", "min": -1.3983884577657664, "scale": 0.00957800313538196, "original_dtype": "float32"}}, {"name": "model_358/tf.math.add_38/Add/y", "shape": [64], "dtype": "float32", "quantization": {"dtype": "uint8", "min": -0.7862655055289176, "scale": 0.03418545676212685, "original_dtype": "float32"}}, {"name": "model_358/tf.strided_slice_4/ones_like/tensor", "shape": [4], "dtype": "int32"}, {"name": "model_358/tf.strided_slice_4/StridedSlice/end", "shape": [4], "dtype": "int32"}, {"name": "model_358/tf.strided_slice_4/ones_like", "shape": [4], "dtype": "int32"}, {"name": "model_358/tf.nn.convolution_13/convolution/filter", "shape": [1, 1, 64, 32], "dtype": "float32", "quantization": {"dtype": "uint8", "min": -0.7221192724564496, "scale": 0.00468908618478214, "original_dtype": "float32"}}, {"name": "model_358/tf.math.add_17/Add/y", "shape": [32], "dtype": "float32", "quantization": {"dtype": "uint8", "min": -0.5461017629679512, "scale": 0.008952487917507397, "original_dtype": "float32"}}, {"name": "model_358/tf.nn.convolution_15/convolution/filter", "shape": [3, 3, 32, 32], "dtype": "float32", "quantization": {"dtype": "uint8", "min": -1.636656405879002, "scale": 0.010984271180395987, "original_dtype": "float32"}}, {"name": "model_358/tf.math.add_19/Add/y", "shape": [32], "dtype": "float32", "quantization": {"dtype": "uint8", "min": -1.2754895074694765, "scale": 0.011701738600637399, "original_dtype": "float32"}}, {"name": "model_358/tf.nn.convolution_16/convolution/filter", "shape": [3, 3, 32, 32], "dtype": "float32", "quantization": {"dtype": "uint8", "min": -0.7700727448743933, "scale": 0.006755024077845555, "original_dtype": "float32"}}, {"name": "model_358/tf.math.add_20/Add/y", "shape": [32], "dtype": "float32", "quantization": {"dtype": "uint8", "min": -1.620802695610944, "scale": 0.011025868677625469, "original_dtype": "float32"}}, {"name": "model_358/tf.nn.convolution_17/convolution/filter", "shape": [3, 3, 32, 32], "dtype": "float32", "quantization": {"dtype": "uint8", "min": -0.7059859703568852, "scale": 0.005229525706347297, "original_dtype": "float32"}}, {"name": "model_358/tf.math.add_23/Add/y", "shape": [32], "dtype": "float32", "quantization": {"dtype": "uint8", "min": -1.6927632046680825, "scale": 0.01354210563734466, "original_dtype": "float32"}}, {"name": "model_358/tf.nn.convolution_18/convolution/filter", "shape": [3, 3, 32, 32], "dtype": "float32", "quantization": {"dtype": "uint8", "min": -1.3014628877826766, "scale": 0.00978543524648629, "original_dtype": "float32"}}, {"name": "model_358/tf.math.add_24/Add/y", "shape": [32], "dtype": "float32", "quantization": {"dtype": "uint8", "min": -2.0821472149269256, "scale": 0.018928611044790232, "original_dtype": "float32"}}, {"name": "model_358/tf.strided_slice_2/ones_like/tensor", "shape": [4], "dtype": "int32"}, {"name": "model_358/tf.strided_slice_2/StridedSlice/end", "shape": [4], "dtype": "int32"}, {"name": "model_358/tf.strided_slice_2/ones_like", "shape": [4], "dtype": "int32"}, {"name": "model_358/tf.strided_slice/ones_like/tensor", "shape": [4], "dtype": "int32"}, {"name": "model_358/tf.strided_slice/StridedSlice/end", "shape": [4], "dtype": "int32"}, {"name": "model_358/tf.strided_slice/ones_like", "shape": [4], "dtype": "int32"}, {"name": "model_358/tf.compat.v1.pad/Pad/paddings", "shape": [4, 2], "dtype": "int32"}, {"name": "model_358/tf.nn.convolution/convolution/filter", "shape": [3, 3, 3, 16], "dtype": "float32", "quantization": {"dtype": "uint8", "min": -24.350239443311505, "scale": 0.19959212658452052, "original_dtype": "float32"}}, {"name": "model_358/tf.math.add/Add/y", "shape": [16], "dtype": "float32", "quantization": {"dtype": "uint8", "min": -25.173109914742263, "scale": 0.16240716074027267, "original_dtype": "float32"}}, {"name": "model_358/tf.compat.v1.pad_1/Pad/paddings", "shape": [4, 2], "dtype": "int32"}, {"name": "model_358/tf.nn.convolution_1/convolution/filter", "shape": [3, 3, 16, 32], "dtype": "float32", "quantization": {"dtype": "uint8", "min": -1.7621839336320466, "scale": 0.013767061981500364, "original_dtype": "float32"}}, {"name": "model_358/tf.math.add_1/Add/y", "shape": [32], "dtype": "float32", "quantization": {"dtype": "uint8", "min": -4.953308486938476, "scale": 0.09712369582232307, "original_dtype": "float32"}}, {"name": "model_358/tf.nn.convolution_2/convolution/filter", "shape": [1, 1, 32, 32], "dtype": "float32", "quantization": {"dtype": "uint8", "min": -1.4831969901627187, "scale": 0.010228944759742887, "original_dtype": "float32"}}, {"name": "model_358/tf.math.add_2/Add/y", "shape": [32], "dtype": "float32", "quantization": {"dtype": "uint8", "min": -11.964807734769934, "scale": 0.10404180638930377, "original_dtype": "float32"}}, {"name": "model_358/tf.strided_slice_1/ones_like/tensor", "shape": [4], "dtype": "int32"}, {"name": "model_358/tf.strided_slice_1/StridedSlice/end", "shape": [4], "dtype": "int32"}, {"name": "model_358/tf.strided_slice_1/ones_like", "shape": [4], "dtype": "int32"}, {"name": "model_358/tf.nn.convolution_3/convolution/filter", "shape": [3, 3, 16, 8], "dtype": "float32", "quantization": {"dtype": "uint8", "min": -0.13851398510091445, "scale": 0.000911276217769174, "original_dtype": "float32"}}, {"name": "model_358/tf.math.add_3/Add/y", "shape": [8], "dtype": "float32", "quantization": {"dtype": "uint8", "min": -0.09332206997216917, "scale": 0.004241912271462235, "original_dtype": "float32"}}, {"name": "model_358/tf.nn.convolution_4/convolution/filter", "shape": [3, 3, 8, 16], "dtype": "float32", "quantization": {"dtype": "uint8", "min": -27.05965300167308, "scale": 0.19467376260196462, "original_dtype": "float32"}}, {"name": "model_358/tf.math.add_4/Add/y", "shape": [16], "dtype": "float32", "quantization": {"dtype": "uint8", "min": -5.740184980280259, "scale": 0.054668428383621515, "original_dtype": "float32"}}, {"name": "model_358/tf.concat/concat/axis", "shape": [], "dtype": "int32"}, {"name": "model_358/tf.nn.convolution_5/convolution/filter", "shape": [1, 1, 48, 64], "dtype": "float32", "quantization": {"dtype": "uint8", "min": -1.23723871754665, "scale": 0.01066585101333319, "original_dtype": "float32"}}, {"name": "model_358/tf.math.add_7/Add/y", "shape": [64], "dtype": "float32", "quantization": {"dtype": "uint8", "min": -2.566966042799108, "scale": 0.03169093879998899, "original_dtype": "float32"}}, {"name": "model_358/tf.compat.v1.pad_2/Pad/paddings", "shape": [4, 2], "dtype": "int32"}, {"name": "model_358/tf.nn.convolution_6/convolution/filter", "shape": [3, 3, 64, 64], "dtype": "float32", "quantization": {"dtype": "uint8", "min": -0.26930508613586424, "scale": 0.0019801844568813546, "original_dtype": "float32"}}, {"name": "model_358/tf.math.add_8/Add/y", "shape": [64], "dtype": "float32", "quantization": {"dtype": "uint8", "min": -1.4131862261716057, "scale": 0.022431527399549296, "original_dtype": "float32"}}, {"name": "model_358/tf.nn.convolution_7/convolution/filter", "shape": [1, 1, 64, 64], "dtype": "float32", "quantization": {"dtype": "uint8", "min": -1.5706209795147763, "scale": 0.011809180297103582, "original_dtype": "float32"}}, {"name": "model_358/tf.math.add_9/Add/y", "shape": [64], "dtype": "float32", "quantization": {"dtype": "uint8", "min": -4.48658000721651, "scale": 0.040787090974695545, "original_dtype": "float32"}}, {"name": "model_358/tf.strided_slice_3/ones_like/tensor", "shape": [4], "dtype": "int32"}, {"name": "model_358/tf.strided_slice_3/StridedSlice/end", "shape": [4], "dtype": "int32"}, {"name": "model_358/tf.strided_slice_3/ones_like", "shape": [4], "dtype": "int32"}, {"name": "model_358/tf.nn.convolution_8/convolution/filter", "shape": [3, 3, 32, 16], "dtype": "float32", "quantization": {"dtype": "uint8", "min": -0.7730343865413292, "scale": 0.004923785901537129, "original_dtype": "float32"}}, {"name": "model_358/tf.math.add_10/Add/y", "shape": [16], "dtype": "float32", "quantization": {"dtype": "uint8", "min": -1.2797666680579092, "scale": 0.017294144162944718, "original_dtype": "float32"}}, {"name": "model_358/tf.nn.convolution_9/convolution/filter", "shape": [3, 3, 16, 32], "dtype": "float32", "quantization": {"dtype": "uint8", "min": -0.9685472860055812, "scale": 0.008004523024839514, "original_dtype": "float32"}}, {"name": "model_358/tf.math.add_11/Add/y", "shape": [32], "dtype": "float32", "quantization": {"dtype": "uint8", "min": -3.986003797194537, "scale": 0.028884085486916934, "original_dtype": "float32"}}, {"name": "model_358/tf.concat_1/concat/axis", "shape": [], "dtype": "int32"}, {"name": "model_358/tf.nn.convolution_10/convolution/filter", "shape": [1, 1, 96, 128], "dtype": "float32", "quantization": {"dtype": "uint8", "min": -1.1048827152626188, "scale": 0.007780864191990273, "original_dtype": "float32"}}, {"name": "model_358/tf.math.add_14/Add/y", "shape": [128], "dtype": "float32", "quantization": {"dtype": "uint8", "min": -3.988827263140211, "scale": 0.03529935631097532, "original_dtype": "float32"}}, {"name": "model_358/tf.compat.v1.pad_3/Pad/paddings", "shape": [4, 2], "dtype": "int32"}, {"name": "model_358/tf.nn.convolution_11/convolution/filter", "shape": [3, 3, 128, 128], "dtype": "float32", "quantization": {"dtype": "uint8", "min": -1.1154155927545883, "scale": 0.01082927759955911, "original_dtype": "float32"}}, {"name": "model_358/tf.math.add_15/Add/y", "shape": [128], "dtype": "float32", "quantization": {"dtype": "uint8", "min": -1.9416742923212986, "scale": 0.018146488713283164, "original_dtype": "float32"}}, {"name": "model_358/tf.nn.convolution_12/convolution/filter", "shape": [1, 1, 128, 128], "dtype": "float32", "quantization": {"dtype": "uint8", "min": -1.246268928752226, "scale": 0.009660999447691674, "original_dtype": "float32"}}, {"name": "model_358/tf.math.add_16/Add/y", "shape": [128], "dtype": "float32", "quantization": {"dtype": "uint8", "min": -3.922462073494406, "scale": 0.03471205374773811, "original_dtype": "float32"}}, {"name": "model_358/tf.strided_slice_5/ones_like/tensor", "shape": [4], "dtype": "int32"}, {"name": "model_358/tf.strided_slice_5/StridedSlice/end", "shape": [4], "dtype": "int32"}, {"name": "model_358/tf.strided_slice_5/ones_like", "shape": [4], "dtype": "int32"}, {"name": "model_358/tf.nn.convolution_14/convolution/filter", "shape": [1, 1, 64, 32], "dtype": "float32", "quantization": {"dtype": "uint8", "min": -2.0108709195080925, "scale": 0.021167062310611502, "original_dtype": "float32"}}, {"name": "model_358/tf.math.add_18/Add/y", "shape": [32], "dtype": "float32", "quantization": {"dtype": "uint8", "min": -2.8415807555703556, "scale": 0.01894387170380237, "original_dtype": "float32"}}, {"name": "model_358/tf.concat_2/concat/axis", "shape": [], "dtype": "int32"}, {"name": "model_358/tf.nn.convolution_19/convolution/filter", "shape": [1, 1, 64, 64], "dtype": "float32", "quantization": {"dtype": "uint8", "min": -0.9711125609921474, "scale": 0.007301598202948477, "original_dtype": "float32"}}, {"name": "model_358/tf.math.add_27/Add/y", "shape": [64], "dtype": "float32", "quantization": {"dtype": "uint8", "min": -3.9964916004854087, "scale": 0.03330409667071174, "original_dtype": "float32"}}, {"name": "model_358/tf.concat_3/concat/axis", "shape": [], "dtype": "int32"}, {"name": "model_358/tf.nn.convolution_20/convolution/filter", "shape": [1, 1, 192, 128], "dtype": "float32", "quantization": {"dtype": "uint8", "min": -0.8872539969051586, "scale": 0.006429376789167816, "original_dtype": "float32"}}, {"name": "model_358/tf.math.add_28/Add/y", "shape": [128], "dtype": "float32", "quantization": {"dtype": "uint8", "min": -2.193718708262724, "scale": 0.016619081123202456, "original_dtype": "float32"}}, {"name": "model_358/tf.compat.v1.pad_4/Pad/paddings", "shape": [4, 2], "dtype": "int32"}, {"name": "model_358/tf.nn.convolution_21/convolution/filter", "shape": [3, 3, 128, 256], "dtype": "float32", "quantization": {"dtype": "uint8", "min": -1.1814406675450941, "scale": 0.008561164257573146, "original_dtype": "float32"}}, {"name": "model_358/tf.math.add_29/Add/y", "shape": [256], "dtype": "float32", "quantization": {"dtype": "uint8", "min": -5.152254497303683, "scale": 0.030130143259085862, "original_dtype": "float32"}}, {"name": "model_358/tf.nn.convolution_22/convolution/filter", "shape": [1, 1, 256, 256], "dtype": "float32", "quantization": {"dtype": "uint8", "min": -1.4340979505987728, "scale": 0.0129198013567457, "original_dtype": "float32"}}, {"name": "model_358/tf.math.add_30/Add/y", "shape": [256], "dtype": "float32", "quantization": {"dtype": "uint8", "min": -3.9875219270294786, "scale": 0.02808114033119351, "original_dtype": "float32"}}, {"name": "model_358/tf.strided_slice_7/ones_like/tensor", "shape": [4], "dtype": "int32"}, {"name": "model_358/tf.strided_slice_7/StridedSlice/end", "shape": [4], "dtype": "int32"}, {"name": "model_358/tf.strided_slice_7/ones_like", "shape": [4], "dtype": "int32"}, {"name": "model_358/tf.nn.convolution_24/convolution/filter", "shape": [1, 1, 128, 64], "dtype": "float32", "quantization": {"dtype": "uint8", "min": -1.2812423439586864, "scale": 0.014079586197348202, "original_dtype": "float32"}}, {"name": "model_358/tf.math.add_32/Add/y", "shape": [64], "dtype": "float32", "quantization": {"dtype": "uint8", "min": -1.9824981324812947, "scale": 0.02002523366142722, "original_dtype": "float32"}}, {"name": "model_358/tf.concat_4/concat/axis", "shape": [], "dtype": "int32"}, {"name": "model_358/tf.nn.convolution_29/convolution/filter", "shape": [1, 1, 128, 128], "dtype": "float32", "quantization": {"dtype": "uint8", "min": -0.8389131440835841, "scale": 0.005343395822188434, "original_dtype": "float32"}}, {"name": "model_358/tf.math.add_41/Add/y", "shape": [128], "dtype": "float32", "quantization": {"dtype": "uint8", "min": -3.7801597819608803, "scale": 0.026070067461799174, "original_dtype": "float32"}}, {"name": "model_358/tf.concat_5/concat/axis", "shape": [], "dtype": "int32"}, {"name": "model_358/tf.nn.convolution_30/convolution/filter", "shape": [1, 1, 384, 256], "dtype": "float32", "quantization": {"dtype": "uint8", "min": -1.1783006742888806, "scale": 0.007961491042492436, "original_dtype": "float32"}}, {"name": "model_358/tf.math.add_42/Add/y", "shape": [256], "dtype": "float32", "quantization": {"dtype": "uint8", "min": -3.775625758077584, "scale": 0.031203518661798216, "original_dtype": "float32"}}, {"name": "model_358/tf.nn.convolution_33/convolution/filter", "shape": [1, 1, 256, 256], "dtype": "float32", "quantization": {"dtype": "uint8", "min": -1.7284219657673556, "scale": 0.012258311813952876, "original_dtype": "float32"}}, {"name": "model_358/tf.math.add_47/Add/y", "shape": [256], "dtype": "float32", "quantization": {"dtype": "uint8", "min": -4.842197709925035, "scale": 0.0320675345028148, "original_dtype": "float32"}}, {"name": "model_358/tf.strided_slice_9/StridedSlice/begin", "shape": [4], "dtype": "int32"}, {"name": "model_358/tf.strided_slice_9/StridedSlice/end", "shape": [4], "dtype": "int32"}, {"name": "model_358/tf.strided_slice_9/ones_like", "shape": [4], "dtype": "int32"}, {"name": "model_358/tf.nn.convolution_34/convolution/filter", "shape": [1, 1, 128, 256], "dtype": "float32", "quantization": {"dtype": "uint8", "min": -1.194847002216414, "scale": 0.010668276805503696, "original_dtype": "float32"}}, {"name": "model_358/tf.math.add_48/Add/y", "shape": [256], "dtype": "float32", "quantization": {"dtype": "uint8", "min": -5.275573004928289, "scale": 0.07129152709362553, "original_dtype": "float32"}}, {"name": "model_358/tf.compat.v1.transpose_42/transpose/perm", "shape": [4], "dtype": "int32"}, {"name": "model_358/tf.reshape_2/Reshape/shape", "shape": [4], "dtype": "int32"}, {"name": "model_358/tf.strided_slice_12/StridedSlice/begin", "shape": [4], "dtype": "int32"}, {"name": "model_358/tf.strided_slice_12/StridedSlice/end", "shape": [4], "dtype": "int32"}, {"name": "model_358/tf.strided_slice_12/ones_like", "shape": [4], "dtype": "int32"}, {"name": "model_358/tf.reshape_5/Reshape/shape", "shape": [4], "dtype": "int32"}, {"name": "model_358/tf.compat.v1.transpose_60/transpose/perm", "shape": [4], "dtype": "int32"}, {"name": "model_358/tf.nn.convolution_162/convolution/filter", "shape": [3, 3, 1, 1], "dtype": "float32", "quantization": {"dtype": "uint8", "min": -0.29305317062957614, "scale": 0.0012417507230066786, "original_dtype": "float32"}}, {"name": "model_358/tf.concat_7/concat/axis", "shape": [], "dtype": "int32"}, {"name": "model_358/tf.nn.convolution_163/convolution/filter", "shape": [1, 1, 128, 128], "dtype": "float32", "quantization": {"dtype": "uint8", "min": -0.9384602030118308, "scale": 0.008304957548777263, "original_dtype": "float32"}}, {"name": "model_358/tf.math.add_52/Add/y", "shape": [128], "dtype": "float32", "quantization": {"dtype": "uint8", "min": -1.6348988350699931, "scale": 0.009032590249005486, "original_dtype": "float32"}}, {"name": "model_358/tf.nn.convolution_164/convolution/filter", "shape": [1, 1, 128, 256], "dtype": "float32", "quantization": {"dtype": "uint8", "min": -0.4852594859459821, "scale": 0.0036213394473580754, "original_dtype": "float32"}}, {"name": "model_358/tf.math.add_55/Add/y", "shape": [256], "dtype": "float32", "quantization": {"dtype": "uint8", "min": -2.989427894704482, "scale": 0.012404265123255112, "original_dtype": "float32"}}, {"name": "model_358/tf.nn.convolution_165/convolution/filter", "shape": [1, 1, 256, 128], "dtype": "float32", "quantization": {"dtype": "uint8", "min": -2.6589113235473634, "scale": 0.02606775807399376, "original_dtype": "float32"}}, {"name": "model_358/tf.concat_8/concat/axis", "shape": [], "dtype": "int32"}, {"name": "model_358/tf.nn.convolution_166/convolution/filter", "shape": [1, 1, 256, 256], "dtype": "float32", "quantization": {"dtype": "uint8", "min": -0.4838097656474394, "scale": 0.004031748047061995, "original_dtype": "float32"}}, {"name": "model_358/tf.math.add_59/Add/y", "shape": [256], "dtype": "float32", "quantization": {"dtype": "uint8", "min": -3.50742013314191, "scale": 0.02234025562510771, "original_dtype": "float32"}}, {"name": "model_358/tf.concat_18/concat/axis", "shape": [], "dtype": "int32"}, {"name": "model_358/tf.nn.convolution_205/convolution/filter", "shape": [1, 1, 384, 256], "dtype": "float32", "quantization": {"dtype": "uint8", "min": -1.292009858524098, "scale": 0.01104281930362477, "original_dtype": "float32"}}, {"name": "model_358/tf.math.add_113/Add/y", "shape": [256], "dtype": "float32", "quantization": {"dtype": "uint8", "min": -3.4406865119934085, "scale": 0.021639537811279298, "original_dtype": "float32"}}, {"name": "model_358/tf.strided_slice_20/ones_like/tensor", "shape": [4], "dtype": "int32"}, {"name": "model_358/tf.strided_slice_20/StridedSlice/end", "shape": [4], "dtype": "int32"}, {"name": "model_358/tf.strided_slice_20/ones_like", "shape": [4], "dtype": "int32"}, {"name": "model_358/tf.nn.convolution_207/convolution/filter", "shape": [3, 3, 128, 64], "dtype": "float32", "quantization": {"dtype": "uint8", "min": -1.2244841790666767, "scale": 0.008386877938812855, "original_dtype": "float32"}}, {"name": "model_358/tf.math.add_116/Add/y", "shape": [64], "dtype": "float32", "quantization": {"dtype": "uint8", "min": -3.235928643918505, "scale": 0.026743211933210786, "original_dtype": "float32"}}, {"name": "model_358/tf.nn.convolution_209/convolution/filter", "shape": [3, 3, 64, 128], "dtype": "float32", "quantization": {"dtype": "uint8", "min": -0.9198448835634718, "scale": 0.006617589090384689, "original_dtype": "float32"}}, {"name": "model_358/tf.math.add_118/Add/y", "shape": [128], "dtype": "float32", "quantization": {"dtype": "uint8", "min": -3.243491700116326, "scale": 0.024571906819063075, "original_dtype": "float32"}}, {"name": "model_358/tf.nn.convolution_211/convolution/filter", "shape": [1, 1, 128, 256], "dtype": "float32", "quantization": {"dtype": "uint8", "min": -1.185309684977812, "scale": 0.010218186939463896, "original_dtype": "float32"}}, {"name": "model_358/tf.math.add_122/Add/y", "shape": [256], "dtype": "float32", "quantization": {"dtype": "uint8", "min": -4.667645762948429, "scale": 0.034575153799617994, "original_dtype": "float32"}}, {"name": "model_358/tf.compat.v1.transpose_282/transpose/perm", "shape": [4], "dtype": "int32"}, {"name": "model_358/tf.reshape_161/Reshape/shape", "shape": [4], "dtype": "int32"}, {"name": "model_358/tf.strided_slice_23/StridedSlice/begin", "shape": [4], "dtype": "int32"}, {"name": "model_358/tf.strided_slice_23/StridedSlice/end", "shape": [4], "dtype": "int32"}, {"name": "model_358/tf.strided_slice_23/ones_like", "shape": [4], "dtype": "int32"}, {"name": "model_358/tf.reshape_187/Reshape/shape", "shape": [4], "dtype": "int32"}, {"name": "model_358/tf.compat.v1.transpose_344/transpose/perm", "shape": [4], "dtype": "int32"}, {"name": "model_358/tf.nn.convolution_339/convolution/filter", "shape": [3, 3, 1, 1], "dtype": "float32", "quantization": {"dtype": "uint8", "min": -0.3536310136318207, "scale": 0.0017334853609402975, "original_dtype": "float32"}}, {"name": "model_358/tf.concat_19/concat/axis", "shape": [], "dtype": "int32"}, {"name": "model_358/tf.nn.convolution_340/convolution/filter", "shape": [1, 1, 128, 128], "dtype": "float32", "quantization": {"dtype": "uint8", "min": -0.4957353998632992, "scale": 0.0036721140730614755, "original_dtype": "float32"}}, {"name": "model_358/tf.nn.convolution_341/convolution/filter", "shape": [1, 1, 128, 256], "dtype": "float32", "quantization": {"dtype": "uint8", "min": -1.0414822816848754, "scale": 0.008751951946931727, "original_dtype": "float32"}}, {"name": "model_358/tf.math.add_129/Add/y", "shape": [256], "dtype": "float32", "quantization": {"dtype": "uint8", "min": -2.6120133269066903, "scale": 0.014840984811969831, "original_dtype": "float32"}}, {"name": "model_358/tf.nn.convolution_342/convolution/filter", "shape": [1, 1, 256, 128], "dtype": "float32", "quantization": {"dtype": "uint8", "min": -0.9057791202676063, "scale": 0.007132119057225246, "original_dtype": "float32"}}, {"name": "model_358/tf.concat_20/concat/axis", "shape": [], "dtype": "int32"}, {"name": "model_358/tf.nn.convolution_343/convolution/filter", "shape": [1, 1, 384, 256], "dtype": "float32", "quantization": {"dtype": "uint8", "min": -1.3925512351241767, "scale": 0.008703445219526105, "original_dtype": "float32"}}, {"name": "model_358/tf.math.add_133/Add/y", "shape": [256], "dtype": "float32", "quantization": {"dtype": "uint8", "min": -3.5349014796462717, "scale": 0.024719590766757144, "original_dtype": "float32"}}, {"name": "model_358/tf.compat.v1.nn.depthwise_conv2d_4/depthwise/filter_in", "shape": [3, 3, 256, 1], "dtype": "float32", "quantization": {"dtype": "uint8", "min": -13.215262558880974, "scale": 0.0847132215312883, "original_dtype": "float32"}}, {"name": "model_358/tf.math.add_135/Add/y", "shape": [256], "dtype": "float32", "quantization": {"dtype": "uint8", "min": -4.6877622305178175, "scale": 0.03498330022774491, "original_dtype": "float32"}}, {"name": "model_358/tf.nn.convolution_346/convolution/filter", "shape": [1, 1, 256, 64], "dtype": "float32", "quantization": {"dtype": "uint8", "min": -0.34501743830886544, "scale": 0.0027823986960392373, "original_dtype": "float32"}}, {"name": "model_358/tf.math.add_137/Add/y", "shape": [64], "dtype": "float32", "quantization": {"dtype": "uint8", "min": -4.058003997802735, "scale": 0.0265229019464231, "original_dtype": "float32"}}, {"name": "model_358/tf.compat.v1.nn.depthwise_conv2d_5/depthwise/filter_in", "shape": [3, 3, 64, 1], "dtype": "float32", "quantization": {"dtype": "uint8", "min": -2.547776184830011, "scale": 0.01959827834484624, "original_dtype": "float32"}}, {"name": "model_358/tf.math.add_139/Add/y", "shape": [64], "dtype": "float32", "quantization": {"dtype": "uint8", "min": -0.712047931727241, "scale": 0.0058846936506383556, "original_dtype": "float32"}}, {"name": "model_358/tf.nn.convolution_348/convolution/filter", "shape": [1, 1, 64, 64], "dtype": "float32", "quantization": {"dtype": "uint8", "min": -0.5787769317626954, "scale": 0.004593467712402344, "original_dtype": "float32"}}, {"name": "model_358/tf.math.add_140/Add/y", "shape": [64], "dtype": "float32", "quantization": {"dtype": "uint8", "min": -0.5798560123817593, "scale": 0.006103747498755361, "original_dtype": "float32"}}, {"name": "model_358/tf.nn.convolution_349/convolution/filter", "shape": [1, 1, 64, 59], "dtype": "float32", "quantization": {"dtype": "uint8", "min": -0.2519076478247549, "scale": 0.001625210631127451, "original_dtype": "float32"}}, {"name": "model_358/tf.math.add_142/Add/y", "shape": [59], "dtype": "float32", "quantization": {"dtype": "uint8", "min": -8.5859375, "scale": 0.00015318627450980392, "original_dtype": "float32"}}, {"name": "model_358/tf.compat.v1.transpose_436/transpose/perm", "shape": [4], "dtype": "int32"}, {"name": "model_358/tf.reshape_265/Reshape/shape", "shape": [3], "dtype": "int32"}, {"name": "model_358/tf.concat_27/concat/axis", "shape": [], "dtype": "int32"}, {"name": "model_358/tf.concat_28/concat/axis", "shape": [], "dtype": "int32"}, {"name": "model_358/tf.compat.v1.transpose_462/transpose/perm", "shape": [3], "dtype": "int32"}, {"name": "model_358/tf.strided_slice_27/StridedSlice/begin", "shape": [3], "dtype": "int32"}, {"name": "model_358/tf.strided_slice_27/StridedSlice/end", "shape": [3], "dtype": "int32"}, {"name": "model_358/tf.strided_slice_27/ones_like", "shape": [3], "dtype": "int32"}, {"name": "model_358/tf.math.reduce_max_1/Max/reduction_indices", "shape": [1], "dtype": "int32"}, {"name": "model_358/tf.math.top_k/TopKV2/k", "shape": [], "dtype": "int32"}]}]}